tasks/task1/weights/yunet_final.pth (torch, 405729 bytes, 158 tensors)

model0.conv1.weight f4 [16, 3, 3, 3]
00000000: 70f2 d4ba 38d2 823d ab5f 2f3d 3482 373e
00000010: f928 4dbd 7437 11be 7cb3 f93d f000 cdbc
00000020: fba0 0fbe 5bba 813d 792f 05be e8d5 79be
00000030: c695 d23e 616b 14be 3823 abbe 0b15 1a3f
00000040: d5e4 8e3d 8530 35be 4eea f63d 06b0 19bc
00000050: 63de c63c 3cec 2b3e 2ed4 7dbe face 60be
00000060: 65ee 5c3e eea8 c9bd 8fde 80bd 596c fc3a
00000070: 1e48 163c 671f 9d3d d7d1 be3c f736 46be
00000080: 1788 28bd 9cb1 eabc 632d c03c d10d c2bc
00000090: c237 69bd 0cf7 4fbe 6c1a 06bd f173 9fbd
000000a0: 4418 edbe 7514 4ebe a736 00be 7d26 19be
000000b0: b21b 20be 4fba 32bd 0a7a 4ebd a5e0 e6bc
000000c0: 322e 1d3d bf91 e2bd dfc1 91bb c7f9 9c3b
000000d0: 5bef 743e ef3a 163e 5a09 d03d f9c3 29bc
000000e0: 53dc 463e afd4 84bd b1b9 36be d82d 153d
000000f0: 7024 edbb 24c9 00be 90b1 3c3e f87d bebe
00000100: b31a d2be 3713 83be 6a8a b0be 601c e5be
00000110: 2893 afbe 44b8 6fbe e92a ddbe 95a7 8fbe
00000120: a91e 1c3e 87cd f63e 404e 603d 0917 023f
00000130: d7e9 4d3f cc5b d03e c827 463e 4350 943e
00000140: 25b4 973d bfd6 503d 842e 843e 4331 8e3d
00000150: ced9 a0bc 1bfe d0be cedd 6dbd 67e8 09bc
00000160: fe40 2c3d f27c 143e 79d6 263e 1e09 123f
00000170: 913f b13e 512b 94be 03ae 47bf 3868 a9be
00000180: 4f28 263d df5d 10be 39b7 e23d b94f 9d3e
00000190: 154b 3a3f 3c18 ca3e 8ade d3bd 3b34 0bbf
000001a0: 3bf5 8cbe 1b83 8cbd 1248 b1bd cbe9 8fbd
000001b0: 092f 4abc ca86 233d f2cc 05bc 5d34 41bd
000001c0: a9ce 9cbc 61a4 003b 6717 783d 163b 69bc
000001d0: 2dd4 cd3b 6e3b 43be 6e13 17be df73 4dbd
000001e0: 0dca 6dbe ff1d 42be 8c1d 4ebc 4af9 5abd
000001f0: a086 a6bd df7e 553d 5374 1b3d a3fe 333d
00000200: 1039 083d 347a 5ebc 4192 9ebc caee ec3c
00000210: 51db 43bd df35 f4bd 5c06 40bd beee cbbc
00000220: 32b9 743b c89f d7bb 2b85 1d3c 6c08 063d
00000230: af3b 0a3d f0e5 093e 3dad bcbc d017 af3d
00000240: 9f57 c33d 57c9 503e 0dd5 ec3d a011 b43d
00000250: ed9a 393e a96c b53d ef25 fe3d 315a 773c
00000260: f9c6 3d3d 2b9b 72bd 088b e73d dd23 90bc
00000270: c51a cf3d 2da9 763e 7319 a83d 2177 c9bd
00000280: a6d6 44be b1d8 51be 9632 d1bd 3d99 913d
00000290: 4c58 b6bd 0de3 acbc b4e6 f33d 2e86 97bd
000002a0: 7a4f 3fbd a8af b2bc 0be3 b0bd 0556 8b3c
000002b0: ec0b 523e be5d b83d 2d3d 19bc e26b 203e
000002c0: f204 1e3d aec4 e8bc 42bf dabb e024 b83c
000002d0: caf9 8a3d f815 403d d210 cc3d 63a3 edbc
000002e0: 6493 84bd 8448 b4bb 8696 0a3e c2d1 213c
000002f0: 55ec 4f3e 448f 59be da11 fb3c 3c88 5ebe
00000300: 846b ec3d 1fe4 983e 73ce ce3d 2cb9 2b3e
00000310: e93f fd3d 41ed fa3d dc13 653e 56a3 e63e
00000320: 8d20 853e 9793 9c3e ed8e ee3e 0d3e b03e
00000330: 6de3 8e3e 1280 633e c9c8 9c3e 8cbc 4cbe
00000340: d940 78be d2b8 80be e0b4 c0be 490d debe
00000350: 4d5c bbbe 27cd c6be 025f 19bf a5b8 adbe
00000360: 74af c3bd c0ad 34be c2b2 fa3c f6ce 5ebe
00000370: 1013 73be d07d 903e c9d4 893e 0bef 7e3d
00000380: 813e bc3d 5408 d7bb 9cf1 4fbe b99d a73e
00000390: bdb2 eabe e4c2 e7be 8986 093f d1b8 803d
000003a0: 22ef 26be 60d4 053e b516 193c bd22 82be
000003b0: a331 833e 17ca aabe 6130 c7be 0c0e 103f
000003c0: 164c 183e 705c b9bd ec9e 9e3e c6df b5bc
000003d0: 0978 c7bd 9eb2 bdbd 4efd 633e a6ed 35be
000003e0: 8caa f23d 06a7 063d 65f5 2dbd 9b38 953d
000003f0: b7c0 f03d df9d f9be e72b 55be 4c56 eb3e
-0.0016246568 0.06387752 0.042815845 0.17920762 -0.050087903 -0.1418131 0.12192437 -0.025024861
-0.14026253 0.063343726 -0.1300639 -0.24398005 0.41129893 -0.14494087 -0.33425307 0.6018836
0.0697724 -0.1769429 0.12056409 -0.009380346 0.024275964 0.16789335 -0.24787971 -0.21953955
0.21575315 -0.09846674 -0.0629245 0.0019258364 0.0091724675 0.07672005 0.023293419 -0.19356905
-0.04114541 -0.028649144 0.023459142 -0.023688229 -0.05693794 -0.20309085 -0.03274004 -0.07785786
-0.46307576 -0.20124991 -0.12520848 -0.14956088 -0.15635565 -0.04363471 -0.050409354 -0.02818329
0.038374133 -0.11062955 -0.00444816 0.004790518 0.23919432 0.14670919 0.10158034 -0.010361665
0.19419985 -0.06485879 -0.17844273 0.036420673 -0.0072370097 -0.12576729 0.1842711 -0.37205482
-0.41035995 -0.25600597 -0.34480602 -0.4474821 -0.3429196 -0.23410136 -0.431968 -0.28057542
0.15246071 0.4820368 0.054762125 0.508164 0.80434936 0.40695035 0.19351113 0.28967485
0.07407407 0.050986048 0.2581674 0.0694299 -0.019635107 -0.40818867 -0.058072858 -0.008417225
0.04205417 0.14500788 0.16292752 0.5704516 0.3461881 -0.28939298 -0.77999896 -0.33087325
0.040565785 -0.14098309 0.11070103 0.30724886 0.72770816 0.39471614 -0.1034518 -0.5437657
-0.27530846 -0.06860944 -0.086563244 -0.07027014 -0.012340316 0.039923467 -0.008166539 -0.04716908
-0.019141512 0.0019629227 0.060569193 -0.014235279 0.006281397 -0.1906564 -0.14753506 -0.05015933
-0.23221608 -0.18956755 -0.012580287 -0.053460397 -0.081311464 0.052122947 0.037952732 0.043944012
0.033257544 -0.01357894 -0.019356849 0.028922457 -0.04781658 -0.119243376 -0.046881065 -0.024894115
0.003734183 -0.0065803267 0.009614269 0.032722875 0.033748325 0.1346662 -0.023031825 0.08549464
0.09538197 0.20389305 0.11564074 0.08792424 0.18125506 0.08858616 0.12409579 0.015097187
0.046332333 -0.05923001 0.11305815 -0.017595226 0.10112528 0.24087973 0.08207979 -0.09837175
-0.19222507 -0.20492817 -0.102147266 0.07109306 -0.0890356 -0.02110436 0.119092375 -0.073986396
-0.046706654 -0.021812275 -0.08637055 0.01700879 0.2051236 0.09002255 -0.009352964 0.15666154
0.038578935 -0.028414097 -0.0066756317 0.02247852 0.06785925 0.04689595 0.09964146 -0.029008573
-0.06473425 -0.0055018086 0.13533983 0.00987667 0.20304997 -0.21246058 0.03064816 -0.21731657
0.115439445 0.29861543 0.10097971 0.16769856 0.123657055 0.12252284 0.22370857 0.4504649
0.26001397 0.30581352 0.4659342 0.3442234 0.27907887 0.22216824 0.30621937 -0.199938
-0.24243487 -0.25141007 -0.37637997 -0.4336951 -0.36593857 -0.38828394 -0.59910595 -0.33929935
-0.095549494 -0.17644405 0.030602816 -0.21758637 -0.2373774 0.28220987 0.26920155 0.062239688
0.09191609 -0.006562272 -0.2030701 0.3273752 -0.4583949 -0.45265877 0.5372091 0.06285251
-0.1630216 0.13069296 0.009343793 -0.25417128 0.25623807 -0.33357307 -0.38904098 0.56271434
0.14872774 -0.09050834 0.30980623 -0.02220143 -0.09739692 -0.09262584 0.22264597 -0.17766437
0.118489355 0.03287413 -0.042470355 0.07286187 0.117555074 -0.4875326 -0.20817529 0.45964277

model0.conv1.bias f4 [16]
00000000: 675b ef32 dad9 ea32 9e69 0c33 d2f1 be32
00000010: 0d8f d032 8457 0333 7c0f f732 7f94 1633
00000020: 9f50 1433 00cf d732 ab67 f832 8126 0d33
00000030: fe82 0633 15da cd32 4165 e532 b131 f932
2.7864827e-08 2.7340253e-08 3.269235e-08 2.2228878e-08 2.4279439e-08 3.058041e-08 2.8761626e-08 3.5059653e-08
3.453226e-08 2.5123427e-08 2.8918143e-08 3.286414e-08 3.1318443e-08 2.3964313e-08 2.6705154e-08 2.9010012e-08

model0.conv2.conv1.weight f4 [16, 16, 1, 1]
00000000: adec 733e 167e 81be ff70 1c3c 6855 afbd
00000010: 8f5f 94bd 441a 423e 8e1a 753c a7d8 fdbb
00000020: a719 5cba e6fd eebe 3a3f cd3c aa0e f3bd
00000030: e8de 4abe 16e1 813e 1a52 7b3d a01d 36bc
00000040: 3d13 213d 56dc 8fbc 3316 073e 5ca3 73be
00000050: ae37 a2be 5dd6 a0be 160f 0d3d 5843 bdbd
00000060: fdbc b7bd 85f6 b3bd 3f0e d6bc f8f0 ba3e
00000070: cacd 9bbd d54a c6be 972d 0d3e c0bc 8a3d
00000080: 334d 493c d0ee c5be 7454 063d caa8 14bd
00000090: 9a33 01bf a0b4 633e 4d03 16bd 130b 01bd
000000a0: 00e9 7dbe a249 a5be a42d eabc d07f 8abd
000000b0: 5000 0d3e 8be3 253e ab21 5a3d eb89 c7bc
000000c0: e9ac 303b 58cf d83e 0f8c 8e3e 97bb e13d
000000d0: 923d 473e 185a 74bd 73d0 8e3e dc24 3e3f
000000e0: de09 ab3d 552a 0d3e f0fc 19bd 4b9d 603d
000000f0: e915 aa3c 1732 273e 1b31 083f 7c2d 053f
00000100: a29d ec3d 120c bf3c 93b1 f13d 6cd9 793e
00000110: 7051 513e 7b83 9d3c 0d7c 5f3e 184c 7b3d
00000120: 3838 973e 7395 57be be7c 59be 87bb 8c3e
00000130: 567c 37be 72da 15be c97e b1bc 37ec 9bbd
00000140: 7302 e93e 8041 b1be da34 4a3c cca4 9b3e
00000150: 8764 5ebe d4e6 b63e 71ae a73c 25d9 643d
00000160: 98c7 8e3d ea2c 35bd 7d4a dabe af0f d63e
00000170: 33e7 26bf b3d8 0e3e 1367 b03d 709c 5f3d
00000180: f549 64bd 1004 cfbd 26b3 2bbe 40c7 2a3e
00000190: 29dc 9ebd b33e 163c 80a3 c3bd c9de e83d
000001a0: dd0c a7be c884 873e d57f 08be 59a7 aa3e
000001b0: 9ba2 ce3e a67e 633e ee12 833c 79fb 283d
000001c0: 2189 e63e 3f61 02bc 6368 4d3d e0f2 a63e
000001d0: 4dc3 923d 73a9 ce3c 9775 0c3e c171 a5bd
000001e0: aefd 143d eb5a 92be 72ab a8be d326 b43e
000001f0: 699a e7be 5235 e3bd c0fc 8abd 551a 96bd
00000200: e44a 0d3e eeb8 8cbd 9a80 04bd b938 c23e
00000210: d3db 30bc dd05 35bd 8b0c 4e3c bf10 9d3d
00000220: c82c 21bb 4f73 d9bd 8012 04bf d965 cf3e
00000230: 7812 bebc 7995 62bd 8a2f 213c 211a 453c
00000240: 7931 72be 5763 f3bd e3e2 71bd a0f3 923e
00000250: 15b1 68be 9af6 473d 296c b7bb 31d7 123c
00000260: c3b7 18be 9669 063e 0b4a ddbe f4d2 bd3e
00000270: 0d3c 723e 92c1 07bd d315 a8bc a0a5 92bb
00000280: 0047 9bbe aa8a 03bf a756 623e 946d 4db9
00000290: f7b0 84be e670 213f 674b 153e 10ef f4bd
000002a0: c011 e4bd ecaf 473e 1fde 9bbb 1f7f a6bd
000002b0: 7e01 6f3e b9b2 103e 5003 f53b 1023 473d
000002c0: 61c2 80bd 1dcc 06bf c3da b03e 4220 b83c
000002d0: b8c2 01bf 99c5 183f 0123 3c3e fbd5 4cbe
000002e0: be27 f1bc 706e 873c 3f2a 7f3c c1f0 a1bd
000002f0: f4d0 5bbd 9be7 78bd cd40 ca3c 5811 ab3b
00000300: 89f6 e3bb 4f65 65be 90d6 88be 6c56 a5bd
00000310: 9b0b c9bc e01c 233d 423b 17bf 262b 08be
00000320: a70a d7bc d420 d4bd c34e c83d 3671 db3b
00000330: c547 2d3d f1a6 56bd 393f 2bbf 0c93 613e
00000340: b2df 43bd 4c98 9dbe 5967 69bf fae7 a03c
00000350: ebda 1abd e243 b43d 8bc6 1ebe 6c17 6a3e
00000360: 2b15 42bb d333 043d 5e64 86bc eb30 5c3c
00000370: 68af 21bd 9304 7abd bc92 523e 3688 3bbe
00000380: 8779 82be a960 d13d e394 963d 6e63 d93e
00000390: 96d3 debc 229f bcbd ca25 3d3e 8328 563c
000003a0: 694a 08bf e261 fcbc 9fae a5be 7134 d03e
000003b0: 0061 b63e 3f2a 4dbe ba4d 3bbd c7a8 27bd
000003c0: 572d 2c3d a6e7 803d 9404 f8bd 4a3b 0b3f
000003d0: f3d7 dcbc 4ae0 303d 8aae 8ebd 8518 953d
000003e0: 4c79 c43b e7ea abbd a911 d8bd d4cc fa3c
000003f0: a210 943d 3483 323e bb39 73bd 9924 823d
0.23820753 -0.25291508 0.009548425 -0.08561212 -0.07244789 0.18955332 0.014959944 -0.0077467742
-0.00083961565 -0.46678084 0.025054563 -0.11868031 -0.19811594 0.2536704 0.061357595 -0.011115462
0.039324988 -0.017561119 0.13192062 -0.23792785 -0.31683105 -0.31413546 0.034438215 -0.092413604
-0.089715935 -0.08787254 -0.02612984 0.3651197 -0.076076105 -0.38728967 0.13786922 0.067742825
0.012286472 -0.38658762 0.032795385 -0.036293782 -0.5046936 0.22236872 -0.03662424 -0.0315047
-0.24795914 -0.3228274 -0.028586216 -0.067626595 0.1376965 0.16200082 0.053254765 -0.024357757
0.0026958531 0.4234569 0.2784123 0.11022108 0.19457081 -0.059656233 0.2789341 0.7427499
0.083514914 0.1378568 -0.037594736 0.054837506 0.0207624 0.16327702 0.5319993 0.5202253
0.115535036 0.023321185 0.11801448 0.24399346 0.20441222 0.019227734 0.21824665 0.061351866
0.2953508 -0.21053104 -0.21238992 0.27486822 -0.17918524 -0.14634112 -0.021666901 -0.07613414
0.4550968 -0.34620285 0.012341702 0.30399168 -0.21718036 0.35722983 0.020468922 0.055871148
0.06971663 -0.044232287 -0.42634955 0.4180884 -0.6519653 0.13949852 0.0861341 0.05459255
-0.055734593 -0.10108197 -0.16767558 0.1667757 -0.07756836 0.009170222 -0.095526695 0.11370618
-0.32627 0.26468492 -0.13330014 0.333308 0.40358433 0.22216281 0.016000237 0.041255448
0.45026496 -0.007957756 0.05014838 0.32607174 0.07166157 0.025227284 0.13716732 -0.080783375
0.03637474 -0.2858499 -0.32943302 0.3518587 -0.45234993 -0.110941544 -0.067864895 -0.07329241
0.137981 -0.0687121 -0.032349207 0.379339 -0.010794598 -0.044195045 0.012576233 0.0766921
-0.0024593342 -0.106176965 -0.5159073 0.4050739 -0.023202166 -0.05531833 0.009837994 0.012030155
-0.23651685 -0.11884182 -0.059054267 0.28701496 -0.22723801 0.048819162 -0.0055976105 0.008962438
-0.1491385 0.13126215 -0.43220553 0.37075007 0.2365572 -0.033143587 -0.02051822 -0.0044753104
-0.30327606 -0.5138346 0.22103368 -0.00019591145 -0.25916263 0.63062894 0.14579545 -0.1195966
-0.11136198 0.19500703 -0.0047567035 -0.08129715 0.23340413 0.14130677 0.0074772015 0.048617423
-0.06287075 -0.526552 0.34541902 0.02247632 -0.5068774 0.5967651 0.18372728 -0.20003502
-0.029437896 0.016532153 0.015574037 -0.07907248 -0.05366607 -0.06076775 0.024689103 0.0052205734
-0.0069568795 -0.22401927 -0.26726198 -0.08073124 -0.024541667 0.03982246 -0.59074795 -0.1329771
-0.026250197 -0.10357824 0.097806476 0.0066968454 0.042304773 -0.0524053 -0.66893345 0.2202875
-0.047820754 -0.30780256 -0.9117332 0.019641865 -0.037806433 0.0880201 -0.15505426 0.22860497
-0.0029614668 0.032275986 -0.01640528 0.013439397 -0.03947392 -0.06103952 0.20563787 -0.18313679
-0.25483343 0.102235146 0.07352617 0.4245867 -0.027200501 -0.0921004 0.18471447 0.013071182
-0.5323854 -0.030808393 -0.32359788 0.4066501 0.3562088 -0.20035647 -0.045728423 -0.040932443
0.042035427 0.062941834 -0.12110248 0.5438734 -0.026958441 0.04318265 -0.069668844 0.07280067
0.005995905 -0.083944134 -0.105502434 0.030615248 0.07229735 0.17432863 -0.059381228 0.06354637

model0.conv2.conv1.bias f4 [16]
00000000: 1745 423e cfcc 103e c727 5f3d b573 343e
00000010: e00c 25be 7ac8 2ebe 6f51 a6be 6c42 a73d
00000020: 7fae 1d3d 94c6 31be 1f92 d63d 6a65 04be
00000030: cf06 f63e 10a6 293f dec2 6abd 8020 ba3e
0.18971668 0.14140628 0.054481294 0.17622264 -0.16118193 -0.17068663 -0.32484004 0.08166966
0.03849649 -0.17360908 0.10477089 -0.12929311 0.4805207 0.66269016 -0.057314746 0.3635292

model0.conv2.conv2.weight f4 [16, 1, 3, 3]
00000000: beed b4bd 3433 50be 2535 793e fcdd 9e3b
00000010: 6d92 e6be d5de 1f3f 9fa1 91bd fa04 15be
00000020: 5465 753d 7a75 ac3d 6fcd 023f 3a47 a13e
00000030: 55ff 2ebe 2d94 07bf 81de 9bbe ebb4 913c
00000040: ee7a 403c 738d 5b3c 2ae1 123d 2cb9 703e
00000050: 9e86 a4be 7f40 d2bd eded 303f bae6 22bf
00000060: 055b a23d 0926 8c3d cb85 a5bd 1d86 8d3c
00000070: 18a8 b03e 6137 a03d f17c 5c3d 989f 723e
00000080: 73ad 723e 7462 453d b877 44bd 7009 523c
00000090: d8e7 f33d 2cc4 33be 8d4f 89bd b1b9 8abd
000000a0: 324f 2e3f 6894 0bbf 07e8 1d3b 73f8 f13d
000000b0: c032 af3b ac89 68bd 6c12 51be 2a31 88bc
000000c0: 1efb 9cbd 7b17 8abe bb10 c8be 360f 8abd
000000d0: 27cd e0bd 2d7b 85be 97cb dbbc f92a 59be
000000e0: c696 c0bc 3f07 ca3d 1475 3bbf e5f6 813e
000000f0: b2fe 9ebd 3afd 07bd a33b da3d 6ced 023e
00000100: 5b02 fab8 a4c1 8abd 60e9 4d3c 4945 073f
00000110: f32d c93e 592c dbbd 1f12 bdbe 6f85 973d
00000120: 02f3 48be a711 a5be fd48 c9be 0a13 82bc
00000130: 70ad 1f3c 728c f5bc fd31 fa3d dd50 1b3e
00000140: dd66 0f3e db34 d23d 6757 773e 22c1 7a3d
00000150: c6c3 693e 95ae 903a a840 c7be e05d 64bd
00000160: 8a65 d9be e0f7 00be c08e 17bd cfe3 0a3e
00000170: 687f 493e 3916 733d bab3 993e b8d9 7c3e
00000180: a0d9 983c 4937 0b3e a77c ea3d 96d3 f7be
00000190: f54e 78bf 7064 3abf 912b 30be c54c ea3e
000001a0: 1be1 043e 8442 cb3e 21cc 2d3f 78e9 2a3f
000001b0: c37e 6c3c baf5 103e a030 2a3d 497b cb3d
000001c0: c404 543e 2003 5b3e f456 e03d e806 aa3d
000001d0: 8e77 a63d 28fb d1bd 04ee 023f 59d3 173e
000001e0: b583 c53d 0947 373e 30e7 8e3e d21c 643c
000001f0: c5d8 f7bd c2f9 52bd 620e eabc c11a 59be
00000200: 8878 343e ec91 0e3d e079 423f afa6 c83d
00000210: d25e 6f3d f032 2cbe e4f4 b93b 9af5 833d
00000220: b571 9b3e 4135 5f3e 398c 1cbe 9299 fabe
00000230: c8e7 b5be 3112 623c 3743 223d 14fd 583d
-0.08834408 -0.20332032 0.2433668 0.00484824 -0.4503359 0.6244939 -0.07110905 -0.1455268
0.059911087 0.084208444 0.51094717 0.31499654 -0.17089589 -0.52960473 -0.30443195 0.017786464
0.011748059 0.013400423 0.035859264 0.23508137 -0.32133955 -0.10266208 0.69113046 -0.6363331
0.07927517 0.06843192 -0.080821596 0.017275864 0.34503245 0.07823063 0.05383009 0.23693693
0.23698978 0.048189595 -0.047965735 0.012819633 0.11909455 -0.17555302 -0.06704626 -0.06773699
0.6808959 -0.54523325 0.0024094598 0.11814966 0.005346626 -0.05677192 -0.20417184 -0.016625006
-0.07665084 -0.2697104 -0.39075264 -0.067411825 -0.1097663 -0.26070538 -0.026830478 -0.21207799
-0.023509394 0.09864663 -0.7322552 0.25383678 -0.07763423 -0.03320048 0.10655906 0.12785882
-0.00011921368 -0.06775215 0.012567848 0.52840096 0.3929287 -0.10701818 -0.36927888 0.07398497
-0.1962395 -0.3224003 -0.39313498 -0.01587822 0.009745941 -0.029974196 0.12216566 0.15167566
0.14004083 0.10263988 0.24154435 0.061219342 0.22828588 0.0011038358 -0.38916516 -0.05575359
-0.4246028 -0.12594557 -0.03700137 0.13563465 0.19677508 0.059347365 0.30019933 0.24692428
0.01865846 0.13595308 0.11449557 -0.48403615 -0.9699548 -0.72809505 -0.1720412 0.45761696
0.12976496 0.39699185 0.678896 0.66762495 0.014434519 0.14156237 0.04155028 0.09935624
0.20704943 0.21387911 0.10954085 0.083020985 0.08128272 -0.102529824 0.51144433 0.14826716
0.09644262 0.17898192 0.27910757 0.013922887 -0.121018924 -0.05150772 -0.028571311 -0.21201612
0.17624104 0.03480713 0.75967216 0.09797417 0.058440037 -0.16816306 0.005674945 0.06443329
0.3036019 0.21797659 -0.15287866 -0.4894529 -0.35528398 0.0137982825 0.039614882 0.05297573

model0.conv2.conv2.bias f4 [16]
00000000: 0793 ee34 508e f434 0d09 d434 c902 e735
00000010: 0761 9f34 4bb4 0835 3074 2f34 b8d2 4734
00000020: 1bdf fcb3 e6cb 0e35 9929 8835 af01 12b4
00000030: 6603 f334 0234 13b5 970f 2532 53c3 cdb5
4.443793e-07 4.5552088e-07 3.9494662e-07 1.7211652e-06 2.9686655e-07 5.092631e-07 1.6340414e-07 1.8609978e-07
-1.1775247e-07 5.3195834e-07 1.0144896e-06 -1.3597922e-07 4.526475e-07 -5.483745e-07 9.607809e-09 -1.5330537e-06

model0.conv2.bn.weight f4 [16]
00000000: 2374 aa3e 1e28 9d3e ae05 ae3e c587 e63e
00000010: 16f6 aa3e 1479 c33e 5e97 da3e 01f4 a83e
00000020: 32d3 8f3e df66 993e 2177 da3e e9cc bd3e
00000030: f36c f53e bed2 d23e 1c03 ad3e 1a59 a43e
0.3329173 0.3069467 0.33988708 0.4502546 0.33390874 0.38178313 0.4269361 0.3299866
0.28090817 0.29961297 0.42669013 0.37070397 0.47934684 0.4117641 0.33791435 0.3209923

model0.conv2.bn.bias f4 [16]
00000000: 570f 00bd 7262 77bc eba0 c3bc 5d41 af3e
00000010: 0f5b 11bd c96c 303f 0202 8bbd b39a 963b
00000020: e52e 34bb b40d 53bd e6a3 6d3f 6ca8 ae3d
00000030: 765d d03e 019e 4e3f 9f2f b03d c2b3 03bd
-0.03126463 -0.015099155 -0.023880443 0.34229556 -0.03548723 0.6891599 -0.06787492 0.0045960783
-0.0027493772 -0.05152674 0.92828214 0.08528218 0.40696305 0.80709845 0.08602833 -0.032153852

model0.conv2.bn.running_mean f4 [16]
00000000: 05ac 21bb c764 943a 304c 2c3b 3476 643f
00000010: 3cfc a3ba 9036 953b 63e5 363d d562 c93c
00000020: 2e0c d3bd 930f d8bb b343 ba3e 7c9f 1f3b
00000030: fc2c cb3d b38f f23e d084 6e3d b91a 33be
-0.0024669182 0.0011321538 0.0026290528 0.89242864 -0.0012511085 0.0045536235 0.044652354 0.02458326
-0.103050575 -0.0065936535 0.36379775 0.0024356535 0.099206895 0.4737526 0.05823213 -0.17490663

model0.conv2.bn.running_var f4 [16]
00000000: b109 543c 83ee 533c 8a57 4e3c afed 843d
00000010: 5a0e 393c 4ad7 d23d f90e 073d b5da 943c
00000020: 3c72 0a3c 4dbe 0e3c efde 0d3e 4326 8a3d
00000030: 6b99 8e3d 7fd9 f83d d825 083d fe82 493c
0.012941764 0.012935284 0.012594113 0.06490647 0.011294926 0.102949694 0.032973263 0.018170694
0.008450087 0.008712363 0.13854574 0.06745579 0.06962856 0.12150859 0.033239216 0.012299297

model0.bn1.weight f4 [16]
00000000: 72d1 f63e 5dde 383f f6af c13e 17ba c23e
00000010: f8de 373f 8c26 e63e 7030 163f f758 f63e
00000020: 8fff 863e fb76 933e 14d7 043f 1e2e cb3e
00000030: d255 e33e e536 853e 051a c93e 5bae bf3e
0.4820667 0.722143 0.3782956 0.380326 0.718246 0.44951284 0.5866766 0.4811475
0.2636685 0.28801712 0.51890683 0.39683622 0.44401413 0.26018444 0.39277664 0.3743771

model0.bn1.bias f4 [16]
00000000: 4ae1 b1be 5be5 9cbe 610c 593e f84f 963e
00000010: 20d0 3cbf 15b0 3b3e 539f 22bf 6c27 4b3e
00000020: 48e0 5b3e 28ff a03e 914e c3be 60b0 503e
00000030: 8759 333e 0d7d ec3d 84d8 663e a63e 333d
-0.34742194 -0.30643734 0.21196128 0.29357886 -0.73755074 0.18328889 -0.6352436 0.19839257
0.21472275 0.3144467 -0.3814588 0.20379782 0.1751462 0.11547289 0.22543532 0.043760918

model0.bn1.running_mean f4 [16]
00000000: 7c98 2a40 25fd 10c3 dbc7 1242 a34e b440
00000010: 113a d3c2 9771 ee42 5714 a242 fd34 dcc1
00000020: 4454 6c40 dcce dc40 d288 e23e 742e 24c1
00000030: 47a9 3bc1 8480 9d40 885d 81c0 5e96 0441
2.665557 -144.98885 36.69517 5.634599 -105.61341 119.221855 81.03973 -27.525873
3.6926432 6.9002514 0.4424501 -10.261341 -11.728827 4.921938 -4.0426674 8.286711

model0.bn1.running_var f4 [16]
00000000: 83aa cb44 e040 1f46 79c1 3646 d502 2345
00000010: faa2 9845 4934 cf45 4366 2945 3571 7146
00000020: 6724 d744 f700 b544 7a8f fd44 1ca8 5245
00000030: 871a b645 f42c 8f44 38c8 8f45 9854 2c45
1629.3285 10192.219 11696.368 2608.177 4884.372 6630.5356 2710.3914 15452.302
1721.1376 1448.0302 2028.4836 3370.5068 5827.316 1145.4048 4601.0273 2757.287

model1.conv1.conv1.weight f4 [16, 16, 1, 1]
00000000: 5401 11bd 8e71 513d 931c e6bc 2871 84bd
00000010: 9546 d33d 513a 9abe 8ba1 51bc 2920 9b3e
00000020: a0c8 933e d3e8 753d d0ab 90be 91a6 8dbc
00000030: 47e8 3f3e feee 503e 8aa8 c13e 4205 00be
00000040: 679b 7ebc a3eb 073d 851a f13b 180c 013e
00000050: ac38 6e3b f725 fcbd 92d3 28bd 8500 babd
00000060: 792d 763e 8ed9 41be 7508 5ebd d244 bc3d
00000070: 9ea3 52bc 5420 563f 0949 2d3d 6bec 143e
00000080: aa37 cdbc a5b5 423d b64c 10bd d414 4f3d
00000090: c25c c33b f9bb 603e 848b 053d 41ed b83c
000000a0: 3100 ed3d b670 05bd 3e32 843e 5ae8 853f
000000b0: 4b98 a13d 76c9 da3d 80b5 95bd 40b6 ef3c
000000c0: 3937 8a3d 2da8 7e3d 68c0 ac3b 452a 29bc
000000d0: 33ab 60bc 988c 4c3e 0848 2c3c 35b3 a83d
000000e0: 644c 8abc 880c ed3d 5f5a 3dbf 98cc a83d
000000f0: 9a3e 53bd fcdb 263e 12ee 3b3d 25e1 b93c
00000100: 5cda 82bd c87f 873e 9319 3dbc bedc 06bd
00000110: 5a39 813d 3215 17bd b145 803b 1d7c 513e
00000120: f4f5 9c3e 1841 123e 3167 7c3e 4966 703d
00000130: 7867 82be a375 10be 3757 3d3e 0d04 5a3e
00000140: 58f8 4dbe ae9f c7bc 3c93 0bbe 481b 4bbc
00000150: 5d55 02bd 48c0 abbe 0e96 51bd eb89 92bd
00000160: 4fcb fabd 0848 53be 3388 fe3e fccc 43bd
00000170: 252d d2bd 78a8 95bd 59f4 58bd a97f a0bd
00000180: 7555 d0bc b85b 893d 796c 9abc 1a2d 823e
00000190: 6522 0c3d 7807 17be 050f 9a3d 9aa3 533d
000001a0: 38fe 5e3e d2ce 593d 7470 933e 58de 853e
000001b0: 4741 dcbd 41c3 a53e 6129 953d 211a ab3d
000001c0: f6ff bc3e c799 d23e c103 a53e c913 eebd
000001d0: fbfa aabd 29f8 93be 67ea d93e 5ad5 34be
000001e0: 258e 03be 8141 9b3e 337e 20be 91bc 51bc
000001f0: 3411 41bd b24e 3dbe dca6 ed3e f395 9d3e
00000200: c17e a33b 06e0 3cbd 32a6 dbbb 7e69 773f
00000210: 9d97 e43c f83b 32bc bcf0 f83a 98a4 bc3c
00000220: a98a 5cbe ab1f d23d 52cc 0c3c a0c1 a5bc
00000230: 40e8 173f 834e 4b3f 2af8 f7bb bf85 dfbd
00000240: ac8f 70bd 0d37 b0bc 4992 c6be 976e 88bd
00000250: ab44 2cbe b71d 15bf bd9f 443e 6a42 343e
00000260: 12d6 8e3d 84cf 873d 1485 05bf 7e52 333e
00000270: 7d4b 89bd 8b4f 38be 37e3 a3be 9808 0b3b
00000280: f4e2 32be e87c 83be 2052 febd b7dc 623c
00000290: 6a6e 38bf 2fa0 53be 08d0 b13e fcf1 3dbf
000002a0: 1666 79bd 3898 073f aec3 22bd e883 dc3c
000002b0: 3a62 703d 2c53 c93d a5cd 133f e611 67be
000002c0: 8471 ac3c fac9 073c 5c38 1b3c 183f d93b
000002d0: 8905 d93c bf62 24bd e964 e93d b7b3 023d
000002e0: fc0a e83c 9eda 33bd e2bc 2d3f 7482 c3bb
000002f0: f7ef b83d 8f0e 433e 5d85 0d3d feaa 6bbc
00000300: 875f 0c3f 1b9b b0be 43d6 0e3f 5b4b 0e3d
00000310: 8a80 bc3e 00b0 563e 03fd 133f 15d4 15be
00000320: 47aa 78be 0f84 353d 2834 4f3e 5b2e 92be
00000330: c9d9 bb3c f666 f43d 270f 8fbd 25b7 9cbe
00000340: b393 f43c 5c67 783d bd2b 8a3d a385 0f3d
00000350: a5c5 eb3d 8d9d 543f c10f 4dbd 1d9d ba3d
00000360: ad47 89bc 732e 8b3d 8e97 c63e aa78 443e
00000370: 9a86 fbbc ab91 603e ca4e c1bc 88ec f0bc
00000380: 4d41 363c fd9e b83c e445 463c 0743 b93e
00000390: f889 4f3c 63ae 3fbd d715 823c a000 ff3c
000003a0: 997d 9ebc c837 e5bb f264 8c3e 81f6 363c
000003b0: cb0f 45bf b57c bcbe 9721 603d fe00 a3bb
000003c0: bf96 c13e 019f 0fbf bf0d a73e 10bd e1bd
000003d0: 8b27 e23d 5aed 4a3d dbfa 803e ef90 61be
000003e0: c29d a4be a1b6 3cbe 79c6 ed3d e714 81be
000003f0: f617 5dbb b4de 87bc b293 20be dbb4 08bf
-0.035401657 0.051133685 -0.028089797 -0.06466895 0.10316197 -0.30122617 -0.0127948625 0.30297974
0.28864002 0.06003649 -0.28256083 -0.01729134 0.1874095 0.20403668 0.37823898 -0.12502006
-0.0155399805 0.033183705 0.0073578977 0.1260227 0.0036349697 -0.12311929 -0.041217394 -0.0908213
0.24040784 -0.18930647 -0.054207284 0.09192814 -0.012856392 0.8364308 0.04230598 0.14543311
-0.025050957 0.04753651 -0.035229407 0.050556973 0.0059619853 0.21946706 0.032603756 0.022574069
0.11572302 -0.032578193 0.25819582 1.0461533 0.07890376 0.10682957 -0.07310009 0.029261708
0.06748814 0.062172104 0.00527196 -0.010325019 -0.013712692 0.19975507 0.01051522 0.08237306
-0.016882129 0.11574656 -0.7396602 0.08242148 -0.051573373 0.16294855 0.04588134 0.022690365
-0.06389305 0.26464677 -0.011541742 -0.03292536 0.06309767 -0.036885448 0.003914558 0.20457502
0.30656397 0.14282644 0.2464874 0.058691297 -0.25469565 -0.14107375 0.18490301 0.21290608
-0.20114267 -0.024368133 -0.13630384 -0.012396641 -0.03181969 -0.33545136 -0.051168494 -0.07155212
-0.12245809 -0.20632946 0.49713287 -0.04780291 -0.10262517 -0.073075235 -0.052967403 -0.07836849
-0.025431374 0.06706947 -0.018850552 0.25425035 0.03421249 -0.14748943 0.07522396 0.051669694
0.21776664 0.053175755 0.28796732 0.26146197 -0.10754638 0.3237553 0.07283283 0.08354593
0.36914033 0.41132948 0.32229427 -0.116248675 -0.08348652 -0.2890027 0.42561647 -0.17659512
-0.12847193 0.30323413 -0.15673141 -0.012801305 -0.047135547 -0.18487051 0.46416366 0.30778465
0.0049894755 -0.046112083 -0.0067031616 0.96645343 0.027904326 -0.0108785555 0.0018992643 0.023027703
-0.2153727 0.102599464 0.008593636 -0.02023393 0.5933876 0.79416674 -0.0075674253 -0.10914182
-0.058730766 -0.021510625 -0.38783482 -0.06661718 -0.1682307 -0.58248466 0.1920156 0.1760346
0.069744244 0.06631377 -0.52156186 0.17511937 -0.06703851 -0.17999093 -0.3200929 0.002121484
-0.17469388 -0.25681233 -0.12418008 0.013846568 -0.7204348 -0.20666574 0.34729028 -0.74197364
-0.060888372 0.5296664 -0.039737396 0.026918367 0.058687426 0.09830317 0.57735664 -0.22565421
0.021050222 0.008287901 0.009473886 0.006629836 0.026491897 -0.040133234 0.113962 0.03190967
0.02832555 -0.04390966 0.6786634 -0.005966479 0.09030145 0.19048522 0.034551013 -0.014384029
0.54833263 -0.34493336 0.5579569 0.034739833 0.36816818 0.20965576 0.5780794 -0.14631684
-0.24283706 0.044315394 0.2023474 -0.2855099 0.022930996 0.11933701 -0.06985312 -0.30608478
0.029855585 0.060645446 0.06746624 0.035039555 0.11512307 0.83052903 -0.050063852 0.09111998
-0.01675781 0.06795969 0.38787502 0.19186655 -0.030703831 0.21930568 -0.02359714 -0.029409662
0.011123967 0.022536749 0.012101624 0.3618395 0.012667172 -0.046797168 0.015879555 0.031128228
-0.019346999 -0.006995175 0.27420765 0.01116717 -0.76977223 -0.36813894 0.054719534 -0.0049744835
0.37810323 -0.56101996 0.32627675 -0.11022389 0.110426985 0.049542762 0.25191388 -0.22027944
-0.3215161 -0.18429042 0.11610121 -0.2521126 -0.0033736206 -0.016585685 -0.15681341 -0.53400964

model1.conv1.conv1.bias f4 [16]
00000000: d173 453e 7d2b 83be fe16 3b3d 6732 ff3d
00000010: 4a09 4dbe 3d34 133e 31a4 1bbf ca62 87be
00000020: d289 19bf b979 063e 76c4 a73d a165 62bf
00000030: 9581 fcbd f276 88be 37a1 a63e 9a24 0a3e
0.19282462 -0.25619116 0.045676224 0.12460785 -0.20023075 0.14375396 -0.6079741 -0.26442558
-0.5997592 0.13132371 0.08191769 -0.88436323 -0.12329403 -0.26653248 0.32544872 0.13490525

model1.conv1.conv2.weight f4 [16, 1, 3, 3]
00000000: a583 b1bd 28e7 7c3c 5f1b c6bc 0783 5abd
00000010: c4b8 29bf 8dea 563d acff 1ebc c2f3 503e
00000020: 1c0a 86bd 1fb7 c1bd d6be 873e 5353 20bd
00000030: 0584 983d 44f5 34bf 374f 9e3d fe81 f13c
00000040: d794 14be 8d43 bd3c 6912 aabc dd8e 0b3d
00000050: 53f1 54bd 7996 dd3b c257 5dbf c048 bd3c
00000060: c4b2 76bd cab8 833c 8f22 12bd 5575 433e
00000070: a281 67bd 04cf a1be c02c c53e e886 5b3f
00000080: 9124 2bbf d42e 403d 12e1 36bd 0042 7fbe
00000090: d99d b5be 214c 503d 5c63 3d3e b35f febe
000000a0: 0f3d 243d 7a4e d63e 7648 64be 6b6c 883d
000000b0: 3305 a93e 6f39 2c3e 899b 0f3f 02a4 643d
000000c0: 7d17 fabc 8bbc ca3e 42e1 abbd 2770 3bbe
000000d0: 2a2f 2bbf d914 acbd 2474 a63c b8e5 6cbe
000000e0: 89e7 9ebc 2a71 913d 8e75 39bf 9acc 1a3e
000000f0: 0840 903d 3614 173f 18e1 b8bd 0575 883c
00000100: fd97 bf3d cd48 7d3d d3f4 babd 0aa7 7d3f
00000110: c367 05be b119 d23c 664e 10ba 8710 fc3c
00000120: fbbb 28bd 3340 ed3d 7128 2abd c437 3a3e
00000130: 1f65 85bf 8de4 4b3e 6190 973a 0bc4 4dbd
00000140: f970 933c 2492 ac3c ba2d 7e3d 4a2c 99bc
00000150: 0f83 59bd 1469 453f 2b55 5f3b 6269 89bc
00000160: f300 143d 6878 473b d47b a4bd 5beb 05be
00000170: 6769 8dbd 9b6d 8ebd d1ed 43bf a74b 673b
00000180: 676f 4ebc 972e bbbd f304 24bd 9ca5 04be
00000190: 8d3a 44bf 9834 58bc af9f 15bf e900 fb3e
000001a0: cf2b 9abc 7ea6 fe3d 1ba5 643f 2c18 963c
000001b0: 9b9a 94bc b8d2 09be e128 c4bc 606a 5cbd
000001c0: 747c 50bf ab7a 1cbd 9f0d 6fbc 3181 73bc
000001d0: 341b 18bd ee56 553d 9ac9 f4bd 690f 613d
000001e0: 0dc6 37be bd0a 683f a18c fbbd 64db 3f3d
000001f0: c413 22bd da5a 4f3d eb40 af3a d556 38bf
00000200: 8612 1d3e 67d1 91be 8fba d6be f954 1abe
00000210: e431 453e 1c83 893f 3365 b23d 5a08 cc3c
00000220: 32a7 fa3c 2099 053c fc59 a6bc e7a0 453f
00000230: ef02 52bd aad9 813d 580a dd3d 7507 793d
-0.08667687 0.015435971 -0.024182973 -0.053347614 -0.66297555 0.05246978 -0.009704512 0.20405486
-0.06544897 -0.09458756 0.26512784 -0.039141964 0.07447056 -0.70686746 0.07729953 0.02948093
-0.14509903 0.0231035 -0.020760732 0.034071792 -0.051987957 0.0067623225 -0.8646203 0.023105979
-0.060229078 0.016079325 -0.03567749 0.19087727 -0.05652011 -0.31603253 0.38510704 0.85752726
-0.6685267 0.04691966 -0.044648238 -0.24927521 -0.3547199 0.050853852 0.18494934 -0.49682388
0.040097293 0.41856748 -0.22293267 0.06661304 0.3301178 0.16818784 0.560967 0.055820473
-0.030528778 0.39596972 -0.08392574 -0.18304501 -0.6686884 -0.08402414 0.020319052 -0.23134506
-0.019397514 0.071016625 -0.72445 0.15117112 0.07043463 0.59015214 -0.09027308 0.016657362
0.09355161 0.061837006 -0.09128728 0.99083006 -0.13027863 0.025647016 -0.00055048463 0.0307696
-0.041194897 0.11584511 -0.041542474 0.18185335 -1.0421485 0.19911404 0.0011563414 -0.05023579
0.017998205 0.021065779 0.062055327 -0.018697876 -0.053103503 0.7711346 0.0034077864 -0.016773883
0.036133718 0.0030436758 -0.08031431 -0.13078062 -0.069048695 -0.06954499 -0.76534754 0.0035292895
-0.012599803 -0.09139746 -0.040043782 -0.129538 -0.7665184 -0.013196133 -0.5844678 0.49024132
-0.018819718 0.124340996 0.8931443 0.018322073 -0.018140128 -0.13459289 -0.023945274 -0.053812385
-0.814399 -0.038202923 -0.01459065 -0.014862345 -0.037135318 0.052084856 -0.11952515 0.054946337
-0.17946644 0.90641385 -0.12282682 0.046840087 -0.03956963 0.050623752 0.0013370787 -0.72007495
0.15339097 -0.28480074 -0.41939208 -0.15071477 0.19257313 1.0743136 0.087107085 0.024906326
0.030597303 0.008154184 -0.02030658 0.7719864 -0.05127233 0.06340344 0.107929885 0.060798127

model1.conv1.conv2.bias f4 [16]
00000000: 237e 6c33 4ed8 5fb4 3b65 0d34 5230 4834
00000010: 4186 6c34 4eef 6a34 7fd7 87b3 1cc0 1535
00000020: a057 c333 177b 0eb4 1bf9 0234 544e 8fb4
00000030: 70a9 8133 6690 e733 5ffa f433 968d b233
5.5062753e-08 -2.0847185e-07 1.3168476e-07 1.864403e-07 2.2028054e-07 2.1880007e-07 -6.325626e-08 5.578638e-07
9.096334e-08 -1.326956e-07 1.2197818e-07 -2.6692817e-07 6.037851e-08 1.0783042e-07 1.1407678e-07 8.314525e-08

model1.conv1.bn.weight f4 [16]
00000000: e6a6 6b3e ed0d 963e d61b 1a3f 5148 923e
00000010: f1f0 4e3e 1da1 6b3e 45cb 743e 57a0 ad3e
00000020: a46d dd3e 17a1 ed3e 9717 a83e 40b7 843e
00000030: 6471 003f efc5 923e e743 7b3e 6ab4 b73e
0.23012885 0.293075 0.60198724 0.28570798 0.202091 0.23010679 0.23905666 0.33911392
0.43247712 0.46411964 0.32830498 0.2592106 0.5017302 0.28666636 0.24537621 0.35879833

model1.conv1.bn.bias f4 [16]
00000000: dd2d 0b3f 0360 b23e b4e6 c2bc 0f6c 813e
00000010: 9c7c 803e c574 a03e 63c4 203f 1b27 f13e
00000020: 363b 523e 1fe4 083d e362 1d3f 756a fd3e
00000030: d429 a03e b7a6 783e 69ff b93e a8a5 093f
0.54366857 0.34838876 -0.023791648 0.25277755 0.2509507 0.31339088 0.6279966 0.47100148
0.205304 0.03342068 0.61479014 0.49495283 0.31281912 0.24282347 0.36327675 0.53768396

model1.conv1.bn.running_mean f4 [16]
00000000: 9c38 d3bd 8513 56be 452e 57bf e039 19bd
00000010: f09a a238 0c30 dc3b f630 5dbc ea75 dbbe
00000020: e5a5 f8be 2702 67bf f2c7 1c3e 62b7 29b8
00000030: e45a 0fbf 8ba6 2e3f e1d1 31bb b5a4 24bb
-0.10313532 -0.20905884 -0.84054977 -0.03740871 7.753621e-05 0.006719595 -0.013500443 -0.428634
-0.48564067 -0.9023766 0.15310648 -4.046353e-05 -0.55998063 0.68222874 -0.0027133154 -0.0025122587

model1.conv1.bn.running_var f4 [16]
00000000: 3760 d03c cfc7 053d b5bd 013e 9985 503d
00000010: bd19 e73c 284d 1e3d 8c2e 723c 7700 333e
00000020: d8e6 073e 32c5 433d 80b5 103e 0a40 123d
00000030: 14ec 583e 5b23 053d f766 2a3d 816c e33d
0.025436504 0.032661255 0.12670024 0.05090866 0.028210515 0.0386478 0.014781605 0.17480646
0.13271654 0.047795482 0.14131737 0.035705604 0.21183807 0.03250442 0.0416021 0.1110468

model1.conv2.conv1.weight f4 [64, 16, 1, 1]
00000000: 7062 f43c 6371 76bd 9089 73bd 66a8 41be
00000010: f759 11bd 3ae1 d63c 2041 e23d 613d 293e
00000020: 3de3 d73d 9129 86bc 72e3 a8be e1b5 a9bd
00000030: 80fa af3e 39b8 f6bd 2b81 ac3a be7f 81bd
00000040: 4467 d63d 0df7 a0bd c9d4 e2bd c9d1 87bd
00000050: 06e3 2dbc 3c16 1abe cc36 ba3d 62e4 eebd
00000060: 68b9 8e3d 857f 44bd ade5 70bd 3cbf 2dbc
00000070: ea3c bebd 4d73 df3e 620a 4d3d 116f 803d
00000080: f4c2 523d 1698 d73b dbed 88be 69f5 163e
00000090: 4d9d f03c c6ac 5bbe ec8c 953d 61b5 bc3d
000000a0: 652c cfbd 363e be3e 12c9 46bd c1cd 413d
000000b0: 2e6f 0cbe a64a 93bd bb5d bebb f14e 103e
000000c0: 9fa3 a6bc 5524 c43d 7a07 e9bb 8a4a 96bd
000000d0: 6b92 f23d 217c 1a3d 85dc 53be d53b a43d
000000e0: ac07 363b 091d ce3d c5b4 b7be 8847 4e3e
000000f0: e8f4 44be 8139 d53c c80b 0d3d 3ed8 0b3e
00000100: 60d7 983d 482e 84bc 110d adbe 3334 7d3e
00000110: 41fa 27bd d997 42be 72ea 17bd 4a89 1bbe
00000120: 1c26 383e a276 2b3e 3e76 063e 4a82 543e
00000130: ffd6 053e 8bb0 c2be 35cb 10bc 90db 97be
00000140: cede 8d3c f1b8 e43e b3dd e7bc 0a51 88bc
00000150: 119f ff3c 04ed 133d 836f a63d b066 ec3b
00000160: d460 0c3f ea29 a6bc 97df e73c eaf6 673c
00000170: 1b65 043c 7108 24be 1f07 85bd f99d aabd
00000180: 3f70 28bc 8a9d b5bd f9ed e33c dfa7 473d
00000190: 421c c5bd 5191 50be 89a6 0ebe d22c 683c
000001a0: a027 5fbe 15ac 2e3e fd76 9ebe 27d2 e2bc
000001b0: 46ad 54be 8881 053e 2503 e83d 6f67 573e
000001c0: 6a9c bcbd 06bc 4d3d b6e2 213e 8aa8 4a3d
000001d0: 0948 3d3d 3871 803d e3dc 2fbd 3fab 1d3e
000001e0: d7a7 4e3d f93b 44bd da03 2abf 0b90 243e
000001f0: 3b73 453d 51ac 39bc 37d8 9dba c882 103d
00000200: fceb 9b3c 1446 e63d 6b92 873e b7e4 86bd
00000210: c8f5 33be d792 1a3d 81cf 543e 0934 5f3e
00000220: 69ee 54bd 1197 64bc 8d1d 32bc ee05 3fbd
00000230: 89d7 b9be df96 69be 9ce1 e2bd 4681 0f3b
00000240: 2ef1 f7bb a10d 7d3e 0485 bbbd 393f 18bc
00000250: 6232 02bd ad0e 4f3e 22c9 f93d fe99 61be
00000260: 27bc ea3d b905 753d 3294 0ebe 050f 483e
00000270: 64ad 55be 3312 003d 44c0 113d c1d2 6a3e
00000280: f5c3 343d 4d04 4fbc 44ca 79be 8a2d a53e
00000290: 94ec c83b 1d5f 09be 7f7f 3abe ae59 0e3e
000002a0: 2e9b 61bb 3e19 ad3e ef8f 8fba 32d8 0e3f
000002b0: 327c 9dbd 0304 59be 3e6d b53d 5f30 3a3d
000002c0: 2563 1e3d 32d7 efbc c3cd dbbd a00d fbbd
000002d0: 3ca7 62bc 7ca7 5b3d 25f4 9e3e fe18 58bd
000002e0: b9ed ba3d 37eb dcbc 1962 87bd b453 313f
000002f0: 326a 81bc 26bd d53d b60a 753d 8e79 c3bd
00000300: d508 e5b9 b293 b03d 08e5 0cbe 01df 84bd
00000310: 9b4e c7bd 1519 9abd 9eb9 c13e a5a9 2e3d
00000320: f580 85bc 09d6 9dbd cfb9 afbd f466 4fbe
00000330: 2a26 c3bd 1aca 2f3d f5ba c5bd 6365 bb3d
00000340: f693 13be 761f c5be c37f c83c 9009 b43c
00000350: 2b84 843b dc7f 383e 5f49 3c3b af85 8c3e
00000360: c211 51be 444e 41bd 3d62 d73d 666f 333d
00000370: a374 d9bd 119c 013e 7edb 053d 9757 9abe
00000380: cf9e 39bc bfed 2c3e 580c c83c bf9f b53d
00000390: 71b2 f43d b51b 49bd a9a2 22be d841 e4be
000003a0: 955b b43d 937d b33e f1d6 48be 8ac6 fc3c
000003b0: d902 df3d 0587 b93d 4a85 883d 5c3b 893e
000003c0: 16e6 84bd bb18 b43d 951d 84bd 84e6 02bb
000003d0: 1860 863d b99c bbbd 846d 9bbe d831 e93a
000003e0: 9b6f 883d 6418 993d 3a14 e6be 4e2b 563e
000003f0: 7740 983d 17cf b8bd 6bf2 d93d ae68 613b
0.029832095 -0.060166728 -0.05945736 -0.18911895 -0.035486188 0.026230443 0.11047578 0.1652732
0.10541389 -0.016377242 -0.32986027 -0.08286644 0.34370804 -0.120468564 0.0013161054 -0.06323193
0.10468915 -0.07859621 -0.11075742 -0.0663181 -0.010613209 -0.15047544 0.09092483 -0.11664654
0.06968957 -0.047973175 -0.058812786 -0.010604676 -0.09288962 0.43642655 0.05005873 0.06271184
0.051455453 0.0065794094 -0.2674397 0.14742054 0.029371882 -0.21452627 0.07302269 0.09214283
-0.101158895 0.37156838 -0.0485316 0.047315363 -0.13714287 -0.071919724 -0.0058095134 0.14092614
-0.020341692 0.09577242 -0.007111487 -0.07338436 0.11844333 0.037716035 -0.2068959 0.080192246
0.002777557 0.10064132 -0.35880104 0.20144475 -0.1923405 0.026028397 0.034435064 0.13656709
0.074629545 -0.01613535 -0.3379903 0.24726944 -0.041010145 -0.19003238 -0.03708882 -0.1518909
0.17983288 0.16744474 0.13131043 0.20752826 0.13070296 -0.38025317 -0.008837511 -0.296597
0.017318156 0.4467235 -0.028303957 -0.016640205 0.031203778 0.036114708 0.08126738 0.0072143897
0.5483525 -0.020283658 0.028304858 0.01415799 0.008080746 -0.16018845 -0.06495499 -0.08330912
-0.010280668 -0.08867939 0.027823435 0.04874408 -0.096245304 -0.20367934 -0.13930716 0.014170842
-0.2179246 0.17057832 -0.30950156 -0.0276881 -0.20769224 0.13037694 0.11328725 0.2103555
-0.09209521 0.05022814 0.1580914 0.049477138 0.046211276 0.06271595 -0.042935263 0.15397356
0.050453033 -0.047908757 -0.66412127 0.16070573 0.048205595 -0.011332587 -0.0012042586 0.035280973
0.019033425 0.11243835 0.26478896 -0.06586593 -0.17574227 0.037737694 0.20782281 0.21797194
-0.05198518 -0.013952033 -0.010871303 -0.046636514 -0.36297253 -0.22811459 -0.11078188 0.0021897121
-0.0075665927 0.2471223 -0.0915623 -0.009292417 -0.03178633 0.20220442 0.12196566 -0.220314
0.114616685 0.05981991 -0.1392372 0.1953698 -0.20866925 0.031267356 0.03558375 0.22931959
0.04413219 -0.012635303 -0.24393564 0.32261306 0.006131718 -0.13415189 -0.18212698 0.13901398
-0.003442477 0.3380832 -0.001095293 0.5579864 -0.07689704 -0.21192937 0.08858727 0.045456287
0.03866877 -0.029277418 -0.10732605 -0.12258458 -0.013833817 0.053626522 0.31045642 -0.05275821
0.09127373 -0.026967628 -0.066105075 0.69268346 -0.015797708 0.10436468 0.059824668 -0.09544669
-0.00043684864 0.08621921 -0.13759243 -0.06487847 -0.0973179 -0.07524315 0.37836927 0.042642254
-0.016296843 -0.077068396 -0.08580362 -0.20254117 -0.095287636 0.04291735 -0.096548 0.09150197
-0.14411911 -0.38500565 0.024474984 0.021977216 0.004044076 0.18017524 0.0028730256 0.27445742
-0.2041693 -0.04719378 0.10516784 0.04380741 -0.1061795 0.12657191 0.032680027 -0.3014495
-0.011329367 0.16887568 0.024419948 0.0886836 0.119480975 -0.04909869 -0.15882362 -0.44581485
0.088065304 0.35056743 -0.19613244 0.03085639 0.10889215 0.09058956 0.06666048 0.268031
-0.06489198 0.087937795 -0.06450955 -0.0019973824 0.06561297 -0.09160752 -0.3035699 0.0017791344
0.06661912 0.07475355 -0.44937307 0.20914957 0.07434171 -0.09023874 0.10641941 0.003439467

model1.conv2.conv1.bias f4 [64]
00000000: 8cd5 083e da40 353c 96ef 8dbc 9710 143e
00000010: e24d 3d3d db86 95be 2795 353e 1874 2e3e
00000020: c958 cfbd 0337 34be 5599 7bbd fbf4 1a3d
00000030: 1810 f0bb 3cac 993d f497 8bbd a4e8 973e
00000040: 6e58 0c3e af85 84be 9d1a 723d 912a 87be
00000050: d890 40bd 7ec5 4d3e a2dc 3f3d 3ce2 bdbd
00000060: 9035 843c b7ea 3e3e adf2 c23d 35d8 80be
00000070: 9dc2 40bd f21d 273d f744 c53d 99bf a13e
00000080: 1e2d 133e d634 e33d 3486 d2bd 9a77 353e
00000090: 41f6 7bbe f8ba 76be 8f3b 03be dc0c ac3d
000000a0: eff6 f13d b45a 033e d586 37bd 8b52 913d
000000b0: 8aa8 163e 83c1 a2bd 3836 19bd ebc4 3b3d
000000c0: b3ed f0bd 0581 783d 66e9 afbe 0d8f 41be
000000d0: a2a7 c7bb af26 b9bc 1dc4 b13d 9281 21be
000000e0: 4d90 c4bc 7449 523e 731b d3bd 9cce 66bd
000000f0: 83f4 443e c2fc 9dbd fa62 a9bd 86c7 813e
0.13362712 0.011062825 -0.017326158 0.14459454 0.046216853 -0.2920445 0.17732678 0.17036474
-0.10124356 -0.1759911 -0.061425526 0.037831288 -0.0073261373 0.07503554 -0.06816092 0.29669678
0.13705608 -0.25883242 0.05910741 -0.26399663 -0.047013134 0.20094869 0.04684127 -0.092716664
0.016138822 0.18644224 0.09518943 -0.25164953 -0.047060598 0.040800042 0.096322946 0.3159149
0.1437268 0.11094062 -0.102795035 0.17721406 -0.24605657 -0.2409476 -0.12815689 0.0840089
0.11814677 0.12827569 -0.04480632 0.07095822 0.1471273 -0.07947066 -0.037405223 0.045842092
-0.117640875 0.060669918 -0.34357756 -0.18902226 -0.0060929814 -0.022601454 0.08679984 -0.15772083
-0.02399459 0.20535833 -0.1030797 -0.05634938 0.19233899 -0.07714225 -0.082708314 0.25347537

model1.conv2.conv2.weight f4 [64, 1, 3, 3]
00000000: e20f 643e d589 93be b4b9 12bc 8bc4 a33e
00000010: 551a 093d eb08 debe 7c38 cc3d 9907 303e
00000020: e82c 663d 26d6 7b3d 5925 ef3c 76e0 5cbe
00000030: 0236 46be f183 093f 07cb 4cbb 1945 f0bd
00000040: c6eb c23c 3d22 9d3d f53f 36be 0347 59bc
00000050: 235f 343e 807f 94be 1858 df3e bcf5 9ebd
00000060: 2fb2 223d f0a2 ab3d 53c5 bb3b 3282 f63d
00000070: e774 553e 7491 87be 249d a53e 45eb 743d
00000080: e7f5 87be 66d3 73bd d7b8 7abe f032 083e
00000090: a421 31bd a7e0 6c3e 1e6e b83d 1313 f3bd
000000a0: 6c7b ca3e 1fca 73bc 4dbd 4c3e ad6c 8abd
000000b0: 1fde 29bd 848e ce3e 0f0d ac3e cc32 c7bd
000000c0: 9b4d d53e 5349 0cbe f779 81be a113 aebd
000000d0: 8797 09bf e4a6 1fbe 1f63 11be 6394 ccbd
000000e0: 3e5d ad3d 94fa b2bd 30db dd3d 58e8 1fbe
000000f0: d90e ccbd 3ff5 a53e defa eebe fbca 8e3d
00000100: 6294 c93e 952c b83d 81d6 b93d 0f71 c83d
00000110: 3c32 403c e63f a9bd ac98 81bd 0255 aa3c
00000120: c8a3 d7ba 8ae6 68bc b6c2 84bc 9999 503e
00000130: aa9d d3bd ff88 38be 67f0 1d3d 924a d93e
00000140: c9bb df3d c9de edb9 d947 6f3e 2b10 4ebd
00000150: e487 10be febd 0f3e 5caf 3dbe 0e02 243c
00000160: d34e cebe 3a0f 173d 50ef 86bc 5045 4cbe
00000170: 93f6 1bbd be51 a8bd cd45 bdbe d5a6 3d3c
00000180: fa1a 0bbe 1513 993c 5c48 23bc e0cb 683c
00000190: fe81 b53d ba3e 243d 7d3b a53c 657e ed3e
000001a0: 94b0 b23d 684b f73b edb9 5ebd 73e0 3a3d
000001b0: 5fa2 92bc 6db6 67be 2aae e43e b086 53bd
000001c0: 82ae ddbd 72fa 103e 2373 37bb 21f3 e0bc
000001d0: 7bb5 a73c 6d64 c43d 992f b5bd 2da7 c7bc
000001e0: 6207 86bd 1a5a 69bf 8be0 39bd ac2a 893e
000001f0: 400b 923e 0b42 913e 2c04 363e e070 203f
00000200: cb66 953c 9268 783e cb70 cbbe 02f2 c5be
00000210: 2aa6 ad3d ba72 bb3c 64e0 253d 5c68 a4be
00000220: c4ca 89bd d13d 2d3d a1ae f03e 576f 533e
00000230: a854 afbd 3619 5d3e f8c9 19be aae2 be3c
00000240: 5d37 b4bd 9320 45be 106b b93d 8298 ec3d
00000250: 14ac d2be 4128 52bc fb0a 40bd 192e 523d
00000260: 5bb9 41be 3128 85bd 877b 9c3d d0ee 443e
00000270: 2c49 7dbd a0d2 fdbd 2899 bfbd 1eb9 d83e
00000280: 21db 063e a370 1bbe 31be c03c e33f 30bd
00000290: bd3d 8ebd 49ab e5bd ce84 6d3e c711 abbd
000002a0: eb29 44bd e165 adbe 0cc5 f5bd abcb ffbd
000002b0: 82c4 d6bc e396 b9bc 0d63 19be 073e bc3d
000002c0: 4390 c8bc 9a7a a8bd b791 63be e896 3fbe
000002d0: 1a2e abbd e386 8e3e 195e 3bbd dc71 79be
000002e0: 37c6 a93e 34ee 9bbe c287 873d d1fe 2fbd
000002f0: ac57 8b3c 5008 cdbe b478 ab3e eebd ad3e
00000300: c4aa 9fbd 3e81 ae3c 06b7 663e db2e 4ebe
00000310: a603 783d 4dfd 203c 6c8b 91bd 7439 3ebd
00000320: befa 653d 96a4 aa3e be98 343e 34ad 403d
00000330: da77 103e b460 cfbd 81e2 293c 053c f93d
00000340: 6a5e db3e 2a0d 323e febf f53d c412 39be
00000350: 2063 513d d9b2 64bd 1bc6 9fbc ddcf dfbd
00000360: 636a 47be 4f41 413d bb47 2a3d 8eca 9fbe
00000370: eb94 803e b162 bc3c 596f 7abe a8ef 893e
00000380: ef25 82bb 3847 423e ae3f a03e dd49 a93d
00000390: a416 09bd d968 0cbf 8ec1 fe3d 290b 33bd
000003a0: 4e24 28bd 288e ebbc 4215 21bd 9808 f53d
000003b0: bee9 313e b6d9 063d d12a fdbe df14 57be
000003c0: 8b28 42bc 273a a4bc 3612 91bd e0e2 15bf
000003d0: 9b32 76be 4283 573d 515a 74be b5d1 813e
000003e0: 0edd 5b3d cb03 433e 14d9 a23e d0bf 543d
000003f0: b16c e3bd a82a 563d 1cb3 d23c 159a a1be
0.22271684 -0.28816095 -0.008955408 0.31985888 0.033472378 -0.4336618 0.09971711 0.17190398
0.05619517 0.061483525 0.029192613 -0.2157 -0.1935654 0.5371695 -0.0031248943 -0.11731929
0.023794066 0.07672546 -0.17797835 -0.013261559 0.17614417 -0.29003525 0.43621898 -0.07761714
0.03972071 0.08380687 0.00573031 0.120365515 0.20845376 -0.2647816 0.3234645 0.059794683
-0.26554796 -0.059527777 -0.24484573 0.13300681 -0.043244973 0.23132573 0.09005378 -0.118688725
0.39547288 -0.014879732 0.19994088 -0.067590095 -0.041471597 0.40343106 0.33603713 -0.097264856
0.4166077 -0.13699846 -0.25288364 -0.08499838 -0.5374684 -0.15591007 -0.14197968 -0.0998924
0.0846505 -0.087392 0.10832822 -0.15615976 -0.099637695 0.3241367 -0.4667577 0.06972309
0.3937102 0.08992878 0.090741165 0.09787189 0.011730727 -0.08264141 -0.06327948 0.020792488
-0.0016452009 -0.014215121 -0.016206127 0.20371093 -0.103328064 -0.1802101 0.038559344 0.42439705
0.10924489 -0.0004537015 0.23367251 -0.050308388 -0.14114338 0.1403732 -0.18523926 0.0100102555
-0.40294513 0.036879756 -0.016471535 -0.19948316 -0.03807695 -0.08218716 -0.36967316 0.01157542
-0.1358451 0.018685857 -0.009965982 0.014208764 0.08862685 0.040098883 0.020169968 0.46385494
0.08725086 0.007546831 -0.05437653 0.045624208 -0.01789969 -0.22628184 0.44664127 -0.05164212
-0.108243 0.14158037 -0.002799221 -0.027459683 0.020472279 0.09589467 -0.08846969 -0.024371708
-0.06544377 -0.9115311 -0.045380156 0.2679037 0.28524208 0.283707 0.17775029 0.62672234
0.018237492 0.2425864 -0.39734492 -0.386612 0.08478959 0.022881854 0.0404972 -0.3211087
-0.067281276 0.04229528 0.4700823 0.20647942 -0.08561069 0.21591648 -0.15018451 0.023301441
-0.08799622 -0.19250707 0.09053624 0.11552526 -0.4114691 -0.01282698 -0.04688547 0.051313493
-0.18918364 -0.065018065 0.076407485 0.19231725 -0.06183736 -0.12393689 -0.09355384 0.42328733
0.13169529 -0.15179686 0.02352819 -0.043029677 -0.069453694 -0.11214311 0.23195192 -0.08353
-0.04789154 -0.3386679 -0.12000474 -0.124900185 -0.02621675 -0.022654956 -0.14979191 0.09191518
-0.024482852 -0.082265094 -0.22223555 -0.1870991 -0.083584026 0.27837285 -0.045744035 -0.2435984
0.33159038 -0.30455172 0.066176906 -0.04296762 0.017009579 -0.40045404 0.33490527 0.33933967
-0.07796243 0.021301862 0.22530755 -0.20135061 0.060550354 0.009826017 -0.07106671 -0.04644151
0.05614733 0.33328694 0.17636392 0.04704018 0.1410822 -0.101258665 0.010368944 0.12169651
0.4284547 0.17387834 0.1199951 -0.18073565 0.051119924 -0.055834625 -0.019503644 -0.10928319
-0.19474177 0.047181424 0.041572314 -0.31209224 0.25113615 0.022996278 -0.24456538 0.26940656
-0.003971807 0.1897248 0.31298584 0.082660414 -0.033468857 -0.54847485 0.124392614 -0.043711815
-0.041050248 -0.028754309 -0.039326914 0.1196453 0.17374322 0.03292247 -0.4944673 -0.21004055
-0.0118504865 -0.02004726 -0.070835516 -0.5854931 -0.24042742 0.05261541 -0.23862578 0.25355306
0.05367761 0.19044416 0.31806242 0.05194074 -0.111047156 0.052286774 0.025720172 -0.31562868

model1.conv2.conv2.bias f4 [64]
00000000: cf03 0034 d445 a632 6600 40b3 2d2a 0c34
00000010: f2be c3b2 e2ea 39b3 e8b9 02b5 4476 7934
00000020: 39f5 8db4 a44c 2e33 1618 2b34 5d27 8c34
00000030: 668f 5834 1e7a 6e34 2e22 12b4 f6b0 3533
00000040: bf63 a3b3 2d49 1935 77a9 8bb4 e05e 9c33
00000050: 4640 5d34 99eb 2e34 7cf6 3e33 b4a2 3eb3
00000060: 6aaa 0734 8ffb 3fb4 7132 2834 00ff d4b4
00000070: 6d19 8b34 48a6 02b2 677e d9b4 cc6a 6434
00000080: e3cb cf33 89a1 bcb2 5591 8234 179b 6e32
00000090: eaa7 6fb4 9d63 36b3 9f9d 8134 1043 9033
000000a0: 2fd2 8734 cf5d 3234 c8a7 52b4 88a5 cab0
000000b0: 0c17 b8b4 2f98 5034 beda 8034 6569 5233
000000c0: ab97 0eb4 9438 4c33 b904 2033 4ac7 9e33
000000d0: 898c 9433 c90f bc34 3080 3db4 d5ae c2b3
000000e0: 8c54 d033 e783 2c34 f126 9b33 80d0 0e33
000000f0: 22de a633 1da8 9534 b9b4 ce33 43de e6b3
1.1922315e-07 1.9356698e-08 -4.4703846e-08 1.305386e-07 -2.278782e-08 -4.3287294e-08 -4.8699303e-07 2.3232957e-07
-2.644172e-07 4.0582236e-08 1.5934378e-07 2.6105673e-07 2.0168736e-07 2.2209903e-07 -1.3609744e-07 4.230329e-08
-7.608423e-08 5.7103426e-07 -2.601407e-07 7.281574e-08 2.0605611e-07 1.6290723e-07 4.4462e-08 -4.43858e-08
1.2634851e-07 -1.7879778e-07 1.566457e-07 -3.9673614e-07 2.5909267e-07 -7.604804e-09 -4.051137e-07 2.1273007e-07
9.6762754e-08 -2.1959538e-08 2.432013e-07 1.3888687e-08 -2.2319696e-07 -4.2465775e-08 2.4142807e-07 6.717721e-08
2.5298638e-07 1.6611669e-07 -1.9618813e-07 -1.4744481e-09 -3.428944e-07 1.9426874e-07 2.4001014e-07 4.899029e-08
-1.3279957e-07 4.754891e-08 3.7257198e-08 7.393699e-08 6.91735e-08 3.5029214e-07 -1.7648631e-07 -9.065631e-08
9.701134e-08 1.6066734e-07 7.224833e-08 3.325158e-08 7.770383e-08 2.787573e-07 9.625496e-08 -1.0750639e-07

model1.conv2.bn.weight f4 [64]
00000000: 461c ae3e ad7c c53e a2a0 c53e eeaf 933e
00000010: 875a a23e 8f0c b23e ca76 673e f79b c43e
00000020: 0778 8e3e 1f83 8e3e cccb d33e cf28 b13e
00000030: 800b a43e ac33 d43e 2b29 b43e 31fe cb3e
00000040: be48 ab3e 0879 623e 9b9e bd3e 181f bb3e
00000050: 5863 993e 971e b53e 6268 b63e 66d4 9e3e
00000060: 415f a73e 9b99 b13e 4868 d93e 4314 c13e
00000070: 6d2b ad3e e97f b43e 21e6 b83e 8178 a33e
00000080: 0a80 c33e bdb4 a93e 4264 8e3e 7f8c cd3e
00000090: fc88 c63e c672 bd3e c762 a63e bb09 db3e
000000a0: 3fa2 c23e e291 853e 3a07 ab3e 8c2a df3e
000000b0: d2df eb3e 028d ab3e eb8e b03e 6d15 ac3e
000000c0: 2dfe d63e 4557 ad3e 0cfc b03e 1408 cd3e
000000d0: be8e e63e ba8c c33e 66a5 b43e 81f7 a83e
000000e0: bb59 c63e 399c a23e ad37 a63e e00a 833e
000000f0: fff7 103f abc8 ed3e 6027 cf3e 4ddf af3e
0.34005946 0.38571683 0.38599116 0.2884516 0.31709692 0.34775206 0.22603908 0.38400242
0.2782595 0.27834412 0.41366422 0.34601447 0.32040024 0.41445673 0.3518766 0.3984237
0.33453935 0.22116482 0.3703507 0.3654716 0.29958606 0.353749 0.35626513 0.31021422
0.3268986 0.34687504 0.42462373 0.3771077 0.33822194 0.35253838 0.36113074 0.31927875
0.38183624 0.33145705 0.27810866 0.40146253 0.38776386 0.37001628 0.32497236 0.4278086
0.3801441 0.26087862 0.3340395 0.43587148 0.460692 0.33506018 0.34484038 0.33610097
0.41990796 0.33855644 0.34567297 0.40045226 0.4503078 0.38193303 0.3528244 0.3300133
0.38740334 0.31759813 0.32464352 0.25594234 0.5662841 0.4644216 0.40459728 0.34350052
