onnx/yunet_n_dynamic.onnx (onnx, 322906 bytes, 108 tensors)

459 f4 [16, 3, 3, 3]
000000 1f 15 73 39 b0 fe b1 bb 86 ca 15 3a 28 3d de 3a
       0.00023182154 -0.0054319724 0.0005714077 0.0016955482
000010 be f5 9b 38 bc 9b 6b 3a d3 da 58 37 5b 61 7e 3a
       7.436749e-05 0.0008987745 1.2925552e-05 0.0009703838
000020 99 01 f6 38 cb 17 34 b8 0c 37 e5 bb d8 6d 0b 39
       0.00011730492 -4.2937503e-05 -0.0069950875 0.00013296993
000030 d2 4f 2b 3b a9 00 a8 37 64 e3 b3 3a 68 a8 5e 38
       0.0026140106 2.0027468e-05 0.0013724384 5.3085765e-05
000040 ed 3c 1a 3a 8c 2f 0a b9 2a 74 9f 39 61 4f ac bb
       0.00058837124 -0.00013178418 0.00030413392 -0.005258486
000050 76 43 8f 3a 6f e9 37 3b 68 76 d8 3a a8 02 2a 3b
       0.0010930139 0.0028062721 0.001651478 0.0025941525
000060 7e 2d 56 ba 44 e9 68 3a 02 fe 6b b8 2f bb d1 3a
       -0.0008170231 0.0008884857 -5.626493e-05 0.001600122
000070 86 79 c6 3a 66 c4 88 3a f7 40 ee 3a 3a 3c e4 3a
       0.0015142418 0.0010434508 0.001817732 0.0017412968
000080 cf 80 02 3b 7e b8 23 3b c7 0a 2b 3b 1d 22 1a 3b
       0.0019913202 0.0024981792 0.0026098953 0.0023518868
000090 e9 d9 da ba d8 9b 0e bb be 43 15 bb a3 f0 12 bb
       -0.0016697022 -0.002176037 -0.0022775973 -0.0022421263
0000a0 6d c3 3c bb 77 78 14 bb 50 78 e6 ba dc 92 13 bb
       -0.0028803006 -0.002265481 -0.0017583463 -0.0022517955
0000b0 1b a4 08 bb 07 8d 6c 3a fe bc 8a 3a f1 70 16 3a
       -0.0020849768 0.00090237 0.0010584889 0.00057388755
0000c0 6a f7 04 b9 4f 81 0e 39 b1 e5 27 3a 63 dc 19 ba
       -0.0001268067 0.00013590346 0.0006404771 -0.0005869327
0000d0 93 b1 b1 b8 74 2b 93 39 d1 61 86 3a e3 3e 0c 3a
       -8.4730935e-05 0.000280704 0.001025254 0.0005349947
0000e0 74 96 22 39 37 7a 20 bb cd 9f 8a ba 41 d0 c3 3a
       0.00015505572 -0.0024486908 -0.0010576189 0.0014939384
0000f0 62 7e 65 ba 95 51 0a b6 45 a6 78 3a 9a 57 11 3a
       -0.0008754489 -2.061109e-06 0.00094852253 0.00055443647
000100 32 1e a3 3a 32 9e 05 3b 63 42 84 bb 39 2a b5 ba
       0.0012444912 0.0020388481 -0.004036234 -0.0013821787
000110 e0 a5 2d 3b 59 c2 17 bb bb 38 1f ba 07 4e c6 3a
       0.0026496574 -0.0023156612 -0.0006073822 0.0015129455
000120 99 a7 6a 3a 1d 5a 5d 3a 48 2a c1 3a 39 f7 5f bb
       0.00089513656 0.0008443909 0.0014737332 -0.0034174456
000130 3c b0 e2 ba ce 4c f7 3a 3b 57 88 ba 82 42 97 b9
       -0.0017294954 0.0018867494 -0.0010401973 -0.00028850517
000140 f2 a0 b5 3a e3 16 17 3a db eb 8e 3a c8 4e c6 39
       0.001385717 0.0005763603 0.0010904031 0.000378242
000150 16 76 85 3a 79 7f e8 3a 1c d7 6c 3a 5b 82 b0 b8
       0.0010182287 0.0017738185 0.00090347393 -8.4166146e-05
000160 7f 22 72 39 9b d8 83 b9 fd 60 8d 3a 35 4a a1 3a
       0.00023091769 -0.0002514765 0.0010786351 0.0012305441
000170 12 90 7e 3a 97 87 b0 3a e8 88 de 3a 72 46 a8 3a
       0.0009710799 0.0013468143 0.0016978057 0.0012838377
000180 bd b0 83 3a 16 4d 75 3a e3 99 5c 3a 02 b2 e3 ba
       0.0010047179 0.0009357495 0.0008415265 -0.0017371776
000190 a4 0d 16 bb 89 ac ce ba 18 ea f1 ba 80 7a 0d bb
       -0.0022896314 -0.0015767972 -0.0018456606 -0.0021587908
0001a0 00 ab cc ba e7 65 85 ba a3 e0 cb ba 0c c4 3a ba
       -0.0015614927 -0.0010177464 -0.0015554618 -0.000712455
0001b0 7c d1 d7 ba bc cb 0d bb 4b 3a fe ba 9f 56 ca ba
       -0.001646563 -0.0021636328 -0.0019396035 -0.0015437192
0001c0 34 a8 b2 ba 20 da a9 ba aa 69 5a ba 75 b0 57 ba
       -0.0013630451 -0.0012958683 -0.0008331785 -0.0008227893
0001d0 5a f4 5d ba b7 bb 34 3b 82 68 29 3b 88 73 15 3b
       -0.0008466892 0.0027577707 0.0025849645 0.0022804458
0001e0 d4 59 3b 3b 30 06 67 3b a9 b7 4d 3b 06 93 ef 3a
       0.0028587477 0.003525149 0.0031389988 0.0018278069
0001f0 0d d5 17 3b df f3 0b 3b 55 ad 2d 38 37 65 c3 ba
       0.002316776 0.0021355075 4.1407842e-05 -0.0014907484
000200 cd 30 16 ba 4a bb 95 ba 99 7f f6 ba f0 5e 4d ba
       -0.0005729318 -0.0011423614 -0.0018806338 -0.0007834276
000210 4f 51 bd ba 12 a9 08 bb fb ee 40 ba f7 7a e8 38
       -0.0014443788 -0.0020852727 -0.00073598296 0.00011085526
000220 fe 3b ea 39 d7 10 b2 39 dd 9f 5a b9 d9 70 d4 b9
       0.00044676656 0.00033963352 -0.00020849654 -0.0004051987
000230 83 e1 03 ba e5 3c 34 b9 5b af 15 ba 91 22 db b7
       -0.0005030857 -0.00017188823 -0.0005710029 -2.612293e-05
000240 e8 72 91 3a 51 84 de 3a 5a de bc 3a 94 b0 20 3a
       0.0011096867 0.0016976689 0.0014409528 0.0006129828
000250 bb 21 2e 3a a0 8a 8c 39 92 1c a9 39 6b 2c b4 38
       0.00066425995 0.00026806165 0.00032255478 8.591342e-05
000260 f1 ad 9f 39 41 63 2c 3a 2f e1 75 3a 5c c1 3c 3a
       0.0003045644 0.0006576069 0.0009379563 0.00072004437
000270 26 89 97 b8 10 0f a0 b9 f8 83 0e ba 9f 98 b9 b9
       -7.225787e-05 -0.000305288 -0.0005436535 -0.0003539966
000280 48 c2 7a ba ed 5d 23 ba 21 07 12 b9 3a 7f 5e 3a
       -0.00095656933 -0.00062319526 -0.00013926301 0.0008487586
000290 a9 8a a1 ba 54 c2 d6 3a 29 74 c8 3a 80 a3 11 bb
       -0.0012324649 0.0016384819 0.0015293407 -0.0022222698
0002a0 6c ab 88 39 86 b7 f8 b9 d9 48 ac b9 de ba 41 3a
       0.0002606766 -0.00047438982 -0.00032860672 0.0007390211
0002b0 17 f4 45 3a 7b bc 1c bb 95 95 38 3b 79 cf d2 3a
       0.0007551326 -0.0023916054 0.002816533 0.001608356
0002c0 8b 77 69 bb 8b 8e a2 3a ce a5 85 b9 4f 4a a1 ba
       -0.0035624232 0.00124021 -0.0002549127 -0.0012305471
0002d0 32 a0 39 3a c7 10 50 3a 2b e4 1d bb 6b e8 34 3b
       0.0007081061 0.00079370703 -0.0024092298 0.0027604352
0002e0 8d b3 d7 3a e5 be 67 bb 47 67 c3 3a bf 5d 61 b8
       0.0016456709 -0.0035361585 0.0014908098 -5.3731488e-05
0002f0 ab db 9f ba be 8d aa b8 ac 96 ee b9 5d 41 16 ba
       -0.0012196203 -8.132633e-05 -0.00045507157 -0.0005731786
000300 63 40 44 39 34 c4 d0 ba 34 19 6c 3a fc 23 ab 3a
       0.00018716003 -0.0015927614 0.0009006441 0.0013056989
000310 16 8d 2c 3a 93 b7 95 3a 94 3b 05 ba 25 e5 83 ba
       0.0006582303 0.0011422507 -0.0005082425 -0.0010062797
000320 be b4 1d ba 75 c8 b8 ba ed b8 69 bb c8 d4 cc b9
       -0.00060160074 -0.0014097827 -0.0035663203 -0.00039068446
000330 7e fc 0d ba d2 b1 e1 ba 0b df 3b ba 68 33 91 39
       -0.00054163474 -0.0017219132 -0.000716672 0.00027694856
000340 57 59 01 3a 80 70 03 b9 f2 31 e3 38 1d 02 a7 ba
       0.0004934272 -0.00012535043 0.000108335065 -0.0012741719
000350 a1 3f 4e 3a d3 30 e3 39 93 aa 28 38 32 55 56 39
       0.0007867758 0.0004333319 4.021318e-05 0.00020440368
000360 72 46 bb 39 ab e0 e5 3a c5 c0 97 3a 97 f7 16 3a
       0.00035719905 0.001753827 0.0011577836 0.00057589397
000370 5a 77 8f b9 ba 9f cd 39 a2 7b 85 3a 0d 98 67 bb
       -0.0002736401 0.00039219653 0.001018394 -0.0035338432
000380 97 f9 d6 ba 3e 1e f2 3a 53 79 61 3b 0a 71 27 3b
       -0.0016401288 0.0018472148 0.003440459 0.0025549554
000390 2d 72 3b 3a c8 43 c9 b9 97 84 d6 39 85 88 8f b9
       0.00071504974 -0.00038388208 0.00040916048 -0.000273768
0003a0 b1 30 b3 bb d2 cc 4c bb ed 8d 78 3a 0b ce 58 3b
       -0.005468451 -0.0031250012 0.0009481598 0.0033081796
0003b0 ab 44 0c 3b ea ad 28 3a ad a7 b0 39 31 1d fc 39
       0.0021403234 0.00064346066 0.00033694264 0.00048086935
0003c0 39 e0 84 b9 46 55 92 bb e9 be 34 bb 50 86 13 ba
       -0.0002534406 -0.004465732 -0.0027579612 -0.0005627619
0003d0 8c f3 ad 3a 5c 59 f2 3a 47 b4 96 3a d7 96 40 bb
       0.0013271435 0.0018489766 0.0011497819 -0.0029386783
0003e0 3e bc 70 bb 31 74 73 b8 18 1a d3 3a c4 cc 47 39
       -0.0036733295 -5.8043926e-05 0.0016105799 0.000190544
0003f0 1a b1 ed 39 66 e2 b7 3a f6 c3 ad 3a fd 88 ed 3a
       0.00045336114 0.0014029264 0.0013257253 0.0018122491

460 f4 [16]
000000 2f 8f 62 3e d8 68 53 3e 1c a6 85 3e 02 33 97 3e
       0.22124933 0.20645463 0.26103294 0.29531103
000010 38 5c 60 3e dd e0 e0 be 71 4d 81 3e 44 5a 2e 3f
       0.21910179 -0.43921557 0.25254396 0.68106484
000020 0b 26 7c 3e d0 8a 4b 3e c0 7e dd 3e 70 22 30 3d
       0.24623887 0.19877172 0.43260765 0.043001592
000030 75 e3 51 3e 58 1a 33 3e 42 c2 bc be fd 0e 8f 3e
       0.20496924 0.17490518 -0.36866957 0.27941123

462 f4 [16, 1, 3, 3]
000000 82 bc ab bd 25 4d c2 bd 08 15 94 bd 52 b2 7b be
       -0.083855644 -0.094873704 -0.07230574 -0.24579743
000010 0c 3d d9 3d 11 69 0c 3e 86 39 b4 3e 7a 64 b9 3f
       0.10607347 0.13711955 0.35200137 1.4483788
000020 86 7f 2f 3f 2d 88 d1 bd 69 2f 07 3f e4 13 5a bd
       0.6855396 -0.102310516 0.5280672 -0.053241625
000030 dc e4 d4 3d fa ba 4f 3f 5d f5 ab 3e 27 c4 c3 bd
       0.10395214 0.8114468 0.33585635 -0.095588975
000040 85 bc 81 be ab 1b 7b be 30 69 85 3e 67 b2 b2 bd
       -0.2533914 -0.24522273 0.26056814 -0.08725434
000050 d0 26 0a bf de cf 02 bf 21 d9 cc bf 23 e1 83 3f
       -0.53965473 -0.5109843 -1.6003762 1.0303081
000060 e1 51 3b bf c6 11 43 3f 7b a5 f9 3e f3 30 f0 bd
       -0.7317181 0.76198995 0.48759064 -0.11728086
000070 2d 78 0a bf b9 a5 00 be 46 78 1a 3f 23 2b eb 3f
       -0.54089624 -0.12563218 0.6033977 1.8372539
000080 e5 1b 95 3f 1c 32 03 bf 6f ac 5b bf 24 76 7f bf
       1.1649138 -0.51248336 -0.8580999 -0.99789643
000090 91 b4 5a bd 27 5c 33 3e 4b d9 b0 3e 8c b9 a7 bd
       -0.053394858 0.17515622 0.3454078 -0.08189687
0000a0 d7 29 70 3f 92 7c b4 bd dd 5d 56 3e af c8 ad be
       0.9381384 -0.088128224 0.20934244 -0.33942172
0000b0 80 df 82 3d b1 68 93 bd bf 21 a1 bf 43 84 24 bf
       0.063902855 -0.07197703 -1.2588423 -0.64264315
0000c0 f7 c2 ce 3e 54 d3 19 40 29 0c bb bf 95 39 c1 bd
       0.4038312 2.4035234 -1.4613086 -0.09434811
0000d0 58 53 57 3e 43 2f 0f 3f 50 ac dc 3e dd 0b b9 bf
       0.21027887 0.5593149 0.43100214 -1.4456745
0000e0 bc 23 19 3f 4b cd 05 40 cd b6 6b c0 15 eb 11 40
       0.5982015 2.090655 -3.6830323 2.2799733
0000f0 b5 3c d2 3e 40 38 a5 bf 26 62 04 3f 5e c3 46 3d
       0.4106194 -1.2907791 0.5171226 0.04852616
000100 ec 24 29 3f b1 1d 9f bd ad 24 47 be 39 45 b6 3f
       0.66071963 -0.07769335 -0.19447584 1.4239875
000110 24 70 9e be e6 56 36 3d aa 5d 72 3e e8 b0 ed bc
       -0.30944932 0.044516467 0.23668543 -0.02901502
000120 ac 73 3b bb 2a 7c 91 be 48 49 cb bd 16 93 e9 3e
       -0.0028602881 -0.28415042 -0.09926087 0.4562003
000130 ec dd 8e 3f 03 53 15 3f 0a 56 5a 3d 2f 46 0e 3e
       1.1161475 0.5832979 0.05330471 0.1389396
000140 31 f4 9d 3d 59 2f 1e 3f 1c 53 a3 3f bd 2e 54 3f
       0.077125914 0.61790997 1.2759738 0.82883817
000150 93 fc 20 be 8b 80 68 bf f7 1f 70 3e bf f8 06 bf
       -0.1572135 -0.9082114 0.23449694 -0.52723306
000160 a3 da 4f bf 36 23 10 bf 6b ac 3e 3e 3a 18 11 3f
       -0.8119299 -0.5630373 0.1862046 0.5667759
000170 ee 8b 65 3c b0 c2 a4 3e df 7c 28 3f 08 85 9c 3e
       0.014010413 0.32179785 0.6581554 0.30570245
000180 53 ba 34 bc 5b f7 0e 3e 5d f3 d3 bd cf dc 40 3c
       -0.011030751 0.13961546 -0.10349152 0.011771395
000190 af 51 ef 3e d7 4b 6e 3e 36 b7 04 3e c8 e1 15 3f
       0.46742007 0.23271118 0.12960514 0.5854764
0001a0 e8 cd 3c 3e 07 af a8 3d 9b 03 b3 bd 97 a0 6a bd
       0.18437922 0.08236509 -0.08740922 -0.057282057
0001b0 75 07 8a bd 3f 81 b5 3e 20 a7 18 3e 04 5b af be
       -0.067397036 0.3545017 0.14907503 -0.34249127
0001c0 c1 51 ec 3f 90 d0 e1 be 8f 42 8d 3d 07 75 b5 3d
       1.8462449 -0.44104433 0.06897461 0.08860212
0001d0 12 83 c5 bc 80 63 9c 3c ee 17 c7 3e f5 57 c3 3d
       -0.02411035 0.019090414 0.38885444 0.09538261
0001e0 7f 94 b6 3d 6f 89 3b 3f 83 3e 5b 3e a8 6b 3d be
       0.08915042 0.7325658 0.21410565 -0.18498099
0001f0 22 97 2f 3e ba 27 18 be 4a 64 15 bf 91 a6 c4 be
       0.17147496 -0.14858904 -0.58356154 -0.3840833
000200 5c f0 ff bd d7 bd 36 3f 05 c2 83 bf c9 79 f1 be
       -0.12497017 0.7138342 -1.0293585 -0.47163227
000210 62 ae 70 3e a7 bf 51 3e bc 16 95 be 3d 59 5e bc
       0.23504022 0.20483266 -0.29118907 -0.013571081
000220 ab 80 a7 3e f3 e1 38 3e 9e c7 0c bf e6 4d 0a c0
       0.32715353 0.18054943 -0.5499209 -2.1610045
000230 a4 7a 5c bf f0 2f f1 3e 59 c7 a0 3f a2 b5 8c 3f
       -0.86124635 0.47106886 1.2560836 1.099293

463 f4 [16]
000000 bb ce ba 3e 4c 02 87 3f 32 ab b6 bd 0c 1f 39 3c
       0.36485848 1.0547576 -0.08919372 0.011298906
000010 1c 9f 69 be 23 5e bf bc 83 fa 94 3c 9d 81 1d 3e
       -0.22814602 -0.023360318 0.01818586 0.15381475
000020 7f 3c 28 3f fc fd 83 3d 63 d6 58 3f 08 a0 67 3e
       0.6571731 0.06444928 0.8470213 0.22619641
000030 8c 92 b6 3e 78 e6 90 3f 38 78 86 3e 67 7a 00 bc
       0.3565868 1.1320333 0.26263595 -0.007841683

465 f4 [16, 1, 3, 3]
000000 a1 9e b6 bc d7 d5 95 3d 06 2c 0c bc 43 1b e6 3b
       -0.022292437 0.07316177 -0.008555418 0.007022293
000010 93 e4 5c 3f bd 61 e4 3c 66 ae 0d 3d b3 15 51 bc
       0.86286277 0.027878636 0.034590147 -0.012761521
000020 c3 3a 40 3d 16 3e 3e bc ee e3 3a bd 47 68 06 bd
       0.04693104 -0.011611482 -0.045627527 -0.03281429
000030 80 3b 4c 3d 39 88 55 bf 63 7e 3f 3d c9 3d ea bb
       0.04986143 -0.83410984 0.04675139 -0.0071484786
000040 f2 50 86 bc 21 94 20 bd 53 54 a1 be ea 1b 2f bf
       -0.01639602 -0.039203767 -0.31509647 -0.6840197
000050 02 29 09 3e 58 0f 22 bf 51 2c 98 be 90 14 20 bc
       0.1339455 -0.6330466 -0.2972131 -0.0097705275
000060 09 7d 2a 3e f0 78 ae 3f bb f8 8a 3e 72 12 95 3d
       0.1664926 1.3630657 0.2714289 0.07278909
000070 07 94 47 3f fa 1f e3 3d fb 30 21 3f b7 10 b6 bd
       0.77960247 0.110900834 0.62965363 -0.08889907
000080 33 3f e8 3e 66 49 6d be 66 53 f2 bf be 5d b5 bd
       0.45360717 -0.2317253 -1.8931701 -0.088557705
000090 8a 9b 89 3d 8f 42 9f 3f c8 09 a6 3e d3 a3 8a 3d
       0.0671912 1.2442187 0.32429338 0.06769528
0000a0 e3 ae 61 bf d6 99 e5 bd b2 d4 31 be 8a b2 29 bd
       -0.8815748 -0.112109825 -0.17366293 -0.041430034
0000b0 90 c1 92 bd 62 fc 09 bd b4 73 c4 bd ac 6c 10 bc
       -0.07165825 -0.033687957 -0.09592381 -0.008814972
0000c0 16 6c 16 3c eb 32 57 bf 35 d8 5c 3b e6 9e 7d bc
       0.009181043 -0.8406207 0.0033698205 -0.015479779
0000d0 1f 1e 47 bd a3 83 c4 bc 99 3d 0b bd 8e 2f 94 3e
       -0.04861271 -0.02398855 -0.03399429 0.2894253
0000e0 39 96 08 be 48 55 28 be 3d 49 b5 3f 97 82 74 be
       -0.13338555 -0.16438782 1.4162976 -0.23877941
0000f0 a0 52 15 be 62 f7 05 bf 6d 96 01 be fa 11 5d 3d
       -0.145823 -0.523306 -0.12655039 0.053972222
000100 4b 77 1a be 64 dd 9a 3d a8 c0 cf bd f9 28 8c 3f
       -0.15084569 0.07561758 -0.10144168 1.0950004
000110 b5 48 e6 bd 25 cc b8 3c 59 6b 9b bc f1 f7 be bc
       -0.112443365 0.022558281 -0.018972086 -0.023311587
000120 56 c2 ad bd 6b 90 27 bf 36 83 f2 bd 4e d3 0c 3d
       -0.08484332 -0.6545474 -0.11841433 0.034381203
000130 52 94 2b bf 11 0a c6 be cc 9b 80 3e 77 6a ad 3f
       -0.67023194 -0.38679555 0.25118864 1.3548115
000140 d0 60 45 3e 48 5d b4 3c 25 5a 2b 3c 2b 2c 26 bc
       0.19275212 0.022017136 0.010458504 -0.010142366
000150 06 fc f0 bc 13 1e 4e 3f 69 89 ef 3b bc 1f 88 3c
       -0.02941705 0.8051464 0.0073100817 0.016616695
000160 7e f3 94 3d f5 60 e7 bb d4 bd 5e 3d 4a 1c 5e 3d
       0.07273005 -0.0070611187 0.054380253 0.054226197
000170 06 cd f7 3c 38 5a 14 3e a5 1e bc bf 24 83 ca 3d
       0.03024913 0.1448754 -1.4696852 0.09888294
000180 a7 fb 29 3e c0 60 18 be 43 5d 95 3d 03 16 3a 3d
       0.16599904 -0.14880657 0.07293179 0.04543115
000190 ee b8 1b bf 15 58 01 be 7b 0e 06 bf 4b 2f 00 bf
       -0.60829055 -0.12631257 -0.52365845 -0.50072163
0001a0 06 11 ea 3f f0 7f b0 bd 60 1d 44 be 18 f8 8d 3e
       1.8286445 -0.08618152 -0.1915183 0.27728343
0001b0 7f bc 2b bd c3 a7 af bd 46 14 6b 3c ee ba 8d bc
       -0.04192781 -0.0857692 0.014348095 -0.01730105
0001c0 cb c7 84 bf e7 de 2e 3d d7 b8 fc bb df 87 9d bc
       -1.0373472 0.042693045 -0.0077124643 -0.019229827
0001d0 7b 2a 7b bd fa 30 dd bd b3 04 42 3f 8c 97 40 3e
       -0.06131981 -0.10800357 0.7578842 0.1880781
0001e0 58 4e 3d bf 19 b7 3b 3f 64 0a 2a 3f 1b a6 58 bf
       -0.7394767 0.7332626 0.66422105 -0.84628457
0001f0 d4 f3 2d bf 53 59 0c 3d 98 2a 8c bb 0f 98 e9 be
       -0.6795018 0.034264874 -0.0042775385 -0.45623824
000200 d0 9c 32 3e 63 fb b3 bf b5 dd 87 3e 2e 52 11 3f
       0.17442632 -1.4061092 0.26536337 0.5676602
000210 c9 24 9d be 02 6b 15 3f 64 12 e8 3e 1b c1 07 3e
       -0.30692127 0.58366406 0.4532653 0.13257258
000220 9d 23 94 bf b2 1d 72 be b9 22 87 3f 1a 29 9b 3e
       -1.1573368 -0.2364414 1.0557472 0.30304796
000230 3e cc 8e bf 9f 93 b8 3e 06 7d 7a 3f 1f 3a ca be
       -1.115608 0.36050126 0.9784702 -0.39497468

466 f4 [16]
000000 24 b6 77 3f 45 ff e8 3e 13 59 a6 3e 96 87 ff 3d
       0.967623 0.45507255 0.32489833 0.12477033
000010 20 da 59 3c 9c 45 fa 3e ba d7 13 3f 87 ef 0a 3f
       0.013296634 0.48881233 0.5775105 0.5427174
000020 2f 69 71 3e 2c 50 93 3f 66 c7 8f 3f a9 6f 92 3e
       0.2357528 1.1508842 1.1232727 0.28600815
000030 1e 6a 31 3f 5b 6c aa 3d ac a9 88 3e 3c 56 57 3d
       0.69302547 0.083214484 0.2669195 0.052572474

468 f4 [64, 1, 3, 3]
000000 f4 26 16 bf 7f f6 af bf b6 02 9a bd e0 a3 23 3f
       -0.5865319 -1.37471 -0.07520048 0.6392193
000010 a1 7e 3c bf e3 9a 9d 3f 7f 1e ff be ce 7b c9 bf
       -0.7363072 1.2312893 -0.49827954 -1.5740907
000020 f2 67 30 3f cb 01 a8 3c 15 84 c5 be d3 27 56 3e
       0.6890861 0.020508667 -0.38577333 0.20913629
000030 53 4e ca be c9 c3 ce 3f f9 d4 0d 3e d6 25 61 3e
       -0.39512882 1.6153499 0.13850774 0.2198709
000040 57 06 be 3e 8a 36 5c 3e 00 c3 a6 3e b2 e4 97 bf
       0.37114212 0.2150518 0.32570648 -1.1866667
000050 f2 b4 18 3f 7a 4d d9 3e f4 80 07 c0 f1 67 fe 3f
       0.596511 0.42441922 -2.1172457 1.987547
000060 37 6d b3 be 99 6a 87 3e a3 41 e1 3d c9 a2 ab 3b
       -0.35044262 0.26448515 0.10998847 0.0052379114
000070 b6 87 b3 be 45 84 31 3d 65 67 c3 bf 06 ba a7 3e
       -0.35064477 0.043339033 -1.5265929 0.32759112
000080 8c dd 2a 3f de af 16 bf d5 c5 9b be a4 09 2e bd
       0.66744304 -0.588621 -0.3042437 -0.042489663
000090 29 c7 d8 be 8e 2d 9b bf 27 97 db be 02 6e 73 bd
       -0.42339447 -1.2123277 -0.42888758 -0.059431084
0000a0 c4 c6 2b 3f 41 2e d2 3d d6 64 0b 3e f8 6b 48 3e
       0.6710017 0.102627285 0.13612685 0.19572437
0000b0 0b 7d e6 3c 0c ba 05 be 3d 61 b8 3f 6b 60 2e 3e
       0.028135797 -0.13059253 1.4404675 0.17028968
0000c0 6c 5b 0d be 23 1d ef bf a7 6e 77 bd cc 0a 93 bd
       -0.13804406 -1.8680767 -0.06040826 -0.07179794
0000d0 78 15 c2 be 4f 7b b0 3d b6 f4 9a bd bc 06 80 bf
       -0.37907004 0.08617269 -0.07566206 -1.0002055
0000e0 34 dd cf 3e 59 4c 89 3f 77 0e 16 c0 d4 1c a5 3f
       0.40598452 1.0726424 -2.3446329 1.2899423
0000f0 aa eb e9 3d 6b 72 93 be a4 f1 67 3e 76 d9 88 bd
       0.114219025 -0.2879823 0.22650772 -0.066821024
000100 47 f4 84 be 4f 8a a4 bd 85 7e 4c 3e 08 37 f8 3f
       -0.2596762 -0.08034193 0.19970138 1.9391794
000110 ef f3 bf 3d ed 3f 43 bd 6b 2e 12 bf 4e 54 6a 3e
       0.093726985 -0.047668386 -0.5710208 0.22883722
000120 87 ff 4c 3e 23 f7 03 3f 64 41 ac bc 18 f1 a4 be
       0.20019351 0.51548976 -0.021027274 -0.3221519
000130 26 32 4a 3f 87 79 8e 3e e2 2c 5e 3e 85 2d 9f 3d
       0.7898277 0.27827093 0.21696809 0.07772354
000140 42 1c 0b 3f 80 8d 06 3f c6 0a db 3e 80 e3 fc 3b
       0.54339993 0.5255966 0.42781657 0.00771755
000150 de a2 b5 3e 70 54 04 bf 42 2d 90 bf 43 60 93 3e
       0.3547582 -0.5169134 -1.1263812 0.2878438
000160 00 47 6d bf e5 19 a9 be 54 74 75 bf 55 d2 59 3f
       -0.9268646 -0.33027568 -0.9588063 0.85086566
000170 f9 d1 32 3f a9 93 86 bf e6 d2 17 3f 80 fb 92 3f
       0.6985164 -1.0513812 0.5930618 1.1483002
000180 b8 c1 d7 be 5f 32 ba be 5f 33 ad 3e 21 66 2b 3f
       -0.42139983 -0.36366555 0.33828256 0.6695271
000190 19 73 1b 3f 51 23 7e bd e1 c6 93 bf 97 5f f9 bf
       0.607225 -0.0620454 -1.1545068 -1.9482297
0001a0 f0 1b df 3c 78 18 0a 3f b6 4f 77 3f fd 04 25 bb
       0.027235001 0.53943586 0.96606004 -0.0025179975
0001b0 8b d7 be be 12 76 f2 be 67 3e 64 3e e0 52 26 bf
       -0.3727382 -0.47355705 0.2228943 -0.6497021
0001c0 41 61 b0 be 34 3d 93 3e 25 39 62 be ec fb 64 3f
       -0.344492 0.28757632 -0.22092111 0.894469
0001d0 df b4 43 3f 61 eb 2d bf 77 d1 58 3f c4 06 56 3e
       0.7644786 -0.67937285 0.8469462 0.20901018
0001e0 95 d1 b8 3d 8c 3c f1 3d 53 03 20 3f 77 24 93 3f
       0.090243496 0.117791265 0.6250507 1.1495503
0001f0 d8 2e 0d c0 1d f2 61 bf fe fc dd bd 58 88 a9 bf
       -2.205984 -0.8826006 -0.1083927 -1.3244734
000200 1d 5e ea be 37 8a f0 3e 36 45 c1 3f 02 5c 9c bf
       -0.45774928 0.4698045 1.5099247 -1.2215579
000210 ee 59 7a 3d 4b 52 e4 3e 85 8b 02 3f 3e d0 95 ba
       0.06112092 0.44594035 0.5099414 -0.0011429859
000220 7a f7 69 3e f5 72 91 3d 9a be cc bd c3 8b 20 bf
       0.22848311 0.071020044 -0.09997292 -0.6271326
000230 fc 57 ff be f2 8c b2 3d dc 1e 38 bf 17 b7 91 bc
       -0.49871814 0.087182894 -0.7192209 -0.0177875
000240 d2 a4 83 be f9 da 05 c0 6c b4 86 3f 1e b3 2b bf
       -0.25711685 -2.09149 1.052381 -0.67070186
000250 f5 9f 0e 40 38 1f 3a 3c b1 77 6e bb 9f 8e 6f be
       2.228513 0.011359982 -0.003638726 -0.2339425
000260 c3 2b 1e bd ef 1f 13 3f c4 92 8e bd d0 26 0b 3f
       -0.038615953 0.574706 -0.06961587 0.543561
000270 7c 21 07 3f 26 0f 98 3f eb 8d c8 bd d6 7e 8e bf
       0.5278547 1.1879623 -0.09792694 -1.1132457
000280 90 2d cc bf 5e d1 76 be 56 f3 8f 3e be 8d cd 3c
       -1.5951405 -0.24103305 0.28115338 0.025092002
000290 a5 87 f5 3e e0 b4 08 3f a7 9a 91 3e 6e 24 a7 3e
       0.4795505 0.53400993 0.28438303 0.3264498
0002a0 da a1 91 bd e0 06 73 3f f0 a5 6d be 3f a6 aa bc
       -0.07110949 0.94932365 -0.23207831 -0.020831225
0002b0 bb a3 50 3f f6 5e 2c be ad ac 8b be 75 ae f3 bf
       0.8149983 -0.168331 -0.2728018 -1.9037615
0002c0 3b 31 27 3e 91 9e a4 3c c4 d1 86 be c9 fc 44 3e
       0.16327374 0.020095142 -0.26331913 0.19237055
0002d0 f5 a5 5e 3f bc ff 85 3f ab fc 8f be 96 2b 79 be
       0.8697198 1.0468669 -0.28122458 -0.24333033
0002e0 98 40 63 3f 75 09 41 be 16 3a bf 3b 64 25 85 bf
       0.8877044 -0.18851264 0.005835782 -1.0402036
0002f0 b1 4f b1 bf b3 39 1f 3e e2 ed a4 3e b3 2a ad 3f
       -1.3852445 0.15549354 0.3221274 1.3528656
000300 5a 7e 4c bb 31 dd 3e 3f 28 d2 b8 3e 73 1e 5f bd
       -0.003120324 0.7455626 0.36097836 -0.054472398
000310 f7 95 03 bf f8 7a e0 be ec f7 d9 bd 87 5e 3d bf
       -0.51400703 -0.43843818 -0.106429905 -0.7397236
000320 57 0d 86 3d 11 d7 7a bd b7 81 76 bf 48 5e 81 be
       0.06545513 -0.06124026 -0.9629168 -0.25267243
000330 e5 4f 4e 3d 56 22 3c bd cb 5b f4 bd a7 89 db bd
       0.050369162 -0.045931183 -0.119315706 -0.107196145
000340 f6 77 24 3f 6d 3f ea 3d 87 5d 08 bd 7f 92 ea 3f
       0.64245546 0.11437879 -0.03329232 1.8325957
000350 04 cb 91 bb 6b c5 55 3e 7f 91 a8 3d e8 db 7e be
       -0.00444925 0.2087609 0.08230876 -0.24888575
000360 8b 31 4f be 3e 29 08 be dc f8 b9 bc 56 d5 32 3d
       -0.20233743 -0.13296983 -0.022701673 0.043660484
000370 d8 9b 98 bf a6 6d 2f 3f fa d0 49 3e 60 21 6b bf
       -1.192256 0.68526685 0.19708624 -0.918478
000380 e5 e2 8d be 79 0b f2 bd e4 1b 2c 3f 16 1d ed bd
       -0.2771217 -0.118185945 0.6723006 -0.11577813
000390 4d 51 04 3e b6 60 9a 3f 04 51 85 bd dc 09 e9 3e
       0.12921639 1.2060764 -0.06509593 0.45515335
0003a0 ff 5f 0b be 9a 23 21 3d 47 73 6b 3e b3 54 4e 3e
       -0.13610838 0.039340593 0.22993194 0.20149498
0003b0 d3 c2 9c 3e 1c 9d 11 3f c0 22 9a 3f 8a 18 81 3e
       0.3061739 0.56880355 1.2041855 0.25214034
0003c0 91 44 26 bf 9e 33 be bf 58 d6 61 be 55 b7 74 3e
       -0.64948374 -1.4859502 -0.22054422 0.2389806
0003d0 e5 43 1b be 94 e6 74 bf b7 2e db 3e 96 89 6b be
       -0.15162618 -0.95664334 0.42809078 -0.23001704
0003e0 84 54 e0 bf ee c0 7f 3e 6e fc f3 3d 0c ba b8 3e
       -1.7525792 0.2497594 0.119133815 0.36079443
0003f0 9f b1 a0 bd 23 3b c5 3e 56 cc b8 3e fb cc ca bd
       -0.078463785 0.3852168 0.36093396 -0.09902378

469 f4 [64]
000000 fd 90 fb be 09 17 df 3f 36 a2 58 3c ba 91 16 3f
       -0.49134055 1.7428905 0.013222268 0.5881611
000010 36 af 7f 3e 69 c4 08 bf ad 1c 0e 3e 7b a5 2a 3f
       0.24969181 -0.534247 0.13878126 0.66658753
000020 c4 98 9a 3e 9d 44 02 3e 96 15 b3 3d 81 16 48 be
       0.30194676 0.12721486 0.087443516 -0.19539835
000030 d4 71 54 3e 0a 18 2b be e6 69 01 3d 11 14 1b 3f
       0.20746547 -0.16708389 0.031595133 0.60577494
000040 84 a4 c8 3b 62 8a 40 bb 6c 8d f6 3d b6 38 49 3f
       0.0061231274 -0.0029379358 0.12038693 0.7860216
000050 22 46 27 bd bf 56 3b be 69 96 fe be 3a d4 5b 3f
       -0.04083837 -0.1829481 -0.4972413 0.8587071
000060 50 3d 05 3e ac f4 cb bc ad 3b 7e 3d 7a ed 02 bf
       0.1301167 -0.024896942 0.06206863 -0.5114361
000070 cf dc 4b 3e e6 a8 39 3e e6 45 e3 3c be 5b 7b bd
       0.1990845 0.18130836 0.027743291 -0.06136679
000080 1b eb 82 3f 52 dc 5a 3f ac c2 7b 3e 84 1c 78 3f
       1.0227998 0.8549243 0.2458598 0.9691851
000090 60 e6 57 3b 3a 15 cb 3e 84 20 19 3f ac 51 b1 3c
       0.003294371 0.39664632 0.5981524 0.02164539
0000a0 08 1e 0b 3e ea 66 0a 3f 40 6b 6c 3d e0 e4 fd 3a
       0.13585675 0.54063284 0.05771947 0.0019370578
0000b0 3a aa 49 3f c4 79 80 3e 55 a8 d2 be 0d cc d7 bd
       0.7877537 0.250929 -0.41144052 -0.105369665
0000c0 06 62 b8 bd b8 90 e3 3e e0 eb b3 3c 58 58 64 bc
       -0.090030715 0.4444635 0.02196306 -0.013937078
0000d0 cb 41 06 3f 4c 8d b2 3e 11 87 53 bf b6 4f dc 3c
       0.5244414 0.34873426 -0.8262797 0.026893478
0000e0 fc 8c 2b 3e 88 24 a7 3e 94 97 a8 3e b5 8c 84 3e
       0.16753 0.3264506 0.32928145 0.258886
0000f0 5b 13 65 bc 97 61 c1 3e 5c 16 bb bd 87 f4 29 bf
       -0.0139816655 0.37769768 -0.09135124 -0.66388744

471 f4 [64, 1, 3, 3]
000000 bd 9c a2 bd 9b 17 3b bd e2 ff cb bd dc ac 0b 3f
       -0.07940052 -0.04567681 -0.09960915 0.5456064
000010 01 76 8e 3f 40 d2 7d 3f ad b0 8d bf a7 1b 6b be
       1.1129762 0.9914894 -1.1069542 -0.22959767
000020 7b 8e 94 bf 3c bc 14 bf 0a 21 2c bf e8 2b 3f 3f
       -1.1605982 -0.5809972 -0.67237914 0.7467637
000030 6a f6 83 be c3 17 9f bf 22 7e e2 3e ba ba b3 be
       -0.25773937 -1.2429127 0.44236857 -0.351034
000040 59 fa db bd 7f 34 0b 3f fb d2 d2 3c 46 37 be be
       -0.107411094 0.5437698 0.025735369 -0.37151545
000050 ed 73 de be e8 49 90 bc 4d aa 01 bf 61 70 51 be
       -0.4344782 -0.017613366 -0.50650483 -0.20453025
000060 69 e9 5d bc 30 a4 ad be 7b ab ce be 91 4c 1e bd
       -0.013544419 -0.33914328 -0.40365204 -0.03864724
000070 55 67 b7 3f 5b 41 6c bf bb c8 b4 3f 2c dd 97 3e
       1.432841 -0.92287225 1.4123758 0.29660928
000080 8e 33 e5 be 64 d5 31 3f 04 27 a6 bf bc 30 b0 3e
       -0.44765896 0.69466233 -1.2980657 0.3441218
000090 32 07 d0 bd 5a f7 91 bf 08 f1 f7 be 66 18 ec be
       -0.101576224 -1.1403611 -0.4842608 -0.46112365
0000a0 00 aa 80 3e 5f 46 29 bf d0 70 b1 be ce f3 f7 3e
       0.251297 -0.66123 -0.34656382 0.48428196
0000b0 c5 4f 9d be 60 1a cd be 87 f4 be be 0a f0 57 3f
       -0.30724922 -0.40059185 -0.37295935 0.84350646
0000c0 b3 46 54 bf 5e 7c f2 be c2 e9 4d 3f 75 92 20 bf
       -0.8292038 -0.4736051 0.8043481 -0.62723476
0000d0 d2 e8 49 bf 81 e9 05 3f 9f 61 9a be b5 86 74 3e
       -0.7887088 0.52309424 -0.30152604 0.23879512
0000e0 3e de 15 3e cd 42 d5 bf 30 20 0b bd db 9e 3b bd
       0.1463556 -1.6661011 -0.033966243 -0.045805793
0000f0 58 7d 45 bf 96 c7 3d be 43 5a 37 3e 90 e1 0c bf
       -0.77144384 -0.18533167 0.17905526 -0.5503168
000100 9a d6 a0 3f cb 82 0a bf 17 9f 4e bf 20 46 50 bf
       1.2565491 -0.54105824 -0.807115 -0.81357
000110 94 76 85 bf c0 2f 75 3d 8b df 56 be 37 b2 5b 3e
       -1.0426812 0.05985999 -0.20983712 0.21454702
000120 90 d0 47 bf 7a 97 8d 3e 21 0b a4 3c 75 67 a6 bf
       -0.78052616 0.2765463 0.020024838 -1.3000323
000130 f0 94 ca 3e 90 5b a6 3f 26 4f 84 3c aa fe 26 bf
       0.39566755 1.2996693 0.016151022 -0.65232337
000140 3c d0 8f 3e af d2 c4 be e5 cb 25 bf 6a 21 97 3e
       0.28088558 -0.3844199 -0.64764243 0.2951768
000150 2e 16 ba 3d 09 9f 4e bf ec 9a 80 3f 77 0d 62 be
       0.09086262 -0.8071142 1.0047278 -0.22075449
000160 66 db 8b bf cc e6 2d bf df a3 ca 3e a4 95 e7 3d
       -1.092633 -0.67930293 0.3957815 0.113078386
000170 53 9d 09 3f 04 80 01 3f 07 06 08 3f 91 a4 01 3f
       0.5375568 0.5058596 0.53134197 0.50641733
000180 30 f3 95 3d 46 22 18 be c7 03 9d 3d 91 b0 6a be
       0.07321775 -0.14856824 0.07666736 -0.22918917
000190 bd 51 25 bf 91 b6 d1 bc e4 0b f4 be f7 89 c8 be
       -0.6457785 -0.02559975 -0.47665322 -0.3916776
0001a0 19 00 91 3d 60 4b 1b bf da dc 94 3c ea 87 87 be
       0.07080097 -0.6066189 0.018171716 -0.26470882
0001b0 da 81 02 3e 3a 40 ac bd de 4f d9 bb 21 74 c1 3e
       0.12744847 -0.08410688 -0.0066318354 0.37783912
0001c0 b1 55 08 3f 44 6a 82 be ca d6 83 3f 1b 7a 71 3f
       0.53255755 -0.254717 1.0299923 0.94326943
0001d0 22 af 14 3e e2 d7 b1 bd 31 66 d5 be 9e 59 81 3e
       0.14519933 -0.086837545 -0.41679528 0.25263685
0001e0 4a 19 94 be 14 77 d4 bf 95 05 e3 3e 51 07 2e be
       -0.28925544 -1.659884 0.44340196 -0.16994978
0001f0 3e e6 9b bb 3e e2 f8 bd 9f 09 01 bf 0e 3d 37 3e
       -0.0047576716 -0.12152527 -0.50405306 0.17894384
000200 91 11 ac 3c e7 6e 28 bf 77 90 39 bf fd e6 82 be
       0.02100447 -0.65794224 -0.7248606 -0.25566855
000210 25 f4 81 bc 66 1d 6f be 9c 9f 88 bd 77 d3 92 bf
       -0.015863487 -0.23351058 -0.06671068 -1.1470784
000220 ea b8 8c bf 70 cd 24 bf 88 f7 b0 bd 52 bf 6a 3f
       -1.0993931 -0.6437597 -0.08640963 0.9169818
000230 74 72 38 bf 9c 2a ee 3e 11 ab c2 3f 99 4b 80 be
       -0.7204964 0.46516883 1.5208455 -0.25057676
000240 59 de dc 3d 4c c3 04 3c 53 31 90 3e 8b d4 dc be
       0.10784597 0.008103203 0.2816263 -0.43130907
000250 9e 7e f2 3f 66 ee ea 3e 05 07 f7 be ff b6 33 bf
       1.894489 0.4588501 -0.48247543 -0.70201105
000260 88 9a 26 bf 35 bd d5 be e3 23 b1 bf 07 ab 08 bf
       -0.65079546 -0.41745916 -1.3839077 -0.53385967
000270 e3 4a 0d bd d2 04 6c 3e 4d 7f 86 3c 62 a4 05 bd
       -0.034495246 0.23048714 0.016418124 -0.03262747
000280 85 59 f3 3e f2 0c 7f 3d 57 e8 9a 3d d9 4a 9a bc
       0.47529235 0.062268205 0.075638466 -0.018834518
000290 12 b2 3c 3d cf 67 fa bc d7 18 ad 3e c3 b5 e2 3c
       0.04606826 -0.030567078 0.33808014 0.027674561
0002a0 4a fa 16 be 71 b6 d8 3f 89 76 21 bb 53 05 f2 3e
       -0.14743915 1.6930677 -0.0024637303 0.47269687
0002b0 12 d0 69 3f 27 17 c7 3e b4 29 c7 3d f3 b3 20 bf
       0.91333115 0.3888485 0.09724751 -0.6277458
0002c0 1f 45 62 bf ec 3b 9a be a1 22 ed be 40 d3 94 bf
       -0.8838672 -0.30123842 -0.46315482 -1.1626968
0002d0 a8 a9 43 be 45 95 95 bf c0 d0 17 bf 08 f4 14 be
       -0.19107687 -1.1686178 -0.593029 -0.14546216
0002e0 d6 e1 7f 3e fe 64 81 3e 30 03 a5 be 25 3d e2 3e
       0.24988493 0.25272363 -0.32228994 0.44187275
0002f0 de df 0b 3d 62 71 c4 3e 8f cc fe 3e 0c ee fa 3d
       0.034149043 0.38367754 0.4976544 0.12252435
000300 cd 86 51 3e 8e a9 a9 3e 86 63 c2 3e 31 bf 5e 3e
       0.20461579 0.33137172 0.37966555 0.21752621
000310 0d e8 3a 3e d7 72 85 3d f2 48 10 be 87 90 bd 3e
       0.18252583 0.065160446 -0.14090326 0.37024328
000320 06 be 94 3e a5 3f 39 3f a0 7d a2 3e 46 5b 7d be
       0.29051226 0.7236274 0.3173647 -0.2474185
000330 52 53 a4 be 47 7c b4 bf 84 b5 9f bf 7c 8b 53 3f
       -0.32094818 -1.4100426 -1.2477269 0.8263471
000340 95 7b f8 3e 5e 77 bf 3e a7 29 5d 3e 21 62 a6 3e
       0.48531786 0.37395757 0.2159792 0.3249674
000350 9c 68 8b 3e 08 bf aa be 1f b2 5e 3e ab 4d 10 3f
       0.27228248 -0.3334887 0.21747635 0.5636851
000360 2d 46 37 3e f6 30 89 3f 90 12 26 3f 7f 1e e8 bd
       0.17897864 1.0718067 0.64872074 -0.11333942
000370 1c e4 59 3d dc 49 06 3f 0a 71 ff bd 30 50 26 3d
       0.053196058 0.5245645 -0.12472732 0.040603817
000380 31 04 ff 3e 58 a7 93 be 3d 83 ef be c1 76 41 3c
       0.49807885 -0.2883861 -0.46779814 0.011808098
000390 60 eb 7f bd cc 8d e5 be 6d ac be be ac c5 71 be
       -0.06248033 -0.44834745 -0.37240925 -0.23610562
0003a0 1a f8 13 bf 3d ee 2f be 1e 28 61 be 30 11 04 be
       -0.5780045 -0.17180724 -0.2198796 -0.12897182
0003b0 91 28 bb 3e 13 e9 fa bd 5a 16 06 3e 38 82 76 3f
       0.36554387 -0.12251487 0.13094464 0.9629245
0003c0 1f 8b 0e 3e 7a 1d 87 be 87 3f 5f 3f 6f 27 28 be
       0.13920258 -0.26389676 0.8720631 -0.16421293
0003d0 51 a9 bc bf 31 55 8e 3f 8f 49 fd 3e e5 48 05 bf
       -1.4739171 1.1119748 0.49470183 -0.52064353
0003e0 92 cc 76 bf 6f 01 95 3e 00 a9 d9 3f 93 68 a2 bf
       -0.964059 0.29102656 1.70047 -1.2688164
0003f0 4b 8e ac 3e a3 ca 6d 3e 1b e5 4c bf c3 21 2f 3c
       0.3370231 0.23221831 -0.8003709 0.010689202

472 f4 [64]
000000 14 fb 72 3c 15 e0 2f 3e 90 fc 2f 3f fc 03 d8 bd
       0.0148303695 0.17175324 0.68744755 -0.10547635
000010 d2 00 51 3f 7d 6d f9 3d 2c a8 a7 3e 09 96 79 3f
       0.81641877 0.12179086 0.32745492 0.9749456
000020 f0 63 a1 3d e3 74 88 3d 5f 71 ed 3e 1f 80 99 be
       0.0788039 0.06662919 0.46375558 -0.2998056
000030 5f 3b fe 3d 34 72 07 3f 55 47 e6 3e 55 33 91 3e
       0.12413668 0.52908635 0.44976297 0.28359476
000040 d8 87 8a 3d 58 a3 0b bd f9 b0 b9 3f 4c d2 0e be
       0.067641914 -0.034091324 1.4507133 -0.1394741
000050 44 ce 12 3f 3f 5a 6b bf ef 2f d1 3d bf bf d0 3e
       0.57345986 -0.9193458 0.10214221 0.4077129
000060 c8 35 90 3e f2 bf 45 bd a4 0e 4e bd 12 ec 86 bd
       0.28166032 -0.048278756 -0.05030693 -0.065879956
000070 3e e1 de 3d 5e 22 f5 3e 4b 6b 58 3f 45 08 27 3e
       0.10882805 0.47877783 0.84538716 0.16311748
000080 f6 59 98 3e bc 4f 19 be a5 df 39 be 18 61 ce 3d
       0.29756135 -0.14971823 -0.1815172 0.10077113
000090 34 0c d3 3e f8 57 33 bd 38 ed 11 be 8b aa 60 bd
       0.41220248 -0.043785065 -0.14250648 -0.054850142
0000a0 de 06 b0 3e 9a 8d 30 3d 9a 5a 80 bd 3a 9a 05 3d
       0.3438024 0.04310379 -0.06267281 0.032617785
0000b0 47 97 0d bf b8 55 fe 3c 54 98 c0 3d 14 70 1c 3e
       -0.55308956 0.031046733 0.09404054 0.1527713
0000c0 40 6e 9a 3e 61 f0 cb bd ff 6f 34 3e be c3 c3 3e
       0.3016224 -0.09957958 0.17620848 0.38235277
0000d0 2a 43 b2 bc 6b e1 6d 3d 6c 21 7e 3f 14 05 15 3d
       -0.021760542 0.058076303 0.9926975 0.036381796
0000e0 a4 8b 40 bc e8 99 af 3d 9d 1d 8c 3e e1 39 00 3f
       -0.011752043 0.08574277 0.27366343 0.50088316
0000f0 ea 39 b5 bd 00 81 5b 3e a6 6a 1c 3e 1b 9c a8 3e
       -0.08848937 0.21435928 0.15275058 0.329316

474 f4 [64, 1, 3, 3]
000000 8b 69 01 bf 42 29 7e bf 48 d7 b0 be 8d db 68 3f
       -0.5055167 -0.99281704 -0.34539247 0.9096001
000010 86 ee 83 3f de 80 a8 3e f9 99 0d 3e fe 4e a5 bc
       1.0307167 0.32910818 0.13828267 -0.020179268
000020 fa 80 ee 3d 7f c0 ff be 3f bf 35 bf 6c fd 55 be
       0.11645694 -0.4995155 -0.70994943 -0.20897454
000030 a5 38 22 be 28 92 82 3f 15 95 56 3e c8 21 cd 3e
       -0.1584192 1.0200853 0.20955308 0.40064836
000040 75 25 1c 3f 5d 30 d7 3e b4 5c 1b 3e 09 4a ac be
       0.60994655 0.42029086 0.15172082 -0.33650234
000050 24 a5 86 bd 89 32 66 3e 63 f9 d7 be f1 8f 80 bf
       -0.06574467 0.22480215 -0.42182454 -1.0043927
000060 21 96 6f 3e 35 eb 07 3e a9 24 ef bf 9a e7 f3 3d
       0.23397113 0.13273318 -1.8683063 0.11909409
000070 9d 13 fe 3d 5d 59 73 3e d8 e2 0c bf 39 ae df bf
       0.12406085 0.23764558 -0.55033636 -1.7475044
000080 b4 29 4f be e9 74 91 bd 5f 31 0f bf a8 c5 0e bd
       -0.20230752 -0.07102377 -0.5593471 -0.03485647
000090 0c 7c 0d bf c8 9e c6 be 11 3a eb be 35 ff a6 be
       -0.55267406 -0.38793015 -0.4594274 -0.32616583
0000a0 1e 13 94 be f7 79 af be c4 4d df be 5f 86 0a bf
       -0.28920835 -0.3427274 -0.43614018 -0.54111284
0000b0 d5 8f 06 bf 6b bc 69 bd b1 18 b2 be ec ce e3 be
       -0.5256322 -0.057064455 -0.34784463 -0.44493806
0000c0 eb bb a8 bd cb ec 5f bf 93 64 c1 3b 95 37 2a be
       -0.082389675 -0.8747069 0.005901882 -0.16622765
0000d0 ed 7b f0 be d9 b3 54 3e 96 36 ab bd 93 db 2f be
       -0.46969548 0.20771731 -0.08360021 -0.17173605
0000e0 09 55 52 39 c4 6b 3e bf a4 5c 82 be e2 ab 1c 3c
       0.00020058839 -0.7438319 -0.25461304 0.009562464
0000f0 04 5c e6 be 19 72 26 be 14 52 73 3d 20 93 b3 be
       -0.44992077 -0.16254462 0.059404448 -0.35073185
000100 5e 7a 4b bf 50 22 23 bf 2f a2 20 bf 54 f9 b1 bc
       -0.7948359 -0.6372423 -0.6274747 -0.021725334
000110 e8 01 b2 bb 75 a1 9b be ba 7a 62 3d d5 02 47 bd
       -0.005432356 -0.3039662 0.055292822 -0.048586685
000120 3b 54 aa 3d 24 3f 11 be 44 f5 03 3e 4a a8 79 bd
       0.08316847 -0.14184242 0.1288653 -0.06095151
000130 d4 00 82 bf ba 0e e4 bd 71 2e dc 3c 98 13 55 bf
       -1.0156503 -0.11135621 0.026877614 -0.8323302
000140 6c 71 92 be 3b 3f 65 3e d3 80 eb 3e c8 a3 87 3e
       -0.2860216 0.22387402 0.45996723 0.26492143
000150 9c 18 05 3f 99 ab 84 3f 24 c0 5e 3f ee 0c bc be
       0.51990676 1.0364867 0.87011933 -0.36728615
000160 ca 06 90 bf 70 44 0e bf a1 96 ba be b0 6f ac be
       -1.1252072 -0.5557318 -0.36443046 -0.3367896
000170 61 5b 9f be 72 f7 f5 be 33 7e c4 3f a9 27 24 3d
       -0.31124404 -0.48040348 1.5351013 0.040076885
000180 8e 8b 4f 3d fe 71 0b 3e a6 45 03 be fd d2 7b 3e
       0.0506702 0.13617703 -0.12819538 0.24592204
000190 2c df 27 3f 60 0c 50 3d 6f 42 14 3e c4 66 0e 3f
       0.6557491 0.05079305 0.14478467 0.5562556
0001a0 cb 01 65 3e ad b0 19 3e ed 6b 64 3e bb 24 92 3e
       0.22363965 0.15008803 0.22306795 0.28543648
0001b0 45 9b 3c 3f 11 4e 61 3e 78 ac 93 bf 50 38 c4 3e
       0.7367442 0.22002436 -1.1537008 0.38324213
0001c0 8a 11 a8 bd e0 50 01 bf 74 a5 e4 3e c2 86 db bc
       -0.0820647 -0.5051403 0.4465748 -0.026797656
0001d0 dc 42 e2 be 9a 31 1f 3d d1 14 a8 bd 44 af c2 3d
       -0.44191635 0.038865663 -0.082070954 0.095060855
0001e0 d2 f4 89 3e a4 59 b2 3f 8e 86 7e 3d 34 36 94 be
       0.26944596 1.3933606 0.06214004 -0.28947604
0001f0 ed e7 9f 3d 00 38 36 be 18 bd db bd 6b f9 86 be
       0.07807908 -0.177948 -0.10729426 -0.26362166
000200 2e cb a2 bd 8d 5c 0f be f0 ec d3 be 82 ba 6d be
       -0.0794891 -0.14000149 -0.41391706 -0.23215678
000210 3c 0b f1 bd d6 8c a4 be aa ef a2 be a4 aa f1 3d
       -0.11769721 -0.321387 -0.31823474 0.11800125
000220 43 04 03 3f ed aa f1 3e 6f e8 2a 3d 00 3d fd 3e
       0.5117838 0.4720072 0.041725572 0.49460602
000230 4f 09 e8 3e 2d 3e 7a bd 27 de 74 3d d0 41 ae bb
       0.45319602 -0.06109445 0.059782173 -0.005317904
000240 6b 16 05 3e 2e a1 eb bc 34 0e 66 3e e4 9c c1 3c
       0.12996833 -0.02876338 0.22466356 0.023634382
000250 c2 f9 f9 3e bd a5 bb 3f 78 27 31 3d d5 27 1b be
       0.48823363 1.4659954 0.04325053 -0.15151913
000260 a3 ad b0 3c 9a c7 4a 3e 7e fc a3 3f ec c0 f1 3e
       0.021567171 0.19802704 1.281143 0.472175
000270 9e a8 23 be 35 79 b3 bc 20 5b 57 bd 51 a5 a9 bc
       -0.15982291 -0.021908382 -0.052577138 -0.020708712
000280 c8 c7 53 3d b8 03 02 3d f2 f3 9a bd fe 3e 3a bf
       0.051704198 0.031741828 -0.0756606 -0.7275237
000290 e9 47 82 3c aa 9a d3 be a0 d6 f5 be db 76 bd 3c
       0.01590343 -0.41328937 -0.48015308 0.023127964
0002a0 c5 3c 23 bf 8e 2f 6b be cf 4e 31 bd 5b 84 4a bf
       -0.637646 -0.2296736 -0.04328805 -0.7910821
0002b0 5b ec d8 bd 9e 9d c6 3e c7 d7 d9 bf 16 c1 8b be
       -0.10591956 0.38792127 -1.7018975 -0.2729575
0002c0 9d bf b0 3e 19 1f e7 be 6b f1 38 be 66 ea 8e 3e
       0.3452119 -0.45140913 -0.18060844 0.27913207
0002d0 d2 f4 3a 3f ef d2 3e 3f 4e c8 ac 3e e5 14 0c 3f
       0.73029816 0.7454061 0.3374657 0.5471938
0002e0 f3 d5 a7 3f 39 1e 74 3e 18 30 46 3c 36 38 2c 3e
       1.3112167 0.23839654 0.012096427 0.16818318
0002f0 0e 20 05 3e ee e0 95 3e f9 96 80 3e cc 89 4b 3e
       0.13000509 0.2927317 0.25115183 0.19876784
000300 b6 dd aa 3e 26 0b 87 3f a3 07 c5 3e 6d 2c 1e 3e
       0.33372277 1.0550277 0.3848239 0.15446635
000310 8c 1d 25 3f fa cc 32 3e 0c ab cb bb ee 68 9a 3e
       0.6449821 0.17461005 -0.0062154587 0.3015818
000320 ca d3 06 3f ee fa 5a 3e f0 aa d4 3e a0 b1 a7 3e
       0.52666914 0.21384785 0.41536665 0.32752705
000330 de 75 16 3e 51 fa 4f 3e 92 58 54 3d f8 c2 9c 3e
       0.146934 0.20310332 0.05184228 0.306175
000340 7f 14 32 3f 5e c0 bf 3e d3 b7 0c 3f 9c fb c1 3e
       0.69562525 0.37451452 0.54967993 0.37887275
000350 be ed b7 bd 1c 3d d9 3e ca 10 ef be c8 44 ec be
       -0.089808926 0.42429435 -0.46692497 -0.46146226
000360 4f 9e 6d 3e 5a 5a 00 3f 52 78 eb 3e 6f 76 f2 3e
       0.23204921 0.50137866 0.45990235 0.47355983
000370 6b 35 f8 3e d4 fd f0 3d 48 2b 0d 3e 7c 40 95 bd
       0.48478255 0.11767164 0.13786042 -0.0728769
000380 3d 38 7a 3e e9 cf 14 3e d8 85 b9 3e e4 59 de 3c
       0.24435516 0.14532436 0.36234927 0.027142473
000390 88 fc 94 be c4 c9 93 3f 9d 63 ed 3e 2e 50 bd be
       -0.29098916 1.1545949 0.4636506 -0.36975235
0003a0 64 e6 8b 3e 25 1d 9d 3e f6 d5 09 3f 36 5a b7 3e
       0.27324212 0.30686298 0.53842103 0.35811013
0003b0 10 3a 0f 3d eb ed 6b 3e d7 a6 eb 3e 03 3a a3 3e
       0.034967482 0.23039977 0.46025726 0.31880197
0003c0 fb 3d 39 3e 3f dc 8f 3e 88 a1 fd 3e c2 97 83 bd
       0.1809005 0.28097722 0.495373 -0.0642543
0003d0 aa b9 8e be 46 91 89 be 0d c9 f7 be 3c af 0d bf
       -0.27876025 -0.26868647 -0.48395577 -0.5534551
0003e0 4f 73 cc bd 96 d6 33 be 55 9b 0a 3e 4a 27 65 be
       -0.09982931 -0.17562327 0.13535817 -0.22378269
0003f0 d1 55 1e 3f 93 75 b9 3e ba d3 4d 3e 6e d2 ab 3e
       0.61849695 0.36222515 0.20100299 0.33558983

475 f4 [64]
000000 ea 43 eb bd f3 e8 89 be a4 cb ed 3d 0a 4c d0 bd
       -0.11487563 -0.2693554 0.11611107 -0.10170753
000010 2c 5d 95 3e 6d 8d ff 3e af 98 29 3e c0 c6 b1 bc
       0.29172647 0.49912587 0.1656215 -0.021701217
000020 29 59 74 3e 20 1e 85 be 35 1d 07 be 4c 4b 85 3e
       0.23862137 -0.25999546 -0.13194735 0.2603401
000030 4e 54 42 be 00 5c 1c 3e af 05 99 bd 6a 49 41 be
       -0.18977472 0.1526947 -0.07471787 -0.18875661
000040 28 f4 77 3d 7c f0 84 3c 09 df 8b 3e a0 40 16 be
       0.06053558 0.016227953 0.273186 -0.1467309
000050 7e d7 2d 3e 28 11 51 3f 6f 0f 88 3e 26 04 17 3f
       0.16976735 0.81666803 0.26574275 0.58990705
000060 70 9d b1 bc 5c c5 76 bd 68 3a 1e bc 6d b8 06 3f
       -0.021681517 -0.06024681 -0.00965748 0.5262516
000070 88 fa 32 3e 84 73 ef 3e b3 94 f4 3d ea 25 de bd
       0.17478383 0.4676782 0.119424246 -0.10847075
000080 c2 a1 c1 3e 18 6d 81 be 36 9b 06 bd 82 eb 34 bc
       0.37818724 -0.25278544 -0.032862864 -0.011042478
000090 f7 84 12 3e f4 41 d2 bd 28 de 5b bd 42 22 98 be
       0.14308535 -0.10266486 -0.05367866 -0.29713637
0000a0 ea ff 36 3d c4 1c de bd 81 04 cc 3e 44 c5 81 3d
       0.044677652 -0.1084533 0.39847186 0.063364536
0000b0 41 dc b4 3e 39 88 5a bf 00 20 d3 39 f3 95 14 3e
       0.3532429 -0.8536411 0.00040268898 0.14510326
0000c0 a0 30 74 be 14 cf 9b bd 8b 38 db 3d 57 f7 9d 3e
       -0.23846674 -0.076078564 0.10704144 0.30852768
0000d0 40 43 43 3b 23 32 9e 3e 10 75 7b bd 01 de f4 3e
       0.0029794723 0.30897626 -0.061390936 0.47825626
0000e0 ff 53 76 be f9 8f 47 3e c4 b4 ce 3e 86 f0 76 be
       -0.2405548 0.19488515 0.40372288 -0.2411519
0000f0 5e d8 ee 3d 2e 75 da 3e be 39 d4 3e 30 74 34 3f
       0.116623625 0.42667526 0.41450304 0.7048979

477 f4 [64, 1, 3, 3]
000000 88 26 5c bf 5e 67 a7 bf 08 cf e5 3d c3 ce c6 bf
       -0.85996294 -1.307842 0.11221129 -1.5531849
000010 4d c8 d5 3f 5c 8a 7e 3e 30 d8 e3 3d ec af 3d 3e
       1.6701752 0.24857467 0.11125219 0.1852414
000020 d3 85 f6 3d 2e 8f 0a 3f 4a 4e bd 3f 65 8b ba 3e
       0.12037244 0.54124725 1.4789517 0.36434475
000030 61 dd 6a 3e 6b 78 ba 3f db cd 6a 3e 18 6f fb 3e
       0.22936012 1.4567999 0.2293009 0.49108195
000040 4b d2 b5 3d 16 0a 33 3e 98 02 d3 3e 37 93 1a c0
       0.08878001 0.17484316 0.41212916 -2.4152353
000050 dd 45 4d bf 3a 35 64 3e d6 f6 84 3f ed c2 dc be
       -0.8018473 0.2228593 1.0387828 -0.43117467
000060 40 f3 7f be fd e8 4b be 31 a3 cf 3d 8a ce fb 3c
       -0.24995136 -0.19913097 0.10138548 0.030738134
000070 39 24 1c 3f 55 5a 2c 3e bd fc a2 bc af a6 6f 3f
       0.6099277 0.16831334 -0.019895906 0.93613714
000080 bc 05 d4 3d 57 d2 88 3e 37 19 d5 3e e1 fd 02 3f
       0.10352656 0.26722977 0.416208 0.5116864
000090 cc ab 8a be b1 dd 33 3f 9e 06 c7 be 16 2f 70 3f
       -0.27084196 0.7026015 -0.38872236 0.9382185
0000a0 ac b3 ce 3f c8 e2 84 3f 08 72 97 3f e6 d9 01 3d
       1.6148582 1.0381708 1.1831675 0.031701945
0000b0 77 bf d8 3e 20 2f 53 be 1f eb e5 be ac 58 61 be
       0.42333576 -0.20623446 -0.44905946 -0.22006482
0000c0 0f 80 07 bf ef f5 71 3d 36 c5 4c bf 7e ed 23 39
       -0.52929777 0.05907243 -0.7998842 0.00015633364
0000d0 c5 60 5b bf 07 18 f1 be 87 35 05 3f 1d d7 d1 3f
       -0.85694534 -0.47088644 0.520348 1.6393772
0000e0 5b 5f dd 3e d3 0c a7 3d bd e4 1b c0 7d 45 3d 3f
       0.43236813 0.08156743 -2.435836 0.73934156
0000f0 f7 24 b6 3e 92 5f 9b 3e 74 cb 17 3e f2 24 5b 3f
       0.35575077 0.30346352 0.14823705 0.8560325
000100 e4 82 ef 3f 8f 47 86 3f 76 c4 9c be 46 9c fb bf
       1.871182 1.0490588 -0.30618638 -1.9657066
000110 24 84 22 be c7 25 5c be 8b 9e 7e be d7 5f e6 bd
       -0.1587072 -0.21498786 -0.24865167 -0.11248749
000120 55 b3 d5 38 4d c4 98 bf f3 ba 77 3e b9 91 12 3c
       0.00010190035 -1.1934906 0.24192409 0.008945876
000130 6f 42 22 40 a2 84 60 bd 62 2e 5b be 00 8c 7f be
       2.5353048 -0.05481399 -0.21404412 -0.2495575
000140 0f d4 d6 bd 74 6a a1 3e c8 e5 d3 3f 70 a0 64 3e
       -0.10489666 0.3152653 1.6554499 0.22326827
000150 38 47 5b be 0d 84 20 bf f3 3b 2f 3f f4 05 4e 3d
       -0.21413887 -0.62701494 0.6845085 0.050298646
000160 e1 61 5a be 2f 42 69 3f 0d f2 be 3e 38 2d ad 3f
       -0.213264 0.91116613 0.37294045 1.3529425
000170 5d 02 50 be ce 6a 0a c0 3d 99 74 bf 48 4e 96 be
       -0.20313402 -2.1627688 -0.95546323 -0.293566
000180 ad 93 26 3f ff 77 95 3f 6f b7 35 bf de ae 1e c0
       0.65069085 1.1677245 -0.7098302 -2.479423
000190 5a f3 e3 be dc 05 22 be 68 28 05 3f 16 16 e0 3f
       -0.445216 -0.15822548 0.5201478 1.750674
0001a0 d7 8f bf 3e 0d ae bb 3e f9 c1 17 3f a2 06 30 be
       0.3741443 0.36656228 0.59280354 -0.1719003
0001b0 ca 4c 97 3e 33 f3 07 bf 75 9f cc 3e 1b 69 43 3f
       0.29550773 -0.5310547 0.39965406 0.76332253
0001c0 94 e3 58 3e 1c 15 67 bd fe ba e1 3e 3e e2 3c 3f
       0.21180564 -0.056416616 0.44087976 0.7378272
0001d0 8b d7 03 be 0b 21 b0 3e ed 10 25 3c af 22 69 be
       -0.12875192 0.3440021 0.010074836 -0.22767137
0001e0 5b 28 84 3e ee 4d ac bf 3e c6 0f be a9 86 80 be
       0.2581204 -1.3461282 -0.14040467 -0.25102738
0001f0 76 90 44 be 50 96 02 bf ff b5 27 bf ea 36 0b 3f
       -0.19195732 -0.5101061 -0.6551208 0.5438067
000200 2e 7d 81 3e 2d b2 72 bf 92 a8 d4 3f a8 09 02 3f
       0.25290817 -0.94803125 1.6613944 0.50795984
000210 c9 6e ab be ba d4 25 be 40 4d 19 3e 25 24 8f bd
       -0.3348296 -0.1619443 0.14970875 -0.06989316
000220 c3 fb 4f bf 2d 00 e7 be a2 49 bf 3d 2b 2b 0f bf
       -0.8124353 -0.45117322 0.09340216 -0.55925244
000230 55 04 bb bd e5 76 07 bf ea 7e e7 be 28 42 8e 3d
       -0.09131686 -0.52915794 -0.45214015 0.06946212
000240 d5 5e 2b 3e 61 dd 89 bf ea a8 ac be 41 72 12 bf
       0.16735394 -1.0770684 -0.3372262 -0.5720559
000250 b4 af 4d bf 32 89 b1 3d 46 7c 0a 3f b4 02 c8 3f
       -0.80346227 0.08668746 0.54095876 1.5625825
000260 b8 f3 68 3f 9a 73 a2 3e 16 b7 3b 3d 6d 83 03 be
       0.90996885 0.31728822 0.0458289 -0.12843104
000270 5f ef 8e bc c7 de 4c 3e ca 65 2f 3f 8a b9 db 3e
       -0.017448125 0.20006858 0.6851469 0.42914993
000280 06 5f a7 3f 2c 91 9d 3b eb 72 34 3f 59 60 9c be
       1.3075874 0.0048085656 0.7048785 -0.30542257
000290 b8 d9 60 be b4 9e 59 3f 0e 23 7b bf 69 8e 0a bf
       -0.21958053 0.85007787 -0.98100364 -0.5412355
0002a0 54 2c 82 3f 0a 12 79 3d e9 3e 64 bf 65 e2 a5 3e
       1.0169778 0.06080822 -0.89158493 0.32399288
0002b0 d4 19 ac 3e 47 19 b9 3e eb 04 ab 3c c2 37 d7 3f
       0.33613455 0.36152098 0.020876369 1.6813891
0002c0 e1 4f 4f bf d2 df be 3e 46 0b 2d 3f a1 2b a5 3e
       -0.8098126 0.37280136 0.67595327 0.3225985
0002d0 20 bb 4c bf a8 ad 9e 3f cb f8 17 3f 27 66 c5 bf
       -0.7997303 1.2396746 0.59364 -1.54218
0002e0 ff ec 18 3f af 3f b8 3f 5d 30 5f bf a0 b1 ec be
       0.5973663 1.4394435 -0.8718317 -0.46229267
0002f0 69 4e be 3d 53 57 a4 be eb be 5a bf ae 9d 92 be
       0.09292299 -0.32097873 -0.8544757 -0.28635925
000300 f1 7c 8c bf 04 4a 12 bf 88 63 6c be 98 84 03 bf
       -1.0975629 -0.5714419 -0.23084843 -0.51374197
000310 81 5b 4a 3f e1 70 1f be 27 42 2a bf a5 6d 2e bf
       0.79045874 -0.15570404 -0.6650719 -0.68136054
000320 87 b6 34 3f 19 5e ca be 4d 60 79 3f 6f a6 7d 3d
       0.70591015 -0.39524916 0.9741257 0.0619263
000330 0a fa c6 3f c3 ff ac 3f 23 aa 2d bf c0 8a dd bd
       1.5545056 1.3515552 -0.67837733 -0.1081748
000340 60 6e 9c be f8 cc b1 be 65 18 7d be 3a d7 dd be
       -0.3055296 -0.3472669 -0.24716337 -0.43328267
000350 d1 4c 49 be 6d 94 da 3e bf 90 78 bf 47 0a 41 bf
       -0.1965821 0.42691365 -0.97095865 -0.75406307
000360 60 ba 49 bf b4 55 e1 bf bf 9b 50 bf 53 35 e3 3e
       -0.7880001 -1.760428 -0.8148765 0.4437662
000370 1b 34 28 40 25 9f bf bf a3 93 04 3f 2d 45 5e 3f
       2.6281803 -1.4970442 0.51787776 0.86824304
000380 93 fd 05 3d 51 7d ba 3d 81 2e 82 bd 74 e9 e3 3b
       0.03271253 0.091059335 -0.06356526 0.00695532
000390 77 81 45 3f 0a 49 21 be 0a 4d a8 3d 78 db 91 bd
       0.7715067 -0.15750518 0.08217819 -0.071219385
0003a0 75 c8 1c 40 8b 38 e0 be 0a 1b 2c 3f f8 0c 93 bf
       2.449735 -0.4379314 0.6722876 -1.1488333
0003b0 d9 44 26 3f e6 62 a3 bf 86 99 ec 3e 06 bf d0 3e
       0.64948803 -1.2764556 0.4621088 0.4077074
0003c0 0e 0c e7 bf 2c 31 35 3f 52 56 59 3f f2 45 c5 bd
       -1.8050554 0.70778155 0.8489734 -0.09632482
0003d0 b1 7f 92 bc 71 4c 66 bd bb 20 01 c0 76 66 1a 3f
       -0.017883154 -0.056225244 -2.0176227 0.60312593
0003e0 ff bc 81 bd 3a 9f 8b 3e 84 39 86 3e e3 3a b8 3c
       -0.06334876 0.27269918 0.26215756 0.022489017
0003f0 b4 54 e5 bd 78 a1 93 3e c3 f7 77 3e 51 ec d3 be
       -0.111977965 0.28834128 0.24215607 -0.41391233
