onnx/yunet_yunet_final_640_640_simplify.onnx (onnx, 347435 bytes, 86 tensors)

backbone.model0.conv2.conv1.weight f4 [16, 16, 1, 1]
0	0xbe1351bc	-0.14386648
1	0x3e65eca5	0.22453554
2	0xbd4d3c18	-0.050106138
3	0x3e7eea39	0.24894036
4	0xbd4c280f	-0.04984289
5	0x33c51f7d	9.179255e-08
6	0xbe79017a	-0.2431697
7	0xbd984d0e	-0.07436572
8	0xbe735c53	-0.23765688
9	0x3e38f4c5	0.18062122
10	0xbd10a5a8	-0.035314232
11	0x3e4b1d99	0.1983551
12	0xbd91311b	-0.07089444
13	0xbc04806f	-0.008087262
14	0xbe994769	-0.29937294
15	0xbcd6bbac	-0.026212536
16	0x3ee499af	0.446485
17	0xbd81542b	-0.06314882
18	0x3ea538aa	0.32269794
19	0xbdf3e45b	-0.1190879
20	0x3cd097f9	0.025463091
21	0xb40d3d97	-1.3154055e-07
22	0xbea89774	-0.3292805
23	0x3d820f14	0.06350532
24	0x3e1fac97	0.15593182
25	0xbf044bb6	-0.51678026
26	0xbd27e599	-0.040990446
27	0xbe7a66a6	-0.2445322
28	0x3cda4c59	0.026647734
29	0xbc0ff451	-0.008786277
30	0x3e9bdd70	0.3044238
31	0x3ecec264	0.40382683
32	0xbe6eed5f	-0.23332737
33	0xbe0fafd5	-0.14031918
34	0x3e8ef7fe	0.27923578
35	0x3eae2b20	0.34017277
36	0x3dfebb8d	0.12438116
37	0xb4d62699	-3.988869e-07
38	0x3e5b555c	0.21419281
39	0x3d937e87	0.072018676
40	0x3e9fcf5b	0.31212887
41	0x3dead1da	0.11465807
42	0xbe46d809	-0.19418348
43	0xbd9ae185	-0.07562546
44	0x3e353871	0.17697312
45	0x3c35c40a	0.011094103
46	0x3d4e6674	0.050390676
47	0xbdac381e	-0.08409141
48	0xbd4e1f94	-0.050323084
49	0xbb07c319	-0.0020715652
50	0x3d04f576	0.032460652
51	0x3e92c961	0.28669265
52	0x3f41a0a3	0.7563574
53	0x3484185f	2.4604648e-07
54	0x3cb6b584	0.02230335
55	0xbc6eb0e8	-0.014568545
56	0x3e9d471d	0.30718318
57	0x3cf5bc29	0.029996948
58	0xbd8cd84e	-0.06877194
59	0xbc88d669	-0.016703801
60	0xbef5537a	-0.4791525
61	0x3f1fb609	0.6238714
62	0xbd151f40	-0.036406755
63	0x3df5df8f	0.12005531
64	0xbe158fce	-0.14605638
65	0xbd506dc4	-0.05088593
66	0xbc2f7e6d	-0.010711295
67	0xbeed2496	-0.46316975
68	0xbe0b5c4f	-0.13609432
69	0x352f993b	6.541556e-07
70	0xbb65fe37	-0.003509415
71	0xbd1986be	-0.037482016
72	0xbeae4582	-0.34037405
73	0xbdb906d6	-0.09034507
74	0x3ec96f72	0.3934284
75	0x3ded8930	0.11598432
76	0xbf3c7305	-0.73613006
77	0xbe2c3e0e	-0.16820547
78	0xbc14637b	-0.009056921
79	0x3e5dc591	0.21657397
80	0x3ea732a8	0.32655835
81	0x3e67378f	0.22579788
82	0x3e265e3f	0.1624689
83	0xbd6b4c46	-0.057445787
84	0x3d86099f	0.06544804
85	0x34f2523b	4.5135843e-07
86	0xbe9711d3	-0.29505786
87	0x3e8f5503	0.27994546
88	0x3dd06a9e	0.101765856
89	0x3eb4db83	0.35323724
90	0xbd9b93b4	-0.075965315
91	0xbd9b14ea	-0.075723484
92	0xbd927aab	-0.07152303
93	0x3c8e5ae6	0.017377328
94	0xbf0c3d9b	-0.547815
95	0x3edfa5c2	0.4368115
96	0xbe9b2ee5	-0.30309215
97	0xbf26d97d	-0.6517561
98	0xbe75b50b	-0.23994844
99	0xbd3b995c	-0.04580055
100	0x3db76ea8	0.08956653
101	0xb358e188	-5.049654e-08
102	0x3f077201	0.5290833
103	0x3e8c87c2	0.27447325
104	0x3c8c1944	0.017101891
105	0x3e675034	0.22589189
106	0x3d69326e	0.05693286
107	0x3ecb3336	0.39687508
108	0xbd4dcabe	-0.05024218
109	0xbd88be3b	-0.066769086
110	0x3e6ce0a2	0.23132566
111	0x3d97b8a0	0.07408261
112	0xbccfff2a	-0.025390226
113	0xbddec4de	-0.10877393
114	0x3d077277	0.033068147
115	0xbbb9ef56	-0.005674283
116	0xbd4b3ac8	-0.049616605
117	0x34858615	2.4870738e-07
118	0xbd07c54d	-0.033147145
119	0x3e4509c5	0.19242008
120	0x3c35a551	0.011086778
121	0xbf061056	-0.52368677
122	0x3cc49305	0.023995886
123	0xbeb42886	-0.35187167
124	0xbca49ce8	-0.02009435
125	0x3c8d53f9	0.017251955
126	0x3eca874e	0.39556354
127	0xbe0962f5	-0.13416655
128	0x3c4ce244	0.012505118
129	0x3e0b7d7c	0.13622087
130	0x3dd7ed08	0.10543257
131	0xbf03a2eb	-0.5142047
132	0x3dc900a0	0.09814572
133	0x33d545ce	9.931283e-08
134	0xbe2304c0	-0.1591978
135	0xbdcabe4d	-0.09899578
136	0xbece0c20	-0.40243626
137	0xbd7e60da	-0.062104084
138	0x3ead47e8	0.33843923
139	0xbc7ceac6	-0.015436834
140	0xbf16b100	-0.5886383
141	0x3bfa246c	0.0076337364
142	0xbd8674cd	-0.06565247
143	0xbc0be0ce	-0.008537484
144	0xbeb73454	-0.3578211
145	0xbed2bd99	-0.41160277
146	0xbe855271	-0.2603946
147	0x3d65ebac	0.056132957
148	0xbd34741f	-0.044056054
149	0x3449f1c7	1.8807542e-07
150	0x3ed6adc6	0.41929454
151	0x3bc185d3	0.0059058457
152	0x3cdbd51b	0.026835015
153	0xbe71d756	-0.236173
154	0x3ca8386a	0.020534713
155	0x3e2b2705	0.16714104
156	0xbdcdf842	-0.10057117
157	0xbd3de5dc	-0.04636179
158	0x3eb939d6	0.36176938
159	0x3e8031b5	0.25037923
160	0xbd5e6135	-0.054291923
161	0x3d366f79	0.044539902
162	0xbd0c9c8e	-0.03432899
163	0xbdb350d5	-0.08755652
164	0xbec1917f	-0.37806317
165	0x35b191d3	1.3229968e-06
166	0xbdcbedc7	-0.09957462
167	0xbdacab04	-0.08431056
168	0x3d007a9b	0.031366926
169	0xbd81b833	-0.06333961
170	0xbf72f493	-0.9490444
171	0x3c663c90	0.014052525
172	0xbf164399	-0.58696896
173	0xbe9a663d	-0.30156127
174	0xbd364b50	-0.044505417
175	0x3e7eeb71	0.24894501
176	0x3e9fed36	0.31235665
177	0xbd00fd2e	-0.03149145
178	0x3e3af5f5	0.18257888
179	0xbe8e6c9d	-0.2781724
180	0x3d5ad12b	0.053422134
181	0x34bb7250	3.4914638e-07
182	0xbe10c6dc	-0.14138359
183	0xbe479242	-0.19489387
184	0x3e21e59d	0.15810247
185	0xbe117960	-0.14206457
186	0xbc1e80b3	-0.009674239
187	0xbe8c130f	-0.2735829
188	0x3be1d309	0.0068916124
189	0xbd1c65ce	-0.038183026
190	0x3e90aec6	0.28258342
191	0xbd72a5cf	-0.05924016
192	0x3df7fbd9	0.12108583
193	0x3e973761	0.29534438
194	0x3e143cb9	0.14476289
195	0x3e43841c	0.19093364
196	0x3c6ea544	0.01456577
197	0xb4384802	-1.7162532e-07
198	0xbea9f032	-0.33191067
199	0x3de1c3c1	0.11023665
200	0x3bdccfde	0.006738647
201	0x3e18be37	0.14916311
202	0xbd167824	-0.03673567
203	0xbd2da01e	-0.042389028
204	0x3d266483	0.0406232
205	0xbd5749fa	-0.052560784
206	0xbe7b605a	-0.24548474
207	0xbe0cb94c	-0.1374256
208	0xbd8da5d7	-0.06916397
209	0xbd80991c	-0.06279203
210	0xbf16b2cb	-0.58866566
211	0x3d878b91	0.06618417
212	0x3d919707	0.07108884
213	0x3403389c	1.222092e-07
214	0x3cabeedb	0.020987919
215	0x3c54f0c0	0.012996852
216	0xbd276892	-0.04087121
217	0xbb87c8a1	-0.00414379
218	0xbde38a24	-0.111103326
219	0x3e629c08	0.22129834
220	0xbdaa5b5f	-0.08318209
221	0xbbb1a6e8	-0.005421508
222	0x3d6dff33	0.058104705
223	0x3e0bca79	0.13651456
224	0xbccf8172	-0.025330279
225	0xbd411b12	-0.047144957
226	0x3bc448e6	0.0059901355
227	0x3e66d371	0.22541596
228	0xbdf01d08	-0.11724287
229	0x35d314dd	1.5726797e-06
230	0x3c7c259e	0.015389828
231	0x3e31ad23	0.17351203
232	0x3e8ac9fa	0.2710722
233	0x3dc77ddc	0.09740803
234	0x3e6ecb25	0.23319681
235	0x3cfc247e	0.03077912
236	0xbebcd80f	-0.3688359
237	0x3f5edde5	0.87057334
238	0x3d2e9dde	0.042631023
239	0x3e0bc47c	0.13649172
240	0xbeee1808	-0.4650271
241	0xbe7bb6ef	-0.24581502
242	0xbe9adeba	-0.30248052
243	0x3d067548	0.032826692
244	0xbb10ca3b	-0.0022093195
245	0x35b9b6f5	1.3836822e-06
246	0x3ec1c872	0.3784824
247	0x3c1de628	0.009637393
248	0x3c9b627b	0.018967858
249	0x3eaa85f2	0.33305317
250	0x3b3b3414	0.0028564977
251	0x3d8d6d6e	0.06905638
252	0xbe15020c	-0.14551562
253	0x3c35404a	0.011062691
254	0xbec64a9b	-0.38728794
255	0x3e270bc2	0.16313079

backbone.model0.conv2.conv1.bias f4 [16]
0	0x3d5e96f1	0.054343168
1	0x3dbf6e0f	0.09347164
2	0x3ead3750	0.33831263
3	0x3c90a013	0.017654454
4	0x3e7341eb	0.23755614
5	0x3dbecc1c	0.093162745
6	0x3d4b1cae	0.049587898
7	0xbe7b8b99	-0.24564971
8	0xbe0daf2c	-0.13836354
9	0x3e213eac	0.15746564
10	0x3e63d474	0.22249013
11	0x3e8a654b	0.27030405
12	0xbe35cc62	-0.17753747
13	0x3deb2a42	0.114826694
14	0xbe6a2eff	-0.2286949
15	0x3e2f90be	0.17145059

backbone.model1.conv1.conv1.weight f4 [16, 16, 1, 1]
0	0x3dfa86ba	0.12232728
1	0x3e8900a8	0.26758313
2	0x3ea4b05d	0.32165805
3	0x3e4aabb6	0.19792065
4	0x3ea14eb5	0.3150536
5	0x3e83ca4c	0.25740278
6	0x3cd41f13	0.025893724
7	0x3e699dd1	0.22814108
8	0x3daaf873	0.08348169
9	0x3ec8c7d8	0.3921497
10	0xbcd84582	-0.026400331
11	0x3db504db	0.08838817
12	0x3dc2054d	0.09473667
13	0x3e97b230	0.29628134
14	0xbe5ade36	-0.21373829
15	0x3e12aaf8	0.14323032
16	0xbd71b21c	-0.05900775
17	0x3eb17ec7	0.34667036
18	0x3a946754	0.0011322298
19	0xbd64e466	-0.05588188
20	0xbe2b251e	-0.16713378
21	0xbddd9bb6	-0.10820715
22	0x3e74ef66	0.23919448
23	0xbd852d8a	-0.065028265
24	0xbe29b4cd	-0.16572876
25	0x3e64f88e	0.22360441
26	0x3d2dce07	0.04243281
27	0xbee2ea91	-0.44319585
28	0x3cdd183e	0.026989099
29	0xbdc3b199	-0.095553584
30	0x3d3e3ed1	0.046446625
31	0xbf0d50b6	-0.5520128
32	0x3d559a49	0.05214909
33	0xbbc5dd7d	-0.0060383664
34	0xbe14f614	-0.14546996
35	0xbcb93af0	-0.022611111
36	0xbf7cd4e9	-0.98762375
37	0x3e031965	0.12802656
38	0x3baea1a4	0.0053293277
39	0x3e6119fd	0.2198257
40	0x3c85bb4c	0.016324662
41	0xbe59aa14	-0.21256286
42	0x3d830dc6	0.063991114
43	0x3dd96c0d	0.10616312
44	0x3e1e8af7	0.15482698
45	0xbe001aa4	-0.12510163
46	0xbdb1eb4d	-0.08687458
47	0xbdb7859e	-0.08961032
48	0x3c00fa34	0.007872153
49	0xbcb5068c	-0.022097848
50	0xbad42a0a	-0.0016186845
51	0x3cef52a4	0.02921421
52	0xbd613207	-0.05497935
53	0x3ce247b7	0.027622087
54	0xbda8348b	-0.08213147
55	0x3d150e91	0.036390845
56	0x3e3297c2	0.17440704
57	0xbc7cc050	-0.01542671
58	0x3f826ee4	1.0190091
59	0x3cb9c3b5	0.022676328
60	0xbc015893	-0.007894653
61	0xbba6d0a3	-0.0050907894
62	0xbdce249b	-0.10065576
63	0x3d07190e	0.03298288
64	0xbdffdc0e	-0.12493144
65	0x3f06a202	0.52590954
66	0xbdd122b4	-0.10211697
67	0x3e34d27d	0.1765842
68	0x3d05953b	0.03261302
69	0xbef3b2b9	-0.47597292
70	0xbe841784	-0.2579919
71	0xbe7929eb	-0.24332397
72	0x3d3380d7	0.043824043
73	0xbee528d9	-0.44757727
74	0x3dda3b77	0.10655873
75	0x3e75e7b8	0.24014175
76	0xbf0c14c3	-0.5471918
77	0xbd28636d	-0.041110445
78	0xbddb1687	-0.10697656
79	0x3ef9e62f	0.4880843
80	0x3b306803	0.0026917465
81	0xbdf989ab	-0.12184461
82	0xbeced4e0	-0.40396786
83	0xbd42729d	-0.047472585
84	0xbd8cc9a4	-0.068743974
85	0xbe28848e	-0.16456816
86	0xbea664ea	-0.32498866
87	0xbd20616b	-0.039155405
88	0x3dd312bb	0.10306307
89	0xbe14349c	-0.14473194
90	0xbd26b915	-0.04070385
91	0x3cbc5f04	0.022994526
92	0xbdf1010d	-0.117677785
93	0xbe626311	-0.22108103
94	0x3d919548	0.07108551
95	0xbd01b2a2	-0.0316645
96	0xbe00f502	-0.12593463
97	0xbf093fcf	-0.5361299
98	0xbdcfa965	-0.10139731
99	0x3e229bd2	0.15879753
100	0x3c2a7c8e	0.010405673
101	0x3ee76839	0.45196703
102	0xbe200a2c	-0.1562888
103	0xbdcf9fe9	-0.10137922
104	0xbd5cb018	-0.053878874
105	0x3ebf0b74	0.37313426
106	0x3dba709a	0.09103508
107	0xbeddbbd6	-0.4330737
108	0x3eb38bef	0.35067698
109	0xbe000d07	-0.1250497
110	0xbdf23af9	-0.118276544
111	0xbf1b5c0a	-0.60687315
112	0xbf40c981	-0.7530747
113	0xbd0f9276	-0.035051785
114	0x3e8b5999	0.27216795
115	0xbd4026dc	-0.04691206
116	0x3ea3bc85	0.31979766
117	0xbe832eca	-0.25621635
118	0x3e39bb37	0.18137823
119	0xbf169552	-0.58821595
120	0xbd9eb128	-0.077486336
121	0x3e872abc	0.2639979
122	0x3dab77f1	0.083724864
123	0xbed88f0d	-0.4229664
124	0xbe638337	-0.22218023
125	0x3e894e08	0.26817346
126	0xbc4a421f	-0.012344866
127	0x3cc0a8b6	0.023517948
128	0x3a94e78a	0.0011360508
129	0x3d8012bf	0.062535755
130	0x3cc9a370	0.024614066
131	0x3edcd173	0.43128547
132	0x3d661110	0.056168616
133	0x3dc12e4a	0.09432657
134	0xbd612c00	-0.054973602
135	0x3d54432e	0.05182188
136	0xbe216a5e	-0.15763232
137	0x3cc97cef	0.024595706
138	0x3ea28ee3	0.3174964
139	0x3c2499c0	0.0100464225
140	0x3d4bc2d3	0.049746346
141	0x3cab61b0	0.020920604
142	0xbf248984	-0.6427233
143	0x3d3e2498	0.046421617
144	0xbe9e1e73	-0.30882606
145	0xbc7d7df7	-0.015471927
146	0x3f19f7cc	0.60143733
147	0x3da2b233	0.07944145
148	0xbc950e13	-0.018195188
149	0xbdc0c76c	-0.09413037
150	0x3ef3fe68	0.47655034
151	0xbe7c5fd2	-0.24645928
152	0xbe7947aa	-0.24343744
153	0x3d027b6e	0.031855993
154	0xbd784eca	-0.060622014
155	0xbe1c2f79	-0.15252484
156	0xbb821d70	-0.0039707944
157	0x3f123535	0.5711244
158	0x3dbbcc4e	0.091698274
159	0x3d6749be	0.05646681
160	0xbc02ac50	-0.007975653
161	0x3d839f19	0.0642683
162	0xbce83f21	-0.028350415
163	0x3e22ebbc	0.15910238
164	0x3bf657e8	0.0075178035
165	0x3d92e4a4	0.07172516
166	0xbd5f928e	-0.054583125
167	0xbcd9c7d4	-0.026584543
168	0x3e1cd41e	0.15315291
169	0x3c904a68	0.017613605
170	0x3f85bab7	1.0447606
171	0xbc984154	-0.018585838
172	0x3c5e7ba5	0.013579284
173	0xbce15d63	-0.02751035
174	0x3cd2bacc	0.025723837
175	0x3c3be4b7	0.011468104
176	0xbe2c8e66	-0.16851196
177	0xbe030e8c	-0.12798518
178	0xbc8d5b27	-0.017255379
179	0x3d85d11c	0.06534025
180	0x3eae434d	0.3403572
181	0xbe9807be	-0.29693407
182	0xbe30531d	-0.17219205
183	0x3e9a8274	0.30177653
184	0x3eeb1850	0.45916986
185	0x3eb34756	0.35015363
186	0xbdb31587	-0.087443404
187	0xbe4e7f8a	-0.2016584
188	0x3eceae98	0.4036758
189	0x3ce616e7	0.028087093
190	0xbcba7ee0	-0.022765577
191	0xbe4623af	-0.1934955
192	0x3d35b86d	0.044365335
193	0xbe186a3d	-0.14884277
194	0x3d8afb4d	0.06786213
195	0xbf7019c1	-0.937893
196	0xbddd0b98	-0.10793227
197	0xbe525f73	-0.20544223
198	0x3de53f1b	0.11193677
199	0x3d73158a	0.059346713
200	0x3d7c2145	0.061555166
201	0x3c14a04c	0.009071421
202	0xbd72f7d5	-0.059318382
203	0x3d616be2	0.055034526
204	0xbceb7f89	-0.028747337
205	0x3dfa90a4	0.12234619
206	0xbf5ad761	-0.8548489
207	0xbbd20a7a	-0.0064099403
208	0xbdd1172d	-0.102094986
209	0x3e498b9c	0.19682163
210	0x3d2c6859	0.0420917
211	0x3e196b26	0.1498228
212	0xbebc5341	-0.36782268
213	0x3d289466	0.04115715
214	0xbf09e2a7	-0.5386147
215	0x3e4f8882	0.20266917
216	0xbd1b425f	-0.037905093
217	0xbe99e73e	-0.30059236
218	0x3df1b609	0.118022986
219	0x3e293fdd	0.16528268
220	0x3dc85c56	0.09783237
221	0x3e138fc6	0.14410314
222	0x3e0382b4	0.12842828
223	0xbc057ee8	-0.008147933
224	0xbb1fb541	-0.002436951
225	0xbc9a948c	-0.01886966
226	0x3cbe74df	0.023249088
227	0x3d88ffe3	0.066894315
228	0x3dbfd56a	0.093668774
229	0x3d79818c	0.06091456
230	0x3ca763f3	0.020433402
231	0xbcbe167e	-0.023204084
232	0x3f754d50	0.95821095
233	0xbd8b9aa2	-0.06816603
234	0xbe17ade0	-0.14812422
235	0x3c71dd41	0.014762224
236	0x3d0d5bfa	0.034511544
237	0x3d9a6685	0.07539085
238	0xbd202059	-0.03909335
239	0x3c60f84b	0.013731073
240	0xbcc9e1b5	-0.024643758
241	0xbba2fb21	-0.0049737846
242	0xbc1a4340	-0.009415448
243	0x3d5c9ba3	0.053859364
244	0xba9dd6a6	-0.001204212
245	0x3a7e1580	0.0009692535
246	0xb82943d2	-4.0355902e-05
247	0xbb9c9860	-0.0047789067
248	0x3f6d721a	0.9275223
249	0x3c218afc	0.009859797
250	0xbe7c37a6	-0.24630603
251	0x3d5c4afd	0.053782452
252	0xbb749892	-0.0037322384
253	0x3cfec077	0.031097634
254	0xbd3d2492	-0.046177454
255	0xbd0ecc12	-0.034862585

backbone.model1.conv1.conv1.bias f4 [16]
0	0xbe57292d	-0.21011801
1	0xbdccac00	-0.09993744
2	0xbcbe6849	-0.023243086
3	0xbf05d585	-0.5227893
4	0xbcc396a8	-0.02387555
5	0x3e85f3c3	0.26162538
6	0xbda6a3fe	-0.08136748
7	0x3da747ae	0.08167969
8	0x3e031bdb	0.12803595
9	0x3ce26aeb	0.027638873
10	0xbf2a7a49	-0.6659284
11	0xbdb64d7f	-0.089015
12	0x3c5e7fde	0.013580291
13	0x3e1ebae1	0.15500976
14	0xbf5276ba	-0.8221241
15	0xbf1d6700	-0.6148529

backbone.model1.conv2.conv1.weight f4 [64, 16, 1, 1]
0	0x3ee93503	0.45548257
1	0xbe3e82ee	-0.18604633
2	0xbda3a6bc	-0.079907864
3	0x3d82bdae	0.06383835
4	0xbe7b51f2	-0.24542978
5	0xbe9d9650	-0.30778742
6	0xbdd5857c	-0.10425851
7	0xbe5d0931	-0.21585537
8	0x3d7dbb36	0.061946116
9	0xbe10bec3	-0.1413527
10	0x3d40da70	0.04708332
11	0x3d98257f	0.07429027
12	0xbd05f703	-0.03270627
13	0xbd27c485	-0.0409589
14	0xbc7047a0	-0.014665514
15	0x3d4b6bca	0.049663343
16	0x3df518bb	0.119676076
17	0x3d9ab075	0.07553188
18	0x3d45df84	0.048308864
19	0xbefa1716	-0.48845738
20	0x3d94ed04	0.0727177
21	0x3ccbc665	0.024874875
22	0x3dcd3e6a	0.1002167
23	0x3c855b54	0.0162789
24	0x3ece319e	0.4027223
25	0xbd930869	-0.071793385
26	0x3ee713b8	0.45132232
27	0x3ddba239	0.10724301
28	0xbe6a05b8	-0.22853744
29	0xbd469a8f	-0.048487242
30	0xbc8c50f1	-0.01712844
31	0xbd7edf74	-0.06222482
32	0x3e9b0e69	0.30284432
33	0xbc83a4fb	-0.01606988
34	0xbe12d1d7	-0.1433786
35	0xbc308e26	-0.010776078
36	0x3d3a8d0d	0.045544673
37	0x3dd87b96	0.10570447
38	0xbe0d1ac0	-0.13779736
39	0xbe7289ce	-0.23685381
40	0xbd736f23	-0.05943216
41	0xbda3d464	-0.07999495
42	0x3e98c7ee	0.29840034
43	0xbdba17f5	-0.09086601
44	0xbd954afc	-0.07289693
45	0xbdd55149	-0.104158945
46	0xbeb4f87f	-0.35345837
47	0x3b68d98c	0.0035530059
48	0xbdadf039	-0.084930845
49	0xbe91911b	-0.2843102
50	0xbabe179c	-0.0014502886
51	0xbc5bea1b	-0.013422514
52	0x3f07ff21	0.5312367
53	0xbe821491	-0.25406316
54	0xbf16e694	-0.58945584
55	0x3d18fb64	0.03734912
56	0xbc22585c	-0.009908762
57	0xbdcd798c	-0.10032949
58	0xbbce1b6f	-0.0062898914
59	0x3d5766ab	0.052588146
60	0x3d1cf424	0.03831877
61	0xbc96589e	-0.018352803
62	0x3e3b3e04	0.18285376
63	0xbd5dc19e	-0.054139726
64	0xbdf51c81	-0.11968327
65	0x3e090cd8	0.13383806
66	0xbe0f337a	-0.1398448
67	0x3e978306	0.2959215
68	0xbcd0b2e6	-0.02547593
69	0xbd4c09c8	-0.049814016
70	0xba743653	-0.0009315956
71	0x3d85babb	0.06529757
72	0x3f36ba61	0.7137814
73	0x3e1086af	0.14113878
74	0xbdeaae17	-0.11458986
75	0x3d6b423f	0.057436224
76	0xbca783ac	-0.020448528
77	0xbdb6b068	-0.089203656
78	0xbe89af05	-0.26891342
79	0xbd0cb2ad	-0.034350086
80	0xbdc12819	-0.09431476
81	0xbe3d016a	-0.1845757
82	0xbe140608	-0.14455426
83	0x3da65b1b	0.08122846
84	0x3e04fb7f	0.12986563
85	0x3dbbde26	0.09173231
86	0xbe03ada8	-0.12859213
87	0xbe1e6fb5	-0.154723
88	0x3bdb6084	0.006694855
89	0x3e79e0ab	0.2440211
90	0xbd299a16	-0.041406713
91	0x3e52c90a	0.20584503
92	0xbd80308a	-0.06259258
93	0xbe56928a	-0.20954338
94	0xbe3c79c9	-0.18405832
95	0x3e499119	0.19684257
96	0xbeffe969	-0.49982765
97	0xbda3cb91	-0.079978116
98	0x3cd14c62	0.025549117
99	0x3e262a28	0.16227019
100	0x3e2df221	0.16986896
101	0xbe9dd81f	-0.3082895
102	0x3e43bb4e	0.1911442
103	0x3d8d73ec	0.06906876
104	0xbd1718bd	-0.036888827
105	0x3e244509	0.1604196
106	0xbdbe5ae4	-0.0929468
107	0x3d235f62	0.039885886
108	0xbe001bad	-0.12510557
109	0x3c61af29	0.013774672
110	0x3d61dd9a	0.055142976
111	0x3e137dc5	0.14403446
112	0x3d208454	0.039188698
113	0xbd813a9d	-0.06310008
114	0xbec4fa88	-0.3847239
115	0xbc3207e6	-0.010866141
116	0x3e0e63e3	0.13905291
117	0xbc569500	-0.013097048
118	0x3e4fcd68	0.202932
119	0x3c35fa10	0.011106983
120	0xbe2568c1	-0.16153242
121	0x3e8e4f93	0.27795085
122	0xbc315509	-0.010823497
123	0xbd143319	-0.036181543
124	0x3e04a845	0.12954815
125	0xbe5f6948	-0.21817505
126	0x3e83ebef	0.2576594
127	0xbe42cba2	-0.19022992
128	0xbdb9f3e2	-0.0907972
129	0x3e300313	0.17188673
130	0xbdccf5df	-0.10007834
131	0xbd3c084a	-0.045906343
132	0x3e2bd1c5	0.1677924
133	0xbc81722f	-0.015801517
134	0x3b9518e7	0.0045500877
135	0x3e433a29	0.19065155
136	0xbd0bff97	-0.034179296
137	0xbe207f37	-0.15673529
138	0xbccf4897	-0.025303168
139	0xbe8eec1f	-0.2791452
140	0x3decc1f0	0.11560428
141	0x3c57de7d	0.013175604
142	0x3e6051b0	0.21906161
143	0xbf1a2500	-0.6021271
144	0xbeacf755	-0.3378245
145	0xbd475134	-0.048661426
146	0x3d5e5e94	0.054289415
147	0x3cf06c7f	0.02934861
148	0x3e9bfc2d	0.30465832
149	0xbd935335	-0.07193605
150	0xbe7a0ca5	-0.24418886
151	0x3e500a1e	0.2031636
152	0x3cbd9413	0.023141896
153	0xbe0ba478	-0.13636959
154	0xbc8fde0a	-0.017561931
155	0x3a80810a	0.0009804082
156	0x3d85bb76	0.06529896
157	0x3c53a5ef	0.01291798
158	0xbe2f5a29	-0.17124237
159	0xbc3cd652	-0.011525707
160	0xbe171d37	-0.14757238
161	0xbcea50d0	-0.028602988
162	0xbdc51fcc	-0.096252054
163	0x3da4b64d	0.080425836
164	0xbde3f0b5	-0.111298956
165	0xbcbc4133	-0.022980308
166	0x3e9dfb77	0.30855915
167	0x3ea406d2	0.32036453
168	0xbc6526d7	-0.013986311
169	0xbe5abae5	-0.21360357
170	0xbc850e08	-0.016242042
171	0xbccd965e	-0.025096115
172	0x3d4fdca5	0.050747532
173	0x3d447b5e	0.047969215
174	0xbd846429	-0.064644165
175	0x3db86ad1	0.090047486
176	0xbc959300	-0.018258572
177	0x3e57d818	0.21078527
178	0xbcfd3bb2	-0.030912254
179	0x3dc4452a	0.095835045
180	0x3da5f649	0.08103616
181	0x3de25d4f	0.110529535
182	0xbd9664f7	-0.07343476
183	0xbe0bbe66	-0.1364685
184	0x3d376ecf	0.04478341
185	0x3dda857a	0.1066999
186	0xbd3b5180	-0.04573202
187	0xbe074a0e	-0.13211843
188	0x3d398a2e	0.045297794
189	0x3d822a5b	0.06355735
190	0x3e1d724d	0.15375634
191	0xbe88c876	-0.2671544
192	0xbd556537	-0.05209848
193	0x3e88955e	0.26676458
194	0x3a2f088d	0.00066769944
195	0x3c8876a0	0.016658127
196	0x3ec3d812	0.38250786
197	0x3e26467d	0.16237827
198	0xbe6efcb7	-0.2333859
199	0x3d2ef43e	0.042713396
200	0xbd0fb09a	-0.03508053
201	0xbe1ea8f1	-0.15494134
202	0xbd42d817	-0.04756936
203	0x3d1803ae	0.037112884
204	0x3bd860a2	0.0066033164
205	0x3c43f368	0.011959888
206	0xbe437304	-0.19086844
207	0xbe61a7c3	-0.22036652
208	0xbe97bd03	-0.29636392
209	0x3ded2962	0.11580159
210	0x3e8cc796	0.27496022
211	0xbe47a5b5	-0.19496806
212	0xbdd0d7e3	-0.10197427
213	0x3d186cd8	0.037213176
214	0xbd2fce7b	-0.042921524
215	0xbdebb4e4	-0.115091115
216	0xbdde87ba	-0.108657315
217	0xbd5ad443	-0.053425085
218	0xbcffa933	-0.03120861
219	0x3e3d89a3	0.18509535
220	0x3dae3869	0.08506853
221	0x3cd186b9	0.025576936
222	0x3d55bf2d	0.052184273
223	0xbd84c37b	-0.064825974
224	0xbccb0e27	-0.024787022
225	0xbdde7e15	-0.10863892
226	0xbe5c4500	-0.21510696
227	0x3b0b6836	0.0021271831
228	0xbd8c61b8	-0.06854576
229	0xbe6c448b	-0.23073022
230	0xbecf0764	-0.40435326
231	0x3d174fa4	0.036941186
232	0x3d4d05d2	0.05005438
233	0xbec9a890	-0.39386415
234	0xbe126a2d	-0.14298315
235	0xbdcf8658	-0.10133046
236	0x3e4340f7	0.19067751
237	0xbebe72df	-0.37197015
238	0x3d424519	0.047429178
239	0x3db803a5	0.0898507
240	0xbe8186fc	-0.25298297
241	0x3e21448c	0.15748805
242	0x3bd829bc	0.006596772
243	0x3caf6697	0.021411223
244	0x3df86aa7	0.12129717
245	0x3c6675fc	0.014066216
246	0x3d3a83bf	0.0455358
247	0x3dc8b672	0.09800424
248	0x3d18cfb0	0.03730744
249	0xbe15b076	-0.14618096
250	0xbd832c24	-0.064049035
251	0x3ecc3d9b	0.3989075
252	0x3da417f9	0.08012385
253	0x3e0bfdb8	0.13671005
254	0xbe83a62e	-0.25712723
255	0x3c59ad7b	0.01328599

backbone.model1.conv2.conv1.bias f4 [64]
0	0x3d9a0ad5	0.07521597
1	0xbdd1ed2c	-0.10250315
2	0xbcbac410	-0.022798568
3	0x3d8342b3	0.06409206
4	0xbd0e4e66	-0.034742735
5	0xbe286bfb	-0.16447441
6	0x3dc4a8f5	0.096025385
7	0xbada9445	-0.0016676268
8	0xbdb88ed9	-0.09011621
9	0x3d54c3d5	0.051944572
10	0x3d1c67bc	0.038184866
11	0xbe9fa2af	-0.31178805
12	0x3ddaaaa5	0.10677079
13	0xbdbbfcb9	-0.091790624
14	0x3d0c31b6	0.034227096
15	0x3dc27646	0.09495215
16	0x3d0a585d	0.033775676
17	0xbbd9b2f7	-0.0066436487
18	0x3e583ad9	0.21116199
19	0x3b886702	0.00416267
20	0x3dace0f3	0.08441343
21	0xbd6e01a0	-0.05810702
22	0xbdf8b808	-0.12144476
23	0xbdd424f4	-0.10358611
24	0x3dbf76f7	0.093488626
25	0xbc97279e	-0.018451508
26	0x3e819058	0.25305438
27	0xbd0975f5	-0.03355976
28	0xbd1cd470	-0.038288534
29	0x3e72060b	0.23635118
30	0x3c87c009	0.016571062
31	0x3d1aff47	0.037841108
32	0xbe22c831	-0.1589668
33	0x3dd329e1	0.10310722
34	0xbd903cf1	-0.07042874
35	0xbe2a0d47	-0.16606627
36	0xbda8e345	-0.08246473
37	0x3e466cda	0.19377461
38	0xbd713ad3	-0.05889399
39	0x3d2871a8	0.041124016
40	0xbb580e18	-0.0032967385
41	0xbdf79f5a	-0.12090941
42	0xbcbb075b	-0.022830656
43	0xbda36c64	-0.07979658
44	0xbcda02e1	-0.0266127
45	0xbea0f732	-0.31438595
46	0x3e307758	0.17233026
47	0x3c4f441d	0.012650517
48	0xbe44c5bf	-0.19216059
49	0xbe7076f3	-0.23482876
50	0xbd687862	-0.05675543
51	0x3d2ff5a5	0.042958874
52	0x3d72560c	0.059164092
53	0x3b9d867c	0.0048072916
54	0x3e093c54	0.1340192
55	0x3d0d12cb	0.03444175
56	0x3dce12a7	0.100621514
57	0x3d82418b	0.063601576
58	0x3defdfa4	0.11712578
59	0x3ea825d0	0.3284135
60	0xbe1243c5	-0.14283665
61	0xbd7d34b8	-0.061817855
62	0xbdb4db78	-0.08830923
63	0xbeaa8ba1	-0.33309653

backbone.model2.conv1.conv1.weight f4 [64, 64, 1, 1]
0	0x3c6c0b57	0.0144070005
1	0x3af93918	0.0019014208
2	0x3c179ce3	0.009253713
3	0x3e0ec0f9	0.139408
4	0xbdaeab67	-0.08528786
5	0x3e5cb0e2	0.2155185
6	0x3c8fce79	0.017554509
7	0xbe58b0ae	-0.21161148
8	0xbd94830d	-0.072515585
9	0x3e482879	0.19546689
10	0xbe0a7970	-0.13522887
11	0x3dbe69c1	0.09297515
12	0xbd5944bb	-0.053044062
13	0x3c03bc41	0.008040489
14	0xbd2bffca	-0.041991986
15	0x3d663ce9	0.056210432
16	0x3d6fd3db	0.05855165
17	0x3e459466	0.19294891
18	0x3e23fc41	0.16014196
19	0x3c31e54e	0.010857893
20	0xbbef2e7c	-0.0072992425
21	0xbd9c2768	-0.07624704
22	0xbe002c54	-0.1251691
23	0x3dedbfcf	0.1160885
24	0xbb4d5e10	-0.0031336583
25	0x3e2f2ce6	0.17106971
26	0x3d4a6b34	0.049418643
27	0x3dd37555	0.10325114
28	0x3d750b02	0.05982495
29	0xbdff59b5	-0.12468282
30	0xbd01945d	-0.03163563
31	0xbda43370	-0.080176234
32	0xbd965e40	-0.073421955
33	0xbd14c19b	-0.03631745
34	0x3bc97cff	0.006148934
35	0x3d150642	0.03638292
36	0x3e912f1e	0.2835626
37	0xbcb617cf	-0.02222815
38	0xbd8ab4b3	-0.06772747
39	0x3d3d7c9d	0.04626142
40	0xbdd08532	-0.10181655
41	0xbd1f6516	-0.038914762
42	0x3e4900e6	0.19629249
43	0xbdd9c345	-0.10632948
44	0xbd3c285f	-0.04593694
45	0x3c3e24b8	0.011605434
46	0x3e0d87fe	0.13821408
47	0x3ba1d1cb	0.0049383393
48	0xbc99c675	-0.01877139
49	0x3c015926	0.00789479
50	0x3d9cdefe	0.0765972
51	0xbe32ecec	-0.17473191
52	0x3df5e81f	0.12007164
53	0x3db9c42e	0.090706214
54	0x3d8afa38	0.06786007
55	0xbe97a7d9	-0.29620245
56	0xbda7d255	-0.081944145
57	0x3e6f0dd5	0.2334512
58	0x3e41d8da	0.18930379
59	0x3cb1464f	0.021639971
60	0x3e74160d	0.23836537
61	0xbd4399cc	-0.047754094
62	0x3d93241a	0.0718462
63	0x3da16b84	0.07881835
64	0xbcd90a5e	-0.026494201
65	0xbc4fc4b2	-0.012681173
66	0xbbc467f1	-0.005993836
67	0xbde3cab5	-0.11122648
68	0xbc895a3f	-0.016766666
69	0xbde751db	-0.112949096
70	0x3e476cfb	0.19475166
71	0x3d2bdcba	0.041958548
72	0xbea55864	-0.32294
73	0x3e3e11f0	0.1856153
74	0x3dd1fc39	0.10253186
75	0x3ddd8a76	0.10817425
76	0xbcab8cc7	-0.020941151
77	0x3c2199fa	0.009863371
78	0xbe25df3d	-0.1619844
79	0x3d0f34c8	0.034962445
80	0xbdcb6df5	-0.09933082
81	0x3ed7eea6	0.42174262
82	0xbdbc9602	-0.09208299
83	0x3d351462	0.04420889
84	0xbb8f1ffc	-0.0043678265
85	0xbe3c9603	-0.184166
86	0x3dc22aa9	0.09480793
87	0x3da0906e	0.07840048
88	0xbbb953e2	-0.0056557516
89	0x3b9e7de6	0.0048367856
90	0xbd4f8c00	-0.050670624
91	0xbd0bc8e8	-0.034127146
92	0xbd3ec7d8	-0.046577305
93	0x3d35e967	0.044412043
94	0x3d93966b	0.07206424
95	0xbe09005f	-0.13379048
96	0xbe54926d	-0.20758982
97	0xbc4ae8f7	-0.012384645
98	0x3b88c785	0.004174175
99	0x3deb6868	0.11494523
100	0x3dc82b9c	0.09773943
101	0x3d13fbb5	0.03612872
102	0xbccf7f18	-0.025329158
103	0x3db4f0c8	0.08834988
104	0xbc06157f	-0.008183836
105	0x3d4f81d2	0.050660916
106	0x3e73abd7	0.2379602
107	0xbdbca08c	-0.092103094
108	0x3d69d9c4	0.057092443
109	0xbd0fc984	-0.03510429
110	0xbd16ec7a	-0.036846615
111	0xbe13ba5f	-0.14426564
112	0x3d5a1e93	0.053251814
113	0xbdd236fc	-0.10264394
114	0xbdd2c8a9	-0.10292179
115	0x3c7cf9ec	0.015440445
116	0xbcca4174	-0.024689414
117	0xbe109c0e	-0.1412203
118	0xbd281770	-0.041037977
119	0xbe5e8592	-0.2173064
120	0xbc6c60bc	-0.01442736
121	0x3d4094f5	0.047017056
122	0xbbc3c656	-0.005974571
123	0x3c750931	0.014955805
124	0xbb850f3b	-0.0040606535
125	0x3a1e9824	0.00060498924
126	0x3dd1067e	0.102063164
127	0xbbfd145a	-0.0077233734
128	0x3d792a68	0.060831457
129	0x3d134320	0.035952687
130	0xbe47ad5e	-0.19499728
131	0x3e217456	0.15767035
132	0x3a54ffc3	0.00081252697
133	0x3ceabdc8	0.028654948
134	0x3db2f840	0.08738756
135	0xbc10f321	-0.008847029
136	0xbd13cced	-0.036084104
137	0x3d439cc4	0.047756925
138	0x3dd9fc7f	0.10643863
139	0x3e04aa8e	0.12955686
140	0xbd9fa445	-0.07795004
141	0xbd417c9b	-0.047237974
142	0xbd392348	-0.045199662
143	0x3cd33d61	0.025786104
144	0x3e885530	0.26627493
145	0xbd89d9e1	-0.0673101
146	0xbd1e8be4	-0.03870763
147	0x3c281b2a	0.010260383
148	0xbe0db3b3	-0.13838081
149	0x3e93c21b	0.28859028
150	0x3cbb1bb6	0.022840362
151	0x3b63324b	0.0034667428
152	0xbc183168	-0.009289123
153	0xbde1652d	-0.11005626
154	0x3e00f5f2	0.1259382
155	0x3de9ae46	0.11410193
156	0x3e2fb2ff	0.17158125
157	0xbe3e6c15	-0.18595918
158	0xbcd3191a	-0.025768805
159	0xbd84e027	-0.06488066
160	0xbe76fff0	-0.2412107
161	0xbd3c5bd3	-0.045986008
162	0xbd3562ce	-0.04428368
163	0x3e2415c0	0.16023922
164	0x3e6d6965	0.23184736
165	0x3e1a823f	0.15088747
166	0x3cfc9a41	0.030835273
167	0xbe572609	-0.21010603
168	0x3ce9e90d	0.02855351
169	0xbe1ae9f8	-0.15128314
170	0x3d2bc9f2	0.041940637
171	0xbe085e38	-0.13317192
172	0x3e06a10c	0.13147372
173	0xbc7a7484	-0.015286569
174	0x3ce8a9b2	0.02840123
175	0xbe3a5b73	-0.18198948
176	0xbc747058	-0.014919363
177	0x3c356149	0.011070558
178	0xbdd2cf4b	-0.10293444
179	0x3d96afc2	0.07357742
180	0x3cd66cf0	0.026174992
181	0xbd273884	-0.040825382
182	0x3e519b1f	0.2046933
183	0x3e201028	0.15631163
184	0xbde446ae	-0.111462936
185	0x3dc2f633	0.09519615
186	0xbc2d62ab	-0.010582606
187	0x3e2dea3a	0.16983882
188	0x3e14d2e1	0.14533569
189	0x3e668807	0.22512828
190	0x3e0d8887	0.13821612
191	0x3d088b6a	0.03333608
192	0xbe0bef79	-0.1366557
193	0xbdfce60e	-0.12348567
194	0x3aba4f37	0.0014214282
195	0xbe4dfd8d	-0.20116253
196	0xbe207cf1	-0.15672661
197	0x3d42d5e2	0.047567256
198	0x3d513258	0.051073402
199	0x3da12637	0.07868617
200	0xbc18ae44	-0.009318892
201	0xbe1e39b2	-0.15451697
202	0xbe0b63dc	-0.13612312
203	0x3c6e9816	0.014562627
204	0xbdc49b5d	-0.09599946
205	0xbd665139	-0.056229804
206	0x3e3397c9	0.1753837
207	0xbe5fad87	-0.21843539
208	0x3def10ea	0.11673148
209	0xbe3e6153	-0.18591814
210	0xbcc7db24	-0.024396487
211	0xbc956f2c	-0.018241487
212	0xbcf04bbc	-0.029332988
213	0x3cf7ddee	0.030257192
214	0xbe55e933	-0.2088974
215	0x3d0a29c4	0.033731237
216	0x3d06c130	0.03289908
217	0x3dbf439c	0.09339067
218	0xbdbf78ea	-0.093492344
219	0x3d59f5e1	0.053213004
220	0xbd66901d	-0.05628978
221	0xbe0467fc	-0.12930292
222	0xbe177afb	-0.14793007
223	0xbdd1c7c1	-0.10243178
224	0xbe27cb70	-0.16386199
225	0xbdafc8e6	-0.0858324
226	0x3d23737f	0.039905068
227	0x3cb3b157	0.021935148
228	0x3d871a2a	0.06596787
229	0xbd5d7dd5	-0.05407508
230	0xbd8bc866	-0.06825332
231	0xbe02f91a	-0.12790337
232	0x3d0c3129	0.03422657
233	0xbc85a77e	-0.016315218
234	0xbd84c065	-0.06482009
235	0x3cf7d34b	0.03025212
236	0xbe335f18	-0.17516744
237	0xbdd09cc3	-0.1018615
238	0xbe3b4a7e	-0.18290135
239	0x3d9be304	0.07611659
240	0x3b260ddb	0.0025337848
241	0xbe08e2dd	-0.13367791
242	0xbb16e93e	-0.0023027207
243	0x3e1cfa84	0.15329939
244	0x3e0e4856	0.13894781
245	0xbdc19fa6	-0.09454279
246	0xbd28bc11	-0.04119498
247	0x3e09c262	0.13453057
248	0x3e040953	0.12894182
249	0xbd2b60ef	-0.04184049
250	0x3e85742c	0.26065195
251	0xbd3b7eac	-0.0457751
252	0xbca644a9	-0.020296412
253	0xbd4cc3fa	-0.049991585
254	0xbb82af93	-0.0039882152
255	0xbd5e1c9c	-0.054226503

backbone.model2.conv1.conv1.bias f4 [64]
0	0x3d9a84a0	0.075448275
1	0xbd89d837	-0.06730693
2	0xbd01f185	-0.03172447
3	0x3dfed169	0.124422856
4	0xbc33854b	-0.0109570725
5	0x3d2f5efc	0.042815194
6	0xbd659888	-0.05605367
7	0x3d6b3c8b	0.057430785
8	0xbe667b65	-0.22508009
9	0xbd469709	-0.048483882
10	0x3c9bfbf4	0.019041039
11	0x3d634dd5	0.05549415
12	0x3b739259	0.0037166087
13	0x3da4628d	0.080266096
14	0x3e371e82	0.17882732
15	0xbdbd61fd	-0.092472054
16	0xbdc81103	-0.0976887
17	0xb9dfdffd	-0.0004270076
18	0xbdd06ace	-0.101766214
19	0x3ea5012f	0.32227466
20	0xbc61fd9d	-0.013793376
21	0x3c69096f	0.014223441
22	0x3e83df15	0.25756136
23	0x3e8cb14f	0.27479026
24	0xbdca6175	-0.0988187
25	0x3b95662a	0.004559298
26	0x3e50915e	0.20367953
27	0x3dd8876a	0.10572703
28	0x3dd70fed	0.105010845
29	0x3eccce38	0.40001082
30	0x3e6d08d6	0.23147902
31	0x3ccf7d2a	0.025328238
32	0xbe8c16f5	-0.27361265
33	0xbe7da501	-0.24769975
34	0xbd0bad70	-0.03410095
35	0xbdf516e2	-0.11967255
36	0xbadf58be	-0.0017039997
37	0x3d0713a9	0.032977734
38	0x3d098a83	0.03357936
39	0xbd162ec7	-0.036665704
40	0x3e3ee0d5	0.18640454
41	0xbe0b9692	-0.13631657
42	0xbe853aa4	-0.26021302
43	0x3e1afc0e	0.15135214
44	0xbd670431	-0.05640048
45	0xbd51cc11	-0.051220004
46	0xbdf1aac9	-0.11800153
47	0x3d997d48	0.074945986
48	0xbbb64bad	-0.0055632205
49	0x3e138e01	0.14409639
50	0xbc9dbc3c	-0.019254796
51	0x3cb31365	0.021859834
52	0x3e6c5eb3	0.23083
53	0xbd06c69a	-0.032904245
54	0xbcec80ba	-0.028869975
55	0xbd56f6a1	-0.052481297
56	0xbb3c6478	-0.0028746407
57	0x3d58a1f2	0.052888818
58	0x3d18d2e7	0.037310507
59	0xbd864a08	-0.06557089
60	0xbce5a1bd	-0.028031224
61	0x3ca2b7a9	0.019862967
62	0xbd8f68cf	-0.070024125
63	0x3cc158f7	0.023601992

backbone.model2.conv2.conv1.weight f4 [64, 64, 1, 1]
0	0xbd078c23	-0.03309263
1	0xbc90b2ea	-0.017663438
2	0xbd4c3b0c	-0.049861
3	0x3bb6f6e0	0.005583629
4	0x3e1b132f	0.15144037
5	0x3dc562c4	0.09637979
6	0xbe352fbc	-0.1769399
7	0xbaf32b42	-0.001855232
8	0x3dc380ca	0.09546049
9	0xbdd1e98a	-0.10249622
10	0xbd63a44d	-0.05557661
11	0x3d24e0bc	0.040253386
12	0xbd1da4f3	-0.038487386
13	0x3aa05d31	0.0012234804
14	0x3c241892	0.010015624
15	0x3d9a3b2a	0.07530816
16	0x38d08e0b	9.9446705e-05
17	0xbd6f3e31	-0.05840892
18	0xbe21f2d0	-0.15815282
19	0x3e93ade4	0.28843606
20	0x3e1666e8	0.14687693
21	0x3ddfbd40	0.109247684
22	0x3dcaac8f	0.09896194
23	0x3dd5add7	0.10433548
24	0x3ddec41f	0.10877251
25	0x3dab1eb6	0.08355467
26	0x3d6e3a13	0.058160853
27	0x3d8986bf	0.06715154
28	0xbd9cd31d	-0.07657454
29	0x3db85569	0.09000666
30	0xbe46b172	-0.19403628
31	0x3c1093f3	0.008824336
32	0x3ac12583	0.0014735911
33	0xbd14012a	-0.036133923
34	0x3b476c4e	0.0030429545
35	0xbc2e839c	-0.010651495
36	0xbd3b865b	-0.04578243
37	0x3c9f42a8	0.019440964
38	0xbd19d4b8	-0.03755638
39	0xbddfa762	-0.109205976
40	0xbc3e6952	-0.01162179
41	0xbce7bf6d	-0.028289521
42	0xbb3f23ec	-0.0029165698
43	0x3e7ed586	0.2488614
44	0x3cd381c0	0.025818706
45	0xbe16d77c	-0.14730638
46	0xbcc2085f	-0.023685632
47	0xbc43dc46	-0.011954373
48	0x3d84981f	0.06474327
49	0x3c7a6336	0.015282443
50	0x3d390764	0.045173064
51	0x3dd636d4	0.104596764
52	0x3e07cd63	0.13261943
53	0x3e602219	0.21888007
54	0x3e2fb8a8	0.17160285
55	0x3dedead6	0.11617057
56	0xbdd250f1	-0.102693446
57	0x3df08d9f	0.11745762
58	0xbd39bb96	-0.04534491
59	0x3da6d250	0.08145583
60	0x3dfbf3cd	0.12302361
61	0x3da90dfa	0.08254619
62	0xbd45561f	-0.048177835
63	0x3d8fd80b	0.07023629
64	0xbdf03efc	-0.11730763
65	0xbd90641a	-0.07050343
66	0x3e411871	0.1885698
67	0xbd505650	-0.050863564
68	0x3e08b94a	0.13351932
69	0x3de6503d	0.11245773
70	0x3dd048b3	0.10170116
71	0xbcb5bc53	-0.022184527
72	0x3d0bb254	0.034105614
73	0xbdbda8c5	-0.09260706
74	0x3de07878	0.109604776
75	0x3dcf1a71	0.10112465
76	0xbe11fda8	-0.14256918
77	0x3d0acc9c	0.033886537
78	0x3e0bf471	0.13667466
79	0x3d064ff8	0.032791108
80	0x3e44d29e	0.19220969
81	0x3e13eb67	0.14445268
82	0xbe1ff32c	-0.15620106
83	0x3d65b6af	0.056082424
84	0x3e093cfb	0.13402168
85	0xbced73f6	-0.028985959
86	0x3eb468bd	0.3523616
87	0xbd24d1c7	-0.04023912
88	0x3d95da1a	0.0731699
89	0xbd9112c1	-0.07083655
90	0xbe45826e	-0.19288036
91	0xbe2992e7	-0.16559945
92	0x3dd465cd	0.103709795
93	0x3e692cb3	0.22770958
94	0xbe2c56a6	-0.16829929
95	0x3d8cee7c	0.06881425
96	0xbe813bfd	-0.2524108
97	0x3cfba1dd	0.03071683
98	0x3d37d25f	0.04487836
99	0xbde59dfc	-0.11211774
100	0xbd5120b3	-0.051056575
101	0xbd46b175	-0.04850908
102	0xbdbdc68a	-0.09266384
103	0x3d130aab	0.035898846
104	0x3d4170ae	0.0472266
105	0xbc5f27e9	-0.013620355
106	0xbcd0035c	-0.025392227
107	0x3d014df1	0.03156847
108	0x3ddf7e53	0.10912766
109	0x3dcc3c6f	0.09972464
110	0x3e24e533	0.16103058
111	0x3d8c2350	0.06842673
112	0x3e3d0d03	0.18461995
113	0xbe4d9cc8	-0.20079339
114	0xbe18465c	-0.1487059
115	0xbd7d5744	-0.0618508
116	0x3c865ddc	0.016402178
117	0x3c8f0975	0.017460564
118	0xbdbb1ee6	-0.09136753
119	0x3d90ade0	0.07064414
120	0x3ce617bc	0.02808749
121	0xbdc493f1	-0.0959853
122	0x3d991888	0.07475382
123	0x3e87f40c	0.2655338
124	0x3e42ad70	0.19011474
125	0x3d2cf147	0.042222288
126	0xbddc94a4	-0.107705384
127	0xbd601a8c	-0.054712817
128	0x3e52f17a	0.20599928
129	0xbe208608	-0.15676129
130	0xbe00e4d2	-0.12587288
131	0xbdd3b161	-0.10336567
132	0xbd751486	-0.059834026
133	0xbe31e0bf	-0.1737089
134	0x3dfbafde	0.122894034
135	0xbc8f5ec0	-0.017501235
136	0xbd4720dd	-0.048615325
137	0xbd891324	-0.06693104
138	0x3dafc585	0.08582596
139	0xbd533e70	-0.051573217
140	0x3ccef892	0.025265012
141	0x3cdf38d3	0.027248776
142	0x3be07a78	0.006850537
143	0xbd267410	-0.04063803
144	0x3e4fec28	0.2030493
145	0xbe0a38f3	-0.13498287
146	0x3dce003a	0.10058637
147	0xbe1f29c1	-0.15543272
148	0xbc62b872	-0.0138379205
149	0x3bd56be7	0.006513107
150	0xbd56c33f	-0.052432295
151	0x3e207ff0	0.15673804
152	0xbd067d87	-0.032834556
153	0xbdb7b4fa	-0.089700654
154	0xbd736d28	-0.05943027
155	0x3d498a8b	0.04920439
156	0xbd9780c6	-0.073976085
157	0xbe026fd2	-0.12737969
158	0x3cf42188	0.029801145
159	0xbde7e90d	-0.11323748
160	0x3d9f4aef	0.07777964
161	0xbcf6c64b	-0.03012385
162	0xbe8459cd	-0.25849763
163	0xbd74c058	-0.059753746
164	0xbd9ac091	-0.075562604
165	0x3e773991	0.24143054
166	0x3bd9ae03	0.0066430583
167	0x3d061d6d	0.032742906
168	0xbdf324bf	-0.11872243
169	0x3e03681e	0.12832686
170	0xbc5351eb	-0.012897949
171	0x3dcf8625	0.10133008
172	0xbdf7e006	-0.12103276
173	0x3deee029	0.11663849
174	0xbde4373f	-0.1114335
175	0xbe268aa4	-0.16263825
176	0xbdc2fd9d	-0.09521029
177	0xbb441b8f	-0.0029923653
178	0xbe19d21d	-0.15021558
179	0xbbb0df9d	-0.0053977505
180	0xbdc6af73	-0.09701433
181	0xbd80e1c2	-0.0629306
182	0x3e73f0d5	0.23822339
183	0x3d70fa23	0.0588323
184	0x3ddf57ec	0.10905442
185	0xbd340f9b	-0.043960195
186	0x3d993980	0.074816704
187	0x3db185ac	0.08668074
188	0xbd9b4cd4	-0.07583013
189	0xbd9bc97f	-0.07606792
190	0xbc839265	-0.016061017
191	0xbd20de2f	-0.03927439
192	0xbb2cb65a	-0.0026353807
193	0xbdcd8fe9	-0.10037214
194	0xbd91accc	-0.071130365
195	0xbddfde41	-0.109310634
196	0x3e317b2c	0.17332143
197	0x3ac1e458	0.0014792783
198	0x3da9f517	0.082987
199	0xbd88efb3	-0.06686344
200	0x3e212d19	0.1573986
201	0xbddacc45	-0.106834926
202	0xbd1a48fe	-0.037667267
203	0x3d8b3e57	0.06799
204	0x3de6551a	0.112467006
205	0xbcf29fc8	-0.029617205
206	0x3cb76444	0.022386678
207	0x3da19daf	0.07891404
208	0xbc057492	-0.008145468
209	0x3ba1032b	0.0049137077
210	0xbd9ba991	-0.076007016
211	0x3cbbc923	0.022923058
212	0x3e506ee1	0.20354797
213	0xbdab07d7	-0.08351105
214	0x3928a86a	0.00016084468
215	0xbc0d1d4d	-0.008612943
216	0x3ea40cfb	0.32041153
217	0x3a8e4605	0.0010854608
218	0x3e7a6a2f	0.24454568
219	0xbd213401	-0.039356235
220	0xbd53adfd	-0.0516796
221	0x3bed8295	0.0072482326
222	0x3c91c134	0.017792322
223	0x3d01ceb6	0.031691276
224	0xbd788d0e	-0.060681395
225	0x3d0bb22c	0.034105465
226	0x3e008963	0.12552409
227	0xbe34ca62	-0.17655328
228	0xbc808773	-0.015689587
229	0x3d63e81d	0.055641282
230	0x3d3e3d7d	0.04644536
231	0x3e6c2004	0.23059088
232	0x3cefdb4c	0.029279374
233	0xbe0fe650	-0.14052701
234	0x3d192712	0.037390776
235	0x3de2f3be	0.110816464
236	0x3e057d0a	0.1303598
237	0xbd31ad14	-0.04337795
238	0xbe06069f	-0.13088463
239	0x3e093e8a	0.13402763
240	0xbe187193	-0.14887075
241	0x3d9d5fe3	0.076843046
242	0xbe0e209b	-0.13879625
243	0x3e7c2425	0.24623163
244	0x3d98d5f3	0.074626826
245	0x3e1bfeba	0.15233889
246	0x3dc73ed0	0.097287774
247	0x3e30cf56	0.17266592
248	0x3d3a0ee3	0.045424353
249	0xbe063469	-0.1310593
250	0xbddd4aba	-0.108052686
251	0xbd2e96da	-0.042624332
252	0x3ce7ef2b	0.028312286
253	0x3d174e7f	0.036940094
254	0x3dd71c65	0.10503463
255	0x3d09e397	0.033664312

backbone.model2.conv2.conv1.bias f4 [64]
0	0xbe170c46	-0.14750776
1	0x3d1ec2e2	0.038760073
2	0xbe009d5f	-0.12560032
3	0xbd5165be	-0.05112242
4	0x3d8c495f	0.06849932
5	0x3d9b503a	0.075836614
6	0xbda1c39e	-0.07898639
7	0x3e685e7b	0.22692291
8	0xbdb6aeaf	-0.08920037
9	0x3e1c6724	0.1527372
10	0xbe5715b5	-0.21004374
11	0x3d7a9677	0.06117865
12	0xbbedd09e	-0.007257535
13	0xbe2b26fc	-0.1671409
14	0x3de2553a	0.11051412
15	0x3d5c34d0	0.053761303
16	0xbcfcad25	-0.03084428
17	0x3dee6bc1	0.11641646
18	0xbd457d6a	-0.048215307
19	0x3bc11db6	0.0058934344
20	0xbd849bca	-0.06475027
21	0x3d048c3d	0.032360304
22	0x3d9b7967	0.07591515
23	0xbe832fa8	-0.25622296
24	0x3e2c04f3	0.16798763
25	0xbda0a3b4	-0.07843724
26	0xbd83baa5	-0.06432084
27	0x3d793525	0.0608417
28	0xbe687d18	-0.2270397
29	0xbd22cd8b	-0.039746802
30	0xbdd18ea3	-0.10232284
31	0xbde09e8e	-0.10967742
32	0x3c9d8334	0.019227602
33	0x3d1c8d1d	0.038220514
34	0x3c8977b0	0.016780704
35	0xbd48283e	-0.048866503
36	0x3d15af36	0.036544047
37	0xbcf24637	-0.029574497
38	0x3e015350	0.12629437
39	0x3df8f51a	0.121561244
40	0x3dfbbe2f	0.12292134
41	0xbc90e778	-0.017688498
42	0x3e09e0ef	0.13464712
43	0x3c898b0f	0.016789941
44	0x3c85e5a3	0.01634485
45	0xbc81d66c	-0.015849315
46	0x3d68fd49	0.056882177
47	0xbdcf74e4	-0.10129717
48	0x3d908d96	0.070582554
49	0xbd57ba55	-0.052667934
50	0xbb23265b	-0.0024894688
51	0x3d25a79e	0.040443055
52	0xbd26104f	-0.040542897
53	0x3e26bd03	0.1628304
54	0x3e5dfab1	0.21677662
55	0x3e10f37a	0.14155379
56	0xbe55e95e	-0.20889804
57	0x3da538c4	0.08067468
58	0xbe092626	-0.13393459
59	0xbdb1ff41	-0.08691264
60	0x3bb9e5c9	0.0056731445
61	0xbe0d4109	-0.1379434
62	0x3e040780	0.12893486
63	0xbd134041	-0.03594995

backbone.model3.conv1.conv1.weight f4 [64, 64, 1, 1]
0	0xbe1c3cd7	-0.15257584
1	0x3e1cb0c1	0.15301801
2	0xbcd30026	-0.025756907
3	0x3cd428ef	0.025898425
4	0xbc6d0fd1	-0.014469103
5	0xbd9bad8e	-0.07601462
6	0x3e809831	0.25116113
7	0xbdad7abe	-0.08470677
8	0x3e0b7a01	0.1362076
9	0xbd4ef373	-0.05052514
10	0xbc92592b	-0.017864784
11	0xbd858258	-0.06519002
12	0x3d59f914	0.053216055
13	0x3d0cb609	0.03435329
14	0x3d236d49	0.039899144
15	0xbd3cfd05	-0.046139736
16	0x3d64a3e8	0.055820376
17	0xbd1bf567	-0.03807583
18	0x3dc1e118	0.09466761
19	0xbb9aafbf	-0.0047206576
20	0x3e2e2a50	0.17008328
21	0x3e2da388	0.16956913
22	0x3d8fb550	0.070170045
23	0x3d7a4fb2	0.06111116
24	0xbe182884	-0.14859205
25	0x3cbca7e5	0.023029277
26	0x3bb6a74d	0.005574143
27	0xbe011289	-0.12604727
28	0xbd45299d	-0.04813539
29	0x3d4ad9f2	0.049524255
30	0xbc2ed007	-0.010669715
31	0x3cca7dff	0.024718283
32	0xbe08b442	-0.13350013
33	0xbcedb6c1	-0.029017808
34	0x3d7a5d8b	0.061124366
35	0x3d4e36e5	0.05034532
36	0x3d6abd3b	0.05730937
37	0x3cef0442	0.029176835
38	0xbd930dec	-0.0718039
39	0x3d7d71d6	0.06187614
40	0x3e0aabe2	0.1354213
41	0x3dcf8636	0.101330206
42	0x3ca12894	0.01967267
43	0x3d05abbf	0.032634493
44	0xbe4cfe32	-0.20018843
45	0x3cebe96f	0.028797833
46	0x3d9e2182	0.07721235
47	0xbdfd9666	-0.12382202
48	0x3c8a8fa4	0.016914196
49	0x3d41a679	0.0472779
50	0x3d0a8b88	0.033824474
51	0x3d66ca12	0.056345053
52	0x3dace4d3	0.08442082
53	0x3de302be	0.110845074
54	0x3e42adfc	0.19011682
55	0xbc3f5462	-0.011677833
56	0x3e05cbb9	0.13065995
57	0x3cfa9671	0.030589314
58	0x3e092503	0.13393025
59	0x3e0d54bd	0.13801856
60	0x3d623801	0.05522919
61	0x3d6704e6	0.056401156
62	0x3d9f8b12	0.077901974
63	0xbeaaa9c3	-0.33332643
64	0x3cd965db	0.026537826
65	0x3dffed74	0.124964625
66	0x3da8d08a	0.08242901
67	0x3de9d365	0.114172734
68	0x3cbe9963	0.0232665
69	0x3d893f93	0.06701579
70	0xbcdb2ba0	-0.0267542
71	0xbb1581f0	-0.0022813044
72	0xbd974750	-0.07386649
73	0x3d396f1f	0.04527199
74	0x3d648649	0.055792127
75	0x3d2424e6	0.04007425
76	0x3d91ee4c	0.0712553
77	0xbdf5721c	-0.11984655
78	0x3da0f0f7	0.078584604
79	0x3e00f380	0.12592888
80	0x3da37cfa	0.07982822
81	0x3e10ca0a	0.14139572
82	0x3d871dfe	0.065975174
83	0x3d4c8852	0.049934693
84	0xbd0b9173	-0.034074258
85	0x3c2c401b	0.010513331
86	0xbd5bd08b	-0.05366568
87	0x3c8fce83	0.017554527
88	0x3db8a2c2	0.090154186
89	0x3d95aec1	0.07308722
90	0x3cdfaf1f	0.027305184
91	0x3dcabd59	0.098993964
92	0xbd4ddbbe	-0.05025839
93	0xbdfea018	-0.12432879
94	0x3c5e6161	0.013573022
95	0xb9fe9b65	-0.00048562433
96	0x3d70b6ec	0.058768198
97	0x3ccac797	0.024753375
98	0x3d3a960d	0.045553256
99	0x3db69722	0.08915545
100	0x3a9bae3e	0.001187749
101	0xbd347b6c	-0.044063017
102	0xbdace342	-0.084417835
103	0x3db78324	0.0896056
104	0x3dc4c019	0.09606952
105	0x3c1513e6	0.009098982
106	0x3e166aa0	0.14689112
107	0xbc78d6d0	-0.015187934
108	0x3d5e2a4a	0.05423955
109	0x3db28d85	0.08718399
110	0xb9a2a5c6	-0.0003102256
111	0x3d0fb558	0.035085052
112	0xbcf92e56	-0.030417603
113	0x3c857695	0.016291896
114	0x3d9373f5	0.071998514
115	0xbbf58b94	-0.0074934456
116	0x3b141fd4	0.002260198
117	0x3bac1ecc	0.0052526947
118	0xbda6501e	-0.0812075
119	0x3d0c5661	0.034262065
120	0x3dcd4597	0.10023039
121	0x3d6e3aa6	0.0581614
122	0x3cd9b536	0.026575666
123	0x3e27b9a4	0.1637941
124	0x3d2bfd23	0.041989457
125	0x3e48b471	0.19600083
126	0x3d949048	0.07254082
127	0x3d95b88d	0.07310591
128	0xbe17eefb	-0.14837258
129	0xbe524350	-0.2053349
130	0xbe181365	-0.14851148
131	0xbe1cc12f	-0.15308069
132	0xbdcb2adc	-0.09920284
133	0xbcb9e0cb	-0.022690197
134	0x3e08f04a	0.13372913
135	0xbc45b707	-0.012067563
136	0x3ce39163	0.027779287
137	0x3d8c9e5b	0.068661414
138	0xbd83f569	-0.06443293
139	0xbc8377cd	-0.016048336
140	0x3d9d4596	0.07679288
141	0xbd9ea0f4	-0.07745543
142	0xbdf07946	-0.11741881
143	0xbe1a72c7	-0.15082847
144	0x3ddeb347	0.10874038
145	0xbd8dd1b7	-0.069247656
146	0xbcb37111	-0.0219045
147	0xbe445aa4	-0.19175202
148	0x3d38234a	0.04495553
149	0xbcfa17a4	-0.03052885
150	0xbd92af7a	-0.07162376
151	0x3de32680	0.11091328
152	0xbc1c7cd5	-0.009551247
153	0xbd30ba71	-0.043146554
154	0xbda4d585	-0.08048538
155	0xbe187c89	-0.14891256
156	0x3cc1c23e	0.023652192
157	0x3e314d8a	0.17314735
158	0x3d63c898	0.055611223
159	0x3d472cd5	0.04862674
160	0x3e86b613	0.26310787
161	0x3c6e8b15	0.014559527
162	0x3d87eacd	0.066365816
163	0xbc2aff1a	-0.0104367975
164	0xbd6944c4	-0.056950346
165	0x3e39df56	0.18151602
166	0x3e596339	0.21229257
167	0xbddc14f5	-0.10746185
168	0x3da0558c	0.07828817
169	0x3d6c00e6	0.057618044
170	0xbdbf65dc	-0.093456
171	0xbb7aa39b	-0.003824449
172	0xbe11dd96	-0.14244685
173	0xbddad6e5	-0.10685519
174	0xbcb35716	-0.021892112
175	0x3da0ee51	0.07857955
176	0xbe339ca7	-0.17540227
177	0xbcd86532	-0.026415441
178	0xbda5db50	-0.08098471
179	0x3ddf7f0e	0.10912906
180	0x3d29482d	0.041328598
181	0x3de7b284	0.11313346
182	0xbdb299aa	-0.08720715
183	0xbe8edf97	-0.2790496
184	0x3cb9b6f5	0.022670249
185	0xbd910bd0	-0.07082331
186	0xbc68e1eb	-0.014214019
187	0xbc8627ff	-0.016376493
188	0x3d7fb772	0.062430806
189	0xbe4e895f	-0.2016959
190	0xbdf78e53	-0.12087693
191	0xbe23d18f	-0.15997909
192	0xbab348d8	-0.0013678325
193	0x3d93e1e6	0.07220821
194	0x3e527bdb	0.2055506
195	0x3d35fccb	0.044430535
196	0x3e85917f	0.26087567
197	0x3d4b7043	0.049667608
198	0xbe09f274	-0.13471395
199	0xbbaba828	-0.0052385516
200	0xbd2d4ae1	-0.04230774
201	0x3d08953e	0.033345453
202	0xbc746e53	-0.0149188815
203	0x3dad0d87	0.08449846
204	0xbe0697ca	-0.1314384
205	0xbc080931	-0.008302973
206	0x3d5cda04	0.053918853
207	0x3d62e8ab	0.05539767
208	0x3dc7413a	0.09729238
209	0xbdca9087	-0.09890848
210	0x3cbfe4ba	0.023424495
211	0x3dee723f	0.116428845
212	0xbd1b22f4	-0.03787513
213	0xbd12b203	-0.035814296
214	0xbd06e0b5	-0.03292914
215	0x3e79916a	0.24371877
216	0xbd2f3e99	-0.042784307
217	0xbc9c690d	-0.01909306
218	0x3dc91684	0.09818748
219	0x3bf04561	0.0073324894
220	0xbd7d33c8	-0.06181696
221	0xbe045a7f	-0.12925147
222	0x3d8795d8	0.06620377
223	0xbd2c8580	-0.042119503
224	0xbd194e6e	-0.037428312
225	0xbd2cb646	-0.042166017
226	0x3d02f3d5	0.031970818
227	0x3e012733	0.1261261
228	0x3d692dc8	0.056928426
229	0x3cec08e3	0.028812831
230	0xbd63fcc6	-0.055660985
231	0xbc83b51c	-0.01607757
232	0x3d1c3c7b	0.038143616
233	0xbd166243	-0.036714803
234	0x39bf7f44	0.0003652518
235	0x3cf85720	0.030314982
236	0xbc438b78	-0.011935107
237	0x3cd408a2	0.025883023
238	0xbd7c8d0f	-0.06165796
239	0x3dbeb311	0.09311498
240	0xbc927387	-0.017877353
241	0xbe41861a	-0.18898812
242	0x3dd56524	0.10419682
243	0xbd87e267	-0.0663498
244	0xbc85a27c	-0.01631283
245	0xbe09f030	-0.1347053
246	0xbd701a2d	-0.058618713
247	0x3c3de7db	0.011590923
248	0x3e0aa247	0.13538466
249	0x3d1ca8f0	0.03824705
250	0xbd707937	-0.05870935
251	0xbd87056a	-0.065928295
252	0xbc4d1126	-0.012516296
253	0x3e736e52	0.23772553
254	0x3d4083bd	0.047000635
255	0x3d7888ac	0.060677215

backbone.model3.conv1.conv1.bias f4 [64]
0	0xbd20d530	-0.03926581
1	0xbd0ed4cb	-0.034870904
2	0x3e3368d7	0.17520462
3	0x3d83c154	0.06433359
4	0xbdbaa97a	-0.09114356
5	0x3da46598	0.0802719
6	0xbcd5a002	-0.026077274
7	0xbde5f236	-0.11227839
8	0x3d3e929a	0.04652653
9	0x3d7bc9ba	0.06147168
10	0xbe30d31f	-0.17268036
11	0x3d9cfb1f	0.07665085
12	0xbe284ec7	-0.16436301
13	0x3d566ea1	0.052351598
14	0x3dce41dd	0.10071156
15	0xbd3b803c	-0.04577659
16	0xbcc34990	-0.023838788
17	0xbdca8d6e	-0.09890257
18	0x3daf22dc	0.08551571
19	0xbe2ef4c9	-0.17085566
20	0x3dd45fb0	0.103698134
21	0xbdb9e4f3	-0.09076872
22	0x3c1e93a5	0.009678756
23	0xbcd96b54	-0.026540436
24	0x3dad091f	0.08449005
25	0x3d4c2728	0.04984203
26	0x3d2eea9f	0.04270422
27	0x3cc3a896	0.023884099
28	0x3da6a939	0.081377454
29	0x3d7d8c35	0.06190129
30	0xbde82e94	-0.11337009
31	0x3c262d43	0.010142627
32	0x3e8678bb	0.26263985
33	0x3bbb58bf	0.0057173665
34	0x3d84d663	0.064862035
35	0x3dc8030c	0.09766206
36	0xbda211f3	-0.0791358
37	0xbcc3be73	-0.023894524
38	0x3d28f0b4	0.041245177
39	0x3bd49b3e	0.006488233
40	0xbe1c3364	-0.15253979
41	0x3cd4bb3d	0.025968188
42	0xbcb81825	-0.02247245
43	0x3e0a8397	0.1352676
44	0xbe03f241	-0.12885381
45	0xbc9a6723	-0.018848008
46	0xbd6fc927	-0.058541443
47	0xbb4c803e	-0.0031204368
48	0x3de30bf8	0.11086267
49	0x3dad48bc	0.084611386
50	0xbd9cf883	-0.07664587
51	0xbda8b6bc	-0.08237979
52	0xbdcf78f9	-0.101304956
53	0x3e085d86	0.13316926
54	0xbca857c6	-0.020549666
55	0xbdac93ec	-0.08426651
56	0x3d85204b	0.065003
57	0x3c8d7557	0.017267866
58	0xbcba2014	-0.022720374
59	0xbd8b7706	-0.06809811
60	0x3ddf5f9f	0.1090691
61	0xbe7aee53	-0.24504976
62	0xbe4cb2be	-0.1999006
63	0x3c1a0b0c	0.009402048
