weights/yunet_s.pth (torch, 560340 bytes, 278 tensors)

backbone.model0.conv1.weight f4 [16, 3, 3, 3]
000000 ac ff 22 3e 6d f9 8b bd 8a 81 ff bd 9b 51 57 3e
       0.15917844 -0.068346836 -0.124758795 0.21027224
000010 3e d4 06 be 91 7b 67 be c5 5d b6 3d 38 e7 ac bd
       -0.13166901 -0.2260573 0.08904604 -0.08442539
000020 ed 0c 84 3e b4 d2 9f 3e 04 6b b7 bd b8 90 90 be
       0.25791112 0.3121544 -0.089559585 -0.28235412
000030 57 68 bb 3e 3d ee 32 be a1 3b db be fe ab 5f 3e
       0.36603042 -0.17473693 -0.4281893 0.21842954
000040 02 28 03 be 56 3b ae 3d 32 f0 90 3e ed 2c c5 bd
       -0.1280823 0.08507411 0.28308254 -0.096277095
000050 ac fd 85 be b6 22 a7 3e aa a1 34 be 5b 97 be be
       -0.261701 0.3264367 -0.17639795 -0.3722485
000060 9d 6c 68 3e 48 f2 b8 bd b4 7a 2f 3e ca bf 3d be
       0.22697683 -0.090305865 0.17136651 -0.18530193
000070 72 bb 40 be 79 c5 e5 bd 26 94 92 bd 37 3f 52 be
       -0.18821505 -0.112193055 -0.07157163 -0.20531927
000080 47 23 41 bd bb 25 30 be 4c 38 c1 be a8 34 fc bd
       -0.047152784 -0.17201893 -0.37738264 -0.12314731
000090 14 49 99 bd a4 95 8c bd 5a 3c 27 bd b9 43 44 3d
       -0.07484642 -0.06864479 -0.04082904 0.047916148
0000a0 db f2 9e bd 0e 42 31 3d 07 b3 09 be 97 bc a8 be
       -0.07761165 0.043275885 -0.134472 -0.32956383
0000b0 ff 96 d1 bd 5d b4 35 3e 6b d9 2c 3e 8a ef 15 3e
       -0.10233878 0.17744584 0.16879813 0.14642158
0000c0 03 ff c1 3e 4b 29 76 3e 85 70 9e 3e 79 05 45 3e
       0.3788987 0.2403919 0.3094522 0.19240369
0000d0 9d 3b dd bc 58 e8 18 3e de 61 a8 3d 8a 49 97 3e
       -0.027005965 0.14932382 0.08221792 0.29548293
0000e0 37 db 3b 3e a7 f6 38 3e da 8f c1 3e 7d 4d 81 3e
       0.18345343 0.1806284 0.37805063 0.2525443
0000f0 f3 d6 3e 3e 75 52 84 3e 25 5b 33 3e 76 39 7f 3d
       0.18636684 0.2584416 0.17515238 0.06231066
000100 ca a8 69 3e 13 7f 02 3e d4 cc e8 3d 99 06 86 3e
       0.22818294 0.12743787 0.11367193 0.2617691
000110 88 42 18 3e 44 8d 22 3e 58 43 3a 3e 39 f5 e3 3d
       0.1486913 0.15874201 0.18189752 0.11130757
000120 01 f8 cb be 20 d1 97 be 91 d2 c0 be 03 32 c9 be
       -0.3983765 -0.29651737 -0.3766065 -0.39295968
000130 b6 28 9f be 1c 61 cf be fd 5e b3 be fb 74 c8 be
       -0.31085747 -0.40503776 -0.35033408 -0.3915175
000140 71 b5 e3 be 94 f2 99 3a bb 8d 6d 3d 3a 04 d9 3d
       -0.44474366 0.0011745268 0.057996493 0.10596509
000150 7e 0f a5 3d c5 34 f7 bd 74 77 7f be 58 b7 30 3e
       0.080595955 -0.12070612 -0.24947912 0.1725744
000160 25 92 8f 3d ae 38 f8 bd 51 9a b4 bd 61 29 ca bc
       0.07010297 -0.12120186 -0.08818496 -0.024677934
000170 66 1e a8 3a 17 d8 10 ba 21 85 54 be e9 96 bd be
       0.0012826442 -0.0005525364 -0.2075391 -0.37029198
000180 67 75 80 3d cb dc 01 bd 24 61 82 be 1c a5 4f bd
       0.06272393 -0.031704705 -0.25464737 -0.05069457
000190 50 1d f6 3d 3a 00 33 3e 0c f3 b3 bb da 73 bd bd
       0.1201731 0.17480555 -0.00549162 -0.092506126
0001a0 b6 56 4f be 31 07 d5 3d 43 4a 05 3e b8 36 df bc
       -0.20247921 0.10401762 0.1301661 -0.027247772
0001b0 dd 4b 75 be 6e 5c 4e be 46 48 b9 bd bb 92 a4 be
       -0.23954721 -0.20152447 -0.09046988 -0.32143196
0001c0 1f 56 ba be 68 7b cf be f0 9d 16 be cc 87 e5 bc
       -0.3639383 -0.4052384 -0.14708686 -0.028018855
0001d0 47 0b 21 be e1 49 55 3e 65 5c 57 3e 9b 3a 90 3e
       -0.15726958 0.20828964 0.2103134 0.28169712
0001e0 90 2b 09 3e 02 d1 7a 3d 14 58 93 bc 1f da bd 3e
       0.13395524 0.06123448 -0.017986335 0.37080476
0001f0 0f 40 f6 3e 27 19 a7 3e 30 07 02 bd 1e 22 49 3c
       0.48095748 0.32636377 -0.031745136 0.012276201
000200 f9 57 bd 3d e5 b0 d9 bd 6e 86 11 be 04 92 65 be
       0.09245295 -0.10629443 -0.14211437 -0.22418982
000210 40 45 4d 3d c5 94 43 3e c7 3d d8 3c 8c 4f fe 3d
       0.05011487 0.1909972 0.026396645 0.12417516
000220 2c 41 9d 3e 9b 72 88 3e f7 dd 00 be 52 5c 07 be
       0.30713785 0.26649937 -0.12584673 -0.13218811
000230 ab e2 0c bd a3 90 05 be 2b cb 7d be de 2c 0a be
       -0.034395855 -0.13043456 -0.24784534 -0.13493678
000240 2c 09 89 3e 95 84 dc 3e 5d 72 c8 3e 8c 3b ce bd
       0.2676481 0.43069902 0.39149752 -0.100699514
000250 e9 89 08 be 0f 61 a6 bc 99 e7 2d be 53 d6 a2 be
       -0.13333859 -0.020309953 -0.16982879 -0.3180414
000260 b4 6c 46 be 66 0e 1c 3e d8 1a 59 3e 6d 76 4e 3e
       -0.19377404 0.15239868 0.21201646 0.20162363
000270 0c c1 a2 bd 1a 0e 54 be f3 52 8c bd 77 20 0e 3c
       -0.07946977 -0.20708504 -0.06851759 0.008674732
000280 e1 b7 71 be 9f 8a c2 bd b8 81 2e be 18 2e 8e bd
       -0.236053 -0.09499096 -0.17041671 -0.069423854
000290 6a d3 c7 bd 2e 52 62 3d 6b 3c cb 3d a1 47 d4 bc
       -0.09757121 0.055254154 0.09923633 -0.025913062
0002a0 2b a4 b8 3d d0 6e 0a 3e 55 b9 13 bc 0e 58 5c 3e
       0.090156876 0.13518834 -0.009016355 0.21517965
0002b0 55 1a 90 3e b2 f3 7f 3e 35 66 c3 3e ef f2 cc 3e
       0.2814509 0.24995306 0.38163915 0.40029094
0002c0 cb a7 90 3e cc 96 cb 3e 20 d9 db 3e 9e 41 9b 3e
       0.28253016 0.39763486 0.4293909 0.303235
0002d0 f8 1b 9d be 4c db 8f be a7 4b 6c be 84 c3 6f be
       -0.306854 -0.28096998 -0.23075734 -0.23414427
0002e0 b7 54 86 be 08 35 99 be 8e ac 71 be 21 23 83 be
       -0.26236507 -0.29923272 -0.2360098 -0.2561274
0002f0 90 02 9c be e1 a2 5a 3e 6d f4 ff 3c 1f 79 9d 3d
       -0.30470705 0.21351196 0.031244481 0.07689118
000300 51 5d e7 3d ae ef 0c be cc f2 11 3d d7 c1 7c 3e
       0.112970956 -0.13763306 0.03563194 0.24683319
000310 a4 64 37 3e 66 20 91 3e f3 38 58 be 95 29 c0 be
       0.17909485 0.2834503 -0.21115474 -0.37531725
000320 e3 b9 ae be 28 cb 88 be 00 6a 02 bf 42 31 b8 be
       -0.34126195 -0.26717496 -0.50942993 -0.3597508
000330 46 10 10 be 59 59 4f be f9 74 05 be 24 89 71 3e
       -0.14068708 -0.20248927 -0.13032903 0.23587471
000340 fd d0 f2 3d 19 22 a9 3d 61 ff c5 3d a9 09 c3 bd
       0.118562676 0.08258457 0.0966785 -0.09523327
000350 08 ec 24 3b 9a ce ef 3d 0d e1 ce 3d 1e 94 10 3e
       0.00251651 0.11709328 0.10101519 0.14119002
000360 86 2d 0f 3d a4 78 0e 3e b8 ef 08 3e 09 7c 5b bd
       0.034955524 0.13913208 0.13372695 -0.053585086
000370 cd a9 71 3e 6a 1b ca 3d 1a f9 d9 3d 8e f4 f0 3e
       0.2359993 0.0986851 0.106432155 0.4706158
000380 ae e7 24 3e 12 97 c6 be 9b 9d 82 be d6 52 c3 be
       0.16104004 -0.38787133 -0.25510868 -0.38149136
000390 ac 1a ea be df bb 13 be ae e3 d9 be bb 76 c7 be
       -0.45723474 -0.14427136 -0.42556518 -0.38957772
0003a0 2e 0e 19 bc f4 0f f0 be 17 06 14 3e 96 1a d4 3e
       -0.00934176 -0.4688717 0.14455448 0.41426533
0003b0 d7 8c 8e 3e 7f 26 ee 3c b5 3e 00 3f 0d eb 77 3e
       0.27841827 0.02907109 0.50095683 0.24210759
0003c0 5c 3b c8 bd d8 b0 e8 3e 78 ad 23 3d 4c ff 73 3e
       -0.09776947 0.4544742 0.039960355 0.23827857
0003d0 8b 07 e2 3d 6d 12 1d 3c f0 7b a7 be 3f fd 81 be
       0.11036595 0.009586913 -0.32711744 -0.25388524
0003e0 e5 6c ee 3d b2 dd d8 3d 68 1a c3 bd 5e f7 ff 3d
       0.11641864 0.1058916 -0.09526521 0.124983534
0003f0 8e ca 80 3d bf 07 b4 3d 81 62 44 3e 44 d1 0d bf
       0.06288634 0.0879054 0.19178201 -0.5539744

backbone.model0.conv1.bias f4 [16]
000000 79 47 a2 36 83 d0 a3 36 b2 7d a3 36 1a 8f a3 36
       4.8362967e-06 4.8820525e-06 4.8724114e-06 4.8744378e-06
000010 50 6a a3 36 0a 74 a3 36 06 89 a3 36 a2 2b a3 36
       4.870155e-06 4.8712873e-06 4.87373e-06 4.862858e-06
000020 3a 5e a3 36 16 0c a3 36 fe 9e a3 36 75 b7 a3 36
       4.868748e-06 4.8591855e-06 4.8762877e-06 4.8791358e-06
000030 9a 4b a4 36 3b 7e a3 36 25 ad a3 36 98 53 a3 36
       4.896382e-06 4.8724737e-06 4.877935e-06 4.86751e-06

backbone.model0.conv2.conv1.weight f4 [16, 16, 1, 1]
000000 db a1 a3 bb 5d 9d 3a bd 75 b2 b6 bd c6 9f 38 be
       -0.00499366 -0.04556023 -0.08920757 -0.18029699
000010 b6 67 3d 3d 64 25 a6 bd 89 dc 14 bc 48 80 c1 3b
       0.046241485 -0.081126004 -0.009085783 0.005905185
000020 8e 38 b1 3d f6 71 91 bd 8a a3 5c bc c8 8f 24 bd
       0.08653365 -0.071018144 -0.013466725 -0.040176183
000030 aa 2d af 3d 02 70 7d be 1f 22 38 3f d3 11 da be
       0.085536316 -0.24749759 0.71927065 -0.42591724
000040 47 57 3b be ea 69 6c 3c 80 9a 2c 3c 20 7b c6 bd
       -0.18295012 0.014429549 0.010534883 -0.09691453
000050 ef b7 5a bc 30 4c 5c be 43 ac ac 3d 14 92 6d 3d
       -0.013349517 -0.21513438 0.08431294 0.05800064
000060 54 39 01 bc 95 36 81 3e de 8f 9d 3e 3a 21 72 3e
       -0.007887203 0.25236955 0.30773824 0.23645487
000070 d4 3a 6d 3e a4 5d ac 3d 7d a8 12 3f 65 f5 02 be
       0.23166972 0.08416298 0.5728834 -0.12788923
000080 a3 c6 14 3d 29 41 8d 3d 42 bf d9 3e e2 60 5a 3e
       0.036322247 0.06897194 0.4252873 0.2132602
000090 2b 81 ff be 90 45 88 bd 30 c5 ea 3e bd 5d 18 3f
       -0.49903235 -0.06653893 0.45853567 0.59518033
0000a0 41 5c db 3e 7e fe f7 3c 8a 8c 39 3d 11 20 c0 3d
       0.42843822 0.030272719 0.045300044 0.09381116
0000b0 f4 0a 6c 3d 20 c8 c0 3d 31 24 8f 3c 04 87 5c 3b
       0.057627633 0.09413171 0.017473312 0.0033649812
0000c0 b0 c9 66 3d 74 fa cd be 78 53 92 be fe 54 59 bd
       0.056344688 -0.40230143 -0.28579307 -0.05305957
0000d0 cf c1 d7 be 47 fc 15 3d da a2 05 bf 4f f4 b1 3e
       -0.42140052 0.036617544 -0.52201617 0.34756705
0000e0 9b 8c fe 3e 71 3c bd 3d 9c ce 51 3e a2 94 b1 bd
       0.49716648 0.09240044 0.20488971 -0.086709276
0000f0 3b 66 c4 bd 52 32 91 3d d7 d7 80 bd 21 e0 84 bb
       -0.095898114 0.07089676 -0.06291168 -0.0040550386
000100 dd 6b a2 bd f5 2d 03 3e 31 75 5d bd b4 73 77 be
       -0.079307295 0.128105 -0.05406684 -0.24165231
000110 7b f9 96 be dc 45 18 bd 39 df c8 3d 5e b6 30 be
       -0.29487213 -0.037175998 0.09808201 -0.17257068
000120 ab d2 33 3a 61 ac ed bd 56 03 f9 3d 73 c7 00 3c
       0.00068597 -0.11605144 0.121588394 0.007860052
000130 33 f7 48 3d 8c e0 a3 be 8e 3b ca 3d 5b c2 b7 be
       0.049063873 -0.32007253 0.098746404 -0.3589047
000140 d4 54 39 3e 0b 3c 8f bc d0 1f a7 3d f5 2e 81 3d
       0.18098766 -0.017484685 0.08160365 0.063077845
000150 b8 21 af 3d 83 55 c4 3e 5d 37 a3 bd 0b 1f 6d 3d
       0.08551353 0.3834649 -0.07969544 0.057890933
000160 17 00 44 bc d5 3d 6f be ae ea 94 3d cd f4 ce 3d
       -0.011962912 -0.23363431 0.07271324 0.10105286
000170 28 1d d9 be 2f e8 f6 3b 07 94 ad 3d 2f 54 b5 3d
       -0.42405057 0.0075350027 0.084754996 0.08853947
000180 52 bc 3e 3e b4 2c f4 bc 94 f2 c2 3d b2 fb 8f 3c
       0.18626526 -0.029806472 0.09518924 0.017576072
000190 27 96 50 bd e0 97 a9 be b4 3a aa bd 5b de e1 bc
       -0.050924446 -0.33123684 -0.08311978 -0.027571848
0001a0 e3 c0 cf bd 09 c2 9e bd 5f 0b 03 be f0 82 9e bd
       -0.10144212 -0.07751853 -0.12797306 -0.07739818
0001b0 38 28 b6 3e 42 63 01 bd 31 c1 27 bf 74 ac 55 3e
       0.3557756 -0.0315888 -0.6552916 0.20866567
0001c0 0f 76 a9 3e 9a 56 c0 3d 09 97 7c 3d 8f 4e 1e 3e
       0.33097884 0.09391518 0.061667476 0.15459655
0001d0 95 02 60 bd 44 56 7e bc 72 75 cc 3c 16 02 1f 3e
       -0.054689962 -0.015523497 0.024958346 0.1552814
0001e0 0f 78 5b be 4a 04 d7 bc ac 2e 06 3e 20 0d 1c 3e
       -0.21432517 -0.026247162 0.13103741 0.15239382
0001f0 63 36 24 3e bb 69 85 3c dc ab 6d bd 5f 81 76 3e
       0.16036372 0.016285768 -0.058025226 0.24072789
000200 33 91 e6 3d e8 db 04 3e b5 70 19 3e 8d be 06 be
       0.11258163 0.12974513 0.149844 -0.13158627
000210 09 e7 c7 bd e9 13 49 3e 2e 8e b7 bd fb 64 44 be
       -0.09760863 0.19636501 -0.089626655 -0.19179146
000220 5b a9 c9 bd bd a1 99 bd 01 17 e3 3d 27 75 a5 3e
       -0.09846755 -0.07501552 0.11088372 0.32315943
000230 f8 9e a3 be 53 87 12 3e c3 22 16 3d 4f 56 37 bd
       -0.3195722 0.14309435 0.036654245 -0.044760045
000240 bc da d4 3d 4f dd 4f 3d d5 60 d9 bd 5c c8 d6 3d
       0.10393283 0.050748166 -0.10614172 0.10487434
000250 05 e4 ba bd a4 83 ba be bb 14 dc 3d 28 18 27 bd
       -0.091255225 -0.3642856 0.107461415 -0.04079452
000260 31 c1 57 bd c7 44 99 bd 01 61 90 bd 69 bc ef bd
       -0.052674476 -0.07483821 -0.07049752 -0.11705858
000270 a1 ca 06 3f f4 f2 08 be aa 4e 1a bc b1 d0 be bc
       0.5265294 -0.1337393 -0.009418169 -0.023292871
000280 48 df cf 3c 0d fc 3e 3e 63 93 a7 bd 8a 8f ae 3d
       0.025375023 0.18650837 -0.08182409 0.08523472
000290 d4 0f c4 bd b1 6d 6e 3d 1f 95 95 3d e0 93 0d 3e
       -0.095733315 0.05821008 0.07303833 0.13825941
0002a0 05 05 20 be bd 65 7a 3e c6 81 d2 3e 86 d5 8b 3d
       -0.15626915 0.24452873 0.41114634 0.06827836
0002b0 05 23 8d bd e8 72 06 3f 91 62 31 be 24 48 08 3f
       -0.06891445 0.52519083 -0.17322756 0.5323508
0002c0 3f bc 75 3a 69 6d a2 bb ea 58 38 bd 6e ea 60 be
       0.0009374059 -0.0049568904 -0.04500667 -0.21964428
0002d0 90 69 24 bd e2 6e 07 3b e0 4b 0f bd c9 87 6e b9
       -0.040139735 0.0020665457 -0.03498447 -0.00022748033
0002e0 a7 da 96 bc d6 ab 7a bd 05 65 5f 3d 60 65 69 bd
       -0.018414808 -0.06119903 0.0545397 -0.056981444
0002f0 f2 d2 5f bc 5d 8d 61 be 16 cb 27 3f b1 89 a9 be
       -0.013661133 -0.22026582 0.6554426 -0.33112863
000300 ac ca 90 bd de 7d 43 bf 37 bf dd 3e d1 34 82 be
       -0.070699066 -0.76363933 0.43309948 -0.2543092
000310 7e 30 16 be 07 e1 31 3d af a6 03 be 69 78 85 be
       -0.14666936 0.043427493 -0.12856553 -0.26068428
000320 96 28 da be c9 84 7f 3c 68 1a cc be f4 56 0f be
       -0.4260909 0.015595623 -0.39863896 -0.13998014
000330 a4 4e 66 bd 93 94 b7 bd 37 ba a4 bd 20 6d 3d bd
       -0.05622734 -0.08963885 -0.0804333 -0.046246648
000340 44 75 87 3e c3 35 74 bd 85 d3 b0 bc 6a 63 33 3e
       0.26456654 -0.059621584 -0.021585235 0.17518392
000350 1e 8a 8e 3d 9c 98 cd 3d f6 34 22 bc 32 d4 b2 bc
       0.069599375 0.100388736 -0.009900322 -0.021829698
000360 4e 6c 53 3d 7f 2a 88 be 3e e3 e7 3c c1 17 a8 bc
       0.05161696 -0.26594922 0.0283066 -0.02051914
000370 4e ff 9f be 7e 44 9e bd 30 63 19 bd fb 1a 45 3e
       -0.3124947 -0.077279076 -0.03744811 0.19248573
000380 9b 49 83 be f5 be d7 ba 76 e1 7d bd 14 85 e8 bd
       -0.25642094 -0.0016460108 -0.061982594 -0.11353508
000390 9a 8f 90 bd 68 bc 16 be 69 06 8a 3d 42 18 fe 3d
       -0.0705864 -0.14720309 0.06739504 0.124069706
0003a0 c2 3d 5c be f7 49 8b 3e 7c c0 3b 3d ee 30 31 3e
       -0.21507934 0.27204868 0.045837864 0.17303821
0003b0 4e 7c 04 3e 8b 93 4b 3e fb c8 5c 3d d4 30 02 be
       0.12938043 0.19880502 0.053902607 -0.12713939
0003c0 c5 11 82 3e 90 e4 9b 3d d4 88 42 3d 4b f5 7a 3e
       0.25404182 0.07611954 0.04749377 0.24507634
0003d0 40 8f 83 bd f1 79 0d be 71 cd f0 3c 4f 76 1a 3d
       -0.06423807 -0.13816048 0.029394837 0.037710484
0003e0 58 4d 2f 3d 57 20 23 be 72 d4 d2 3d 28 a9 8f be
       0.04279837 -0.15930305 0.10294427 -0.28058743
0003f0 28 13 ae 3e c9 4c 4f bd 69 ae a9 bd af b6 ea 3d
       0.3399899 -0.050610337 -0.08285219 0.114606254

backbone.model0.conv2.conv1.bias f4 [16]
000000 c1 01 de be c2 b9 56 be 24 ca df bc f2 22 28 be
       -0.43360713 -0.20969298 -0.027318068 -0.1641958
000010 bf 53 e1 bd 8d 95 00 be 9b c0 6c 3d 8c d7 e0 be
       -0.110023014 -0.12557049 0.05780087 -0.4391445
000020 0f 48 37 3e 71 f5 8e 3d e4 db b2 3c ca 50 16 3e
       0.17898582 0.06980408 0.021833368 0.14679256
000030 25 5d b1 bb 6c 46 08 3e 84 cd f3 bd bb 20 19 be
       -0.005412715 0.13308114 -0.11904433 -0.14953892

backbone.model0.conv2.conv2.weight f4 [16, 1, 3, 3]
000000 3d 7a 13 bf ed 34 76 bf d2 9f 06 bf f3 98 57 be
       -0.57608396 -0.9617451 -0.52587616 -0.21054439
000010 5b aa 8f 3e d5 e4 23 be 67 50 02 3f 0e 93 3c 3f
       0.28059658 -0.16005261 0.50903934 0.7366189
000020 2a a1 21 3f 8b 58 09 bd 89 70 8a be 00 a3 7e 3c
       0.6313654 -0.033531707 -0.27038983 0.015541792
000030 cf f4 4f bd 11 bf c1 be f0 b3 82 bd 9b b4 02 be
       -0.050770577 -0.37841085 -0.063819766 -0.12764208
000040 65 33 da bd 4d 54 e6 3b 47 31 4f bd 7a 52 68 3e
       -0.10654334 0.0070290924 -0.050584104 0.22687712
000050 ba 2f de 3c cc a5 73 bd cd 1b 75 3e 6f 30 79 3e
       0.027122367 -0.059484288 0.23936386 0.24334882
000060 3d e4 07 3e a3 22 1a be fd 75 f3 ba 51 46 01 3c
       0.1327066 -0.15052275 -0.0018574592 0.0078903
000070 5d 66 72 be 2d 0b b7 be 06 ea 10 be 14 cc 1f be
       -0.23671861 -0.35750714 -0.14151773 -0.15605193
000080 34 d3 87 3d 49 12 8d 3d e2 d1 88 3d b6 c3 7b bc
       0.06632081 0.06888253 0.06680657 -0.015366485
000090 b6 ee 4a be 09 4a 70 be e3 c5 3a be a5 4b b2 3e
       -0.19817623 -0.23465742 -0.1823955 0.34823337
0000a0 0a 54 0f 3f e9 7f eb 3e c5 26 1f be 4a 15 9e be
       0.5598761 0.45996025 -0.15542133 -0.30875617
0000b0 8b 26 8f be 03 5e 12 3d d7 82 cd be 51 4a 4f be
       -0.27959093 0.035734188 -0.40138885 -0.20243193
0000c0 9c f8 97 3e aa d5 e3 3e 31 31 9a be 37 6a 80 3d
       0.2968186 0.4449895 -0.30115655 0.06270259
0000d0 dc 1a 83 3e 49 a2 a7 bb 3a 09 c8 3d 52 2c 7f be
       0.2560643 -0.0051157814 0.09767385 -0.2491925
0000e0 81 4c 7b 3d 2b 03 52 be fb 89 92 be f3 7d 35 be
       0.061352257 -0.20509021 -0.28620896 -0.17723827
0000f0 77 50 56 bd d6 28 a8 bd 76 88 3f bd 06 c2 18 3e
       -0.05232283 -0.08210914 -0.046761 0.14917764
000100 81 e2 09 3e 63 35 b9 bd 6e 24 9a 3d c3 66 e3 3e
       0.1346531 -0.09043386 0.0752648 0.44414338
000110 e8 18 2c bf 4d d4 d4 3d db 1b 6b 3e 6f 88 c0 be
       -0.67225504 0.10392056 0.22959845 -0.3760409
000120 cc 79 55 3d 95 bc be 3d 78 78 6c 3d 84 6e 92 be
       0.052118108 0.09313313 0.057732075 -0.28599942
000130 9f f8 d4 be 0f 49 c0 be cc c1 5e 3e 82 58 97 3e
       -0.41595933 -0.3755574 0.21753615 0.29559714
000140 b4 a4 60 3e 91 54 a7 3e c4 0a cb 3e 01 7c da 3c
       0.2193783 0.32681707 0.3965665 0.026670458
000150 6a b0 09 3e b8 2d e7 be e7 01 65 be f6 08 1c be
       0.13446203 -0.45152068 -0.22364007 -0.15237793
000160 5f 73 04 be 28 2a 8e bd 12 af 14 be f8 d7 84 bc
       -0.12934636 -0.069416344 -0.14519909 -0.016216263
000170 c1 3d 70 3e bc fc 2e be 28 2a 11 3f 63 d9 3f 3d
       0.23461057 -0.17088598 0.5670495 0.046838176
000180 57 b1 c2 3c ce 3c 77 3d 96 f9 bd 3d 67 bd 95 3e
       0.023766203 0.060360722 0.0927612 0.29246065
000190 c7 c8 3b 3f d7 58 e6 3e fd aa d3 be ce 07 13 3e
       0.73353237 0.44989654 -0.4134139 0.14358446
0001a0 61 e9 4e 3e a6 b5 d0 be c9 b1 30 bf 0d c1 d0 be
       0.20206214 -0.40763587 -0.6902128 -0.40772286
0001b0 76 a4 dd bd 87 4e 24 3e f3 ca ac bd 3a 37 83 3d
       -0.10822384 0.16045581 -0.08437147 0.06407018
0001c0 69 a9 fd 3e fe 1e 85 3e 9d e4 e5 bd 3e df 2d 3e
       0.49543312 0.26000208 -0.11225245 0.16979691
0001d0 6c d1 50 bd 58 4f ae 3c 58 ea 54 3d f2 eb 23 3d
       -0.05098097 0.021278068 0.0519813 0.040019937
0001e0 47 15 c6 be 32 42 13 3f 46 7b 5a 3c 6d 2d a7 be
       -0.38688108 0.5752288 0.013335055 -0.32651845
0001f0 0d 26 96 bd da 2a 64 3e 3b 15 9d 3d 1b 61 ad 3d
       -0.07331476 0.22281972 0.07670065 0.08465787
000200 aa 8c 49 bd 39 cb 4b 3d d8 07 e0 3e 8a 8b 69 be
       -0.049206413 0.049754355 0.43755984 -0.22807136
000210 ce e3 fa bd 19 92 b8 3e 0a 6d dd be 69 de a6 bd
       -0.122504815 0.36048964 -0.43247253 -0.0814789
000220 ad 3c 3e be 59 77 73 3d 63 e4 0b bf 39 39 5e 3e
       -0.18577833 0.05943999 -0.54645365 0.21701516
000230 f3 44 ae 3e 33 80 2b be 78 de fe 3e da 3b 84 bd
       0.3403698 -0.16748123 0.49779105 -0.06456728

backbone.model0.conv2.conv2.bias f4 [16]
000000 1f 9d 89 36 a9 1a fb 36 e4 05 b2 36 9d 2f a2 36
       4.1012095e-06 7.4834866e-06 5.305499e-06 4.833519e-06
000010 65 17 4c 36 60 93 91 36 22 ab 0a 37 53 4f 87 36
       3.0411986e-06 4.3384935e-06 8.265286e-06 4.032548e-06
000020 fc a7 55 36 2e 5d c0 36 63 5d 65 36 3a f3 ad 36
       3.1837253e-06 5.7328934e-06 3.4178017e-06 5.184117e-06
000030 6d d2 a7 36 99 19 9b 36 9a 6b 73 36 38 79 af 36
       5.0014846e-06 4.62234e-06 3.6272454e-06 5.229518e-06

backbone.model0.conv2.bn.weight f4 [16]
000000 23 e8 ce 3e c4 54 d0 3e 34 3f 1a 3f 16 e5 e2 3e
       0.4041148 0.4068967 0.6025269 0.44315404
000010 95 51 90 3e 5f bc bd 3e cf ee ee 3e 13 01 c3 3e
       0.28187242 0.37057778 0.46666571 0.38086757
000020 82 82 a8 3e 50 18 ab 3e 1d 55 c6 3e 2a f5 a8 3e
       0.3291207 0.33416986 0.3873681 0.32999545
000030 df f7 ec 3e f4 96 ab 3e 0f 94 99 3e 16 91 c0 3e
       0.4628286 0.33513606 0.29995772 0.37610692

backbone.model0.conv2.bn.bias f4 [16]
000000 c1 da a2 3e 57 90 76 3f 07 9e a3 3e 67 cd d2 3e
       0.3180752 0.96313995 0.31956503 0.41172335
000010 f5 2e 67 bd 65 2b 86 bd 38 31 67 3f 68 b5 73 bd
       -0.056441266 -0.065512456 0.90309477 -0.059499174
000020 7b 7b 82 bc 7b aa 35 bc d8 88 cc 3e 60 bb 8c 3e
       -0.01592802 -0.011088009 0.39948153 0.27486706
000030 54 12 80 3f 03 c9 1d bd 48 ab 3a bd 40 73 3d bd
       1.0005593 -0.038521778 -0.045573503 -0.04625249

backbone.model0.conv2.bn.running_mean f4 [16]
000000 68 a2 9a bc 3f cb d8 be 3b cf c1 3e 31 42 84 3e
       -0.01887627 -0.42342564 0.37853417 0.2583175
000010 13 81 25 bb 03 fd da bc c6 dd b3 3e 0a 90 73 ba
       -0.0025253936 -0.026731974 0.35130137 -0.0009291178
000020 fc 28 55 bc 52 e9 de bc 09 a3 ed 3c 1a 9e 52 bd
       -0.01301026 -0.027210865 0.029008405 -0.05142031
000030 ca 9e e6 be 61 da ad 3b 86 c6 37 bc b0 bb 6b ba
       -0.4504302 0.005305574 -0.011216765 -0.0008992506

backbone.model0.conv2.bn.running_var f4 [16]
000000 91 ee 90 3d a3 3c a3 3d 55 3d 47 3d 3d 8c 68 3d
       0.07076753 0.0797055 0.048642475 0.056774367
000010 a9 d3 5e 3b e4 ae e8 3b f5 57 b2 3d 39 f9 0a 3c
       0.003400067 0.0071009267 0.08708183 0.008482271
000020 c8 1e b6 3b 42 d1 e7 3b ef 32 da 3c dd 32 0d 3d
       0.0055578686 0.007074506 0.026635615 0.034472335
000030 85 17 ef 3d c0 18 e1 3b 5d 59 91 3b c2 ae 23 3c
       0.11674408 0.0068694055 0.0044357018 0.009990396

backbone.model0.bn1.weight f4 [16]
000000 bb 84 7a 3e 9b a8 c6 3e 39 78 e4 3e 39 81 d8 3e
       0.24464695 0.3880051 0.44622973 0.4228609
000010 39 1b a9 3e f0 59 ce 3e 00 9a e8 3e 56 bd b8 3e
       0.33028582 0.40302992 0.45429993 0.36081952
000020 8c a0 af 3e c1 50 56 3e a9 90 0f 3f 62 fd 44 3e
       0.34302175 0.20929243 0.5608011 0.19237283
000030 ef f6 9c 3e 22 92 20 3f b2 ee d4 3e 6f a4 4c 3f
       0.30657145 0.6272298 0.4158836 0.79938406

backbone.model0.bn1.bias f4 [16]
000000 c4 5d 95 3e ef 81 ea 3d 07 22 61 3e a1 9b d2 bd
       0.291731 0.11450564 0.21985637 -0.1028359
000010 a1 08 85 3e 34 72 02 bf 11 e1 8c 3e 59 58 a7 3e
       0.25983146 -0.5095551 0.27515462 0.3268459
000020 d2 66 be 3e 5f 22 74 3e 29 e0 0c bf 15 6e 36 3e
       0.3718782 0.23841237 -0.5502954 0.1781543
000030 d4 56 ab 3e 50 f9 d1 be 95 ef 45 3f 26 15 68 bf
       0.33464682 -0.41010523 0.773187 -0.9065727

backbone.model0.bn1.running_mean f4 [16]
000000 be 52 83 c0 d4 5e b0 c1 e0 0f 4f c2 50 73 a6 c2
       -4.1038504 -22.046303 -51.765503 -83.22522
000010 94 24 11 41 be ab 05 c1 4a bd f7 41 19 54 96 c2
       9.07143 -8.354429 30.967426 -75.16425
000020 c4 5c 70 42 eb 8e c2 bf 1a 17 e9 42 fb 2d 0c 41
       60.09059 -1.5199865 116.54512 8.761226
000030 b4 7b 16 40 07 a8 18 c3 3b 80 31 43 ce 85 18 c3
       2.3513002 -152.65636 177.5009 -152.52267

backbone.model0.bn1.running_var f4 [16]
000000 e2 14 80 44 2a c1 ed 45 1e cd 93 46 76 71 50 45
       1024.6526 7608.1455 18918.559 3335.0913
000010 24 30 2c 45 0c 00 9d 44 31 cc 0e 46 53 9d 92 45
       2755.0088 1256.0015 9139.048 4691.6655
000020 b2 a5 93 45 f4 e3 09 44 9c f7 a8 45 29 c0 0c 44
       4724.712 551.56177 5406.951 563.0025
000030 50 b8 e6 44 6c 0b 18 46 9f 94 3c 46 f8 e9 0e 46
       1845.7598 9730.855 12069.155 9146.492

backbone.model1.conv1.conv1.weight f4 [16, 16, 1, 1]
000000 ba e7 3f 3e 0c 77 31 3f 1d 12 b7 bd 1c d1 2a 3d
       0.1874074 0.69322276 -0.08939002 0.04170333
000010 80 14 93 bc 49 0d 00 bd e7 52 e2 be 06 3f ef 3d
       -0.017954111 -0.03126267 -0.44203874 0.11681943
000020 63 76 a9 3c e1 cb 0e 3c d5 e2 bd 3e 65 fc 10 bd
       0.020686334 0.008715601 0.37087122 -0.035396952
000030 ec 57 8e 3c 70 9e bc bd 3a 95 3d 3d 17 f0 d9 bc
       0.017375909 -0.09209907 0.04628489 -0.026603742
000040 4c f6 ac 3e fa 8d 2e be 61 b4 55 3d 36 33 d9 3b
       0.3378166 -0.17046347 0.052173976 0.0066284193
000050 01 81 40 3d a3 4a 49 be 2e 27 82 bd 9b 5c 18 bf
       0.046998028 -0.19657378 -0.06355129 -0.59516305
000060 06 84 ee 3d a7 68 b8 3e 2f 41 cd 3c 59 ac e1 3d
       0.11646275 0.36017343 0.025055496 0.11019201
000070 f4 ce d0 3c 80 a9 03 bf f3 9b 35 bf c1 be aa bd
       0.025489308 -0.5143051 -0.70941085 -0.08337165
000080 4e c9 29 3e 26 cf 35 3e 1a 8e c2 bd 1f b3 54 bd
       0.16580698 0.17754802 -0.0949976 -0.051928636
000090 fc 75 21 be 5e b4 18 3b 18 3f 97 3e fd b4 bf bd
       -0.15767664 0.0023300867 0.29540324 -0.09360693
0000a0 0a 9c 8c be e4 79 3b 3d 7d 7c 00 3c d3 c3 ac be
       -0.27462798 0.04577054 0.00784218 -0.33743152
0000b0 03 91 cc 3d 36 58 8b bc 6e e2 56 be 6b d0 d3 bd
       0.09988596 -0.017009836 -0.20984814 -0.10342487
0000c0 5a 2f 83 be 5d d2 e1 3e ad ef 2d be df 55 46 bd
       -0.25622064 0.44105807 -0.1698596 -0.048421737
0000d0 6e 13 fe bd f1 3e f8 bd 4b 8b e5 be 1d fc aa bd
       -0.1240605 -0.1212138 -0.44832835 -0.08348868
0000e0 da fe a4 bd 66 9e 5a bd aa 4f db bd df 5b c8 be
       -0.080564216 -0.053373717 -0.10708554 -0.39132592
0000f0 49 5e 8b be 68 8f d0 bd 62 be d8 bb 7b 86 5d bd
       -0.2722037 -0.101836026 -0.0066144923 -0.05408333
000100 fc 46 20 3d b4 e9 2f 3e 0e 29 6e 3e a8 f2 cd 3e
       0.039130196 0.17178994 0.23257849 0.40224195
000110 97 fc 93 3c 4b 92 80 3c ab 7e 2a bb 4e 05 70 bb
       0.01806478 0.015694758 -0.0026015441 -0.0036624256
000120 25 cd 90 3c d7 00 31 3d 0a 28 2a bd 32 2d 27 bc
       0.017675946 0.04321369 -0.04154209 -0.0102036465
000130 0d 8f af 3f 10 1b 65 3c 6e 7f 26 bc b1 ba fe 3c
       1.3715531 0.013983503 -0.010162218 0.03109488
000140 c7 7c 6a be b3 50 32 3e 67 11 bd 3c e4 09 5d 3d
       -0.22899161 0.17413597 0.023079587 0.05396451
000150 dc 62 2d bf 2b e1 f5 bc c8 70 56 3e 03 d9 56 3e
       -0.6772897 -0.030014595 0.2094146 0.20981221
000160 98 30 3b bf 96 0f f4 be 19 99 86 3e b4 09 57 3c
       -0.73121023 -0.4766814 0.2628868 0.013124872
000170 32 69 ad 3d 64 c3 41 3e 00 05 42 3e f6 c3 a8 bd
       0.0846733 0.18922192 0.1894722 -0.082405016
000180 6e 71 88 3d ac 45 cd 3e 10 72 82 3d 20 d9 d4 3c
       0.0666226 0.40092218 0.06369412 0.02598244
000190 c7 d1 5b 3d f9 48 bc bc 2d e7 09 bf cf 9e 91 3c
       0.053666856 -0.022984015 -0.5386837 0.017775921
0001a0 11 5d 33 3d 4a 13 35 3d 62 9f e2 3e 7b ca d0 3d
       0.043789927 0.04420785 0.44262224 0.1019487
0001b0 24 87 a1 bb 7d 43 b5 3c 28 31 7d 3c 4c 6a 29 3d
       -0.00492944 0.022126907 0.015453614 0.04136114
0001c0 43 ec 0e be 49 1c 45 3e 33 2a 67 3c c3 68 26 3d
       -0.13957314 0.19249071 0.014109182 0.040627252
0001d0 4b 8f 82 be 5c 83 1e bf 6d d6 89 3e c1 95 53 3e
       -0.2549995 -0.6191919 0.26921406 0.20662595
0001e0 f1 72 72 be 5d fb 9c 3e 8d 15 91 3e cb 88 41 be
       -0.23676659 0.30660525 0.28336754 -0.18899839
0001f0 96 e3 07 3d e1 a5 e6 be a3 60 10 3d 77 7f 08 3f
       0.033176027 -0.4504843 0.03524841 0.53319496
000200 19 c2 f8 3d f0 6e 29 3e 5c 1c 15 bf 80 32 52 3f
       0.12146396 0.16546226 -0.582464 0.82108307
000210 eb 44 8e bb 1b e8 66 bd c6 2a da 3d f8 a9 85 bb
       -0.0043417118 -0.056373697 0.1065269 -0.0040790997
000220 53 bd ce bc 0c bb 97 3b 5a e1 60 3d 1b 24 76 bd
       -0.025236761 0.004630452 0.054902412 -0.060093027
000230 f6 46 ab bc e8 c0 cb bc ab 4d b6 3c e2 9c 9a bd
       -0.02090786 -0.024872258 0.022253832 -0.07549454
000240 5e 7f 28 bf 54 b2 aa be 4b 1a 52 bd 4e 83 33 bd
       -0.65819347 -0.3333918 -0.051294606 -0.043826394
000250 d2 11 5a be 5c de ae 3d 94 77 17 bf 77 09 2f bd
       -0.2129586 0.085385054 -0.59166837 -0.042733636
000260 c9 d0 13 be d8 73 c3 bd 15 6b aa bd 9a 8a b0 3e
       -0.14435114 -0.0954358 -0.083212055 0.34480745
000270 2e e9 15 be c6 b7 02 bd 49 c6 17 bd af b7 02 bd
       -0.14639732 -0.03191354 -0.037054334 -0.031913456
000280 da fa 02 3d 33 2b fd 3e 66 bf 85 39 18 95 ad bc
       0.031977512 0.4944702 0.0002551034 -0.021189258
000290 dd 8a 0d bc d4 05 5c bc e7 1f 19 bf d2 c8 dd bc
       -0.008639065 -0.013429124 -0.59814304 -0.027073298
0002a0 7b 2f c8 3a 97 fa 6c bb c9 9c 54 3e 5d 2b 2b be
       0.0015272939 -0.0036160105 0.20762934 -0.1671576
0002b0 3b 47 08 be 9d e7 8b 3c 7f 48 fd bc 64 07 b5 bd
       -0.13308422 0.017078215 -0.030918358 -0.088393
0002c0 02 01 d6 3d 99 51 0e be 0b 15 7d 3c 64 70 f9 3c
       0.10449411 -0.13898315 0.015446912 0.0304491
0002d0 f8 40 c8 3d 7b da 11 3f 01 d2 8e bd 11 4f d4 be
       0.09778017 0.56974 -0.06973649 -0.41466573
0002e0 e3 bb ca 3d e2 b5 db be a4 59 fb bc 8c 16 bf 3d
       0.09899118 -0.42912203 -0.030682392 0.09330472
0002f0 e6 61 cb bc bd 8f c5 3e 21 6d 06 be 0e 27 39 bf
       -0.024826955 0.38586226 -0.13127567 -0.7232522
000300 56 fc 8c bd 88 c5 fe bd 4f a0 23 3e 22 5b 8e 3d
       -0.06884067 -0.1244002 0.15979122 0.06950976
000310 36 b3 07 3e 66 b4 77 3c 2d be 2d bd 45 9d 09 bd
       0.13251957 0.015118694 -0.042417694 -0.03359725
000320 0f f0 b1 bd 69 5c bb be 3c d7 7a be 4f 99 a7 bc
       -0.08688366 -0.3659394 -0.24496168 -0.020458845
000330 da 18 03 3e 17 c4 dd 3b 17 3c 60 bb 1c 11 1b 3e
       0.12802449 0.0067677605 -0.0034215504 0.15143245
000340 b6 29 64 bd 53 14 a9 3e e7 04 07 3e a8 59 e5 3d
       -0.05570384 0.3302332 0.13185464 0.11198741
000350 ab 52 09 3c 4c 72 53 3e f3 d2 68 3e 9e af aa 3d
       0.008381526 0.2064907 0.2273672 0.083342776
000360 14 2d e5 3d 87 88 93 3d d1 0f 1e 3f a7 66 04 bd
       0.111902386 0.07203775 0.61742884 -0.03232446
000370 db ce fa 3d d6 91 0d 3e 0e a8 a1 3d f7 e1 28 3d
       0.12246486 0.13825163 0.07893382 0.041231122
000380 d9 25 36 3f 80 d1 41 3e 38 37 28 3c aa fe 98 bc
       0.711515 0.18927574 0.010267071 -0.01867612
000390 32 88 4b 3d d0 05 ac bc a7 af a5 3e 39 ed f5 bd
       0.049690433 -0.020998865 0.32360575 -0.12008137
0003a0 61 08 4e bd 0f c1 fa 3c 38 a2 16 3d 44 3a 17 bf
       -0.05030096 0.030609636 0.036775798 -0.5907328
0003b0 65 e3 d5 3b 55 87 1f 3b 91 6f d4 bc c6 76 b1 3d
       0.0065273517 0.0024342139 -0.025932105 0.08665232
0003c0 fc cd 86 3c 0e f9 d9 be c2 aa 74 3f 2f b3 d8 3e
       0.016455643 -0.42572826 0.95573056 0.42324206
0003d0 b8 ee a5 3d 81 9d a2 3c 06 17 d7 3d 0e df 22 bd
       0.081021726 0.019850494 0.10502438 -0.039763503
0003e0 03 fc 1b 3d 52 95 04 bd 9c e0 98 3e eb 74 d9 3c
       0.038082134 -0.032368965 0.29858863 0.026545009
0003f0 1c 06 3e 3e bc 9f 97 bc 30 b1 87 bd 45 4e 56 3d
       0.18557018 -0.018508784 -0.06625593 0.052320737

backbone.model1.conv1.conv1.bias f4 [16]
000000 f3 c5 12 be 3a 81 c0 bd 1f a5 cd bd c6 f3 9e 3e
       -0.14333324 -0.09399648 -0.1004126 0.3104536
000010 aa fa 07 be 54 af 83 bc 4c 2c 81 be 8d e3 15 bd
       -0.13279215 -0.016074814 -0.25229108 -0.036593962
000020 d2 8d 16 bd 34 51 29 3e 25 2e 4c 3e dc a0 de bc
       -0.036756344 0.16534883 0.19939478 -0.027176313
000030 79 7c 15 3e 29 f9 2a be 0b 4a 32 3b 02 d1 fd bd
       0.14598264 -0.1669661 0.0027204778 -0.12393381

backbone.model1.conv1.conv2.weight f4 [16, 1, 3, 3]
000000 93 30 21 bf f1 9f 4b bf 04 ff 13 bf 9f 51 ce bd
       -0.62964743 -0.79540926 -0.57811 -0.10074162
000010 e4 65 1f 3f d9 b8 4e be 90 0c 90 3e 2e cb 9c 3f
       0.6226485 -0.20187701 0.28134584 1.2249506
000020 9c f5 5d 3e c9 eb cd 3d 2e 3c 3c 3f e1 d6 8f 3d
       0.21675724 0.10054738 0.73529327 0.07023407
000030 4d c6 e8 bc 52 17 62 3e d3 e9 94 bd 56 7f 58 bc
       -0.02841487 0.22079208 -0.07271161 -0.013213953
000040 31 74 ce bc 98 ff cc 3b e0 18 d2 3d 78 3c 0f 3f
       -0.025201889 0.006256055 0.10258651 0.55951643
000050 45 6d c2 3d 26 1f 33 3a 77 8c 24 bf 86 3f 0b 3d
       0.09493498 0.00068329496 -0.6427683 0.033996128
000060 68 ab 34 bd 6c b0 be bc d2 57 56 3c 0b 2e 18 be
       -0.04410878 -0.023277484 0.013082461 -0.14861314
000070 9a 4f dc 3e 41 13 3e bb 9d 86 9f be cd af 4b 3f
       0.4302948 -0.0029003175 -0.3115739 0.79565126
000080 ee 52 0f 3e d3 0e 7e bd bb 6c db be 00 8e f0 bd
       0.13996479 -0.062025856 -0.42856392 -0.11745834
000090 07 4f 66 bd 9f 25 e3 3d 57 60 a1 bd 7f a5 3d 3e
       -0.05622771 0.1109116 -0.078797035 0.18520163
0000a0 81 45 6e bf af b0 ea 3d e0 08 45 bd 51 51 28 3e
       -0.93074805 0.11459481 -0.048104167 0.1643727
0000b0 04 0a ac bd a6 0f 61 3d f9 cf 26 bf e1 05 de 3c
       -0.08400348 0.054946564 -0.6516109 0.027102413
0000c0 7f a9 82 3c 43 0f ec be 9f d5 1e 3d fd 24 34 bd
       0.015949963 -0.46105394 0.038777944 -0.043980587
0000d0 49 44 d3 bc ff 4a 20 3d 5d 55 33 3f 88 40 e4 3d
       -0.025789397 0.03913402 0.7005213 0.11145121
0000e0 f5 ab 42 bf a1 21 79 3f 37 e2 3b be d1 a0 6c bf
       -0.76043636 0.9731694 -0.18348013 -0.92432886
0000f0 8a 18 ae 3e b7 75 29 bc 3c 34 5a be 32 28 0e bc
       0.34003097 -0.010343007 -0.21308988 -0.0086765755
000100 11 70 67 3e d8 36 97 3c 94 a1 17 3d 8f 72 11 3f
       0.22601344 0.018458769 0.037019327 0.5681543
000110 f6 8a 58 3d 58 54 73 bc bb f6 c4 3a 99 43 b9 3c
       0.0528669 -0.014851652 0.0015027145 0.02261524
000120 f1 02 5e 3d 0b 7f ea bd 1b d3 a4 3d a4 1a 36 bd
       0.054202024 -0.11450013 0.08048078 -0.044459
000130 ba 0b fe 3e f5 e5 8c 3c e0 cf 29 bd 2c e8 54 3e
       0.49618322 0.017199496 -0.04145801 0.20791692
000140 f8 8f 95 bd bb b1 4d bd 3d 74 5d bb e3 05 ad bc
       -0.073028505 -0.050218325 -0.0033791207 -0.021120971
000150 4e 22 06 be b9 17 82 3f 6e 8e b0 bd e7 2a 33 3d
       -0.13099024 1.016349 -0.08620916 0.043742087
000160 fb a7 e7 bd 69 ff cb 3b 90 9e a1 3d 05 92 4b 3e
       -0.113113366 0.0062255156 0.078915715 0.19879921
000170 c5 91 37 be 72 4a 98 3e 06 3c 8c 3f 7b 05 5c bf
       -0.179267 0.29744297 1.0955818 -0.8594586
000180 9e cb c4 bd 36 a9 3e be 77 01 84 be 45 e7 88 3c
       -0.096091494 -0.18619236 -0.25782368 0.01671184
000190 40 96 d0 3e 79 f0 32 3e de 52 d7 bc 07 2b cb 3e
       0.40739632 0.17474546 -0.026284631 0.39681265
0001a0 90 1a d8 3d 51 0a ff 3c 4f db 9e bc e9 0f 43 bc
       0.105519414 0.031132849 -0.019391684 -0.011905649
0001b0 75 05 31 3d 75 ae df 3e de 15 b0 bc 97 36 8f 3d
       0.043218095 0.43687788 -0.021494802 0.06992834
0001c0 1b af 02 bf 54 13 07 be fd f5 eb 3c ba 6b 99 3d
       -0.5104844 -0.13190967 0.02880382 0.0749125
0001d0 1a 0d c8 bc fa 24 35 3c f3 56 7e 3c ff c2 ac bb
       -0.02442031 0.011056179 0.01552366 -0.005272269
0001e0 03 e5 8b 3d 61 7b 4f bf ad ff 02 3d 15 a3 25 bd
       0.0683079 -0.81047636 0.031982113 -0.04043873
0001f0 01 60 2c 3e e6 24 c6 bc 2f 62 17 bd 8d d9 e4 3d
       0.16833498 -0.024187516 -0.03695887 0.11174307
000200 44 0c 41 bd 38 40 54 bd b5 7f 56 3f c2 5a 5a 3c
       -0.047130838 -0.051819056 0.83788615 0.013327302
000210 dc b3 4d 3d 35 ac 0f be 82 08 07 3d a6 82 81 3d
       0.050220355 -0.14030536 0.032967098 0.06323747
000220 ca a6 48 bc 4d 98 65 3d 69 72 87 bd 35 8f 2f 3f
       -0.012246797 0.05605345 -0.06613619 0.6857789
000230 03 0f 04 bd c4 0c c9 bd d7 f9 a2 3d f0 88 95 bd
       -0.03224088 -0.09816888 0.079578094 -0.073015094

backbone.model1.conv1.conv2.bias f4 [16]
000000 4a a0 96 36 ab 70 a5 36 ef cd a6 36 40 08 a2 36
       4.4890085e-06 4.9304995e-06 4.9711593e-06 4.8289367e-06
000010 7b 6b bb 36 a0 6e 9c 36 59 82 a4 36 aa d5 93 36
       5.5855467e-06 4.6620407e-06 4.9027553e-06 4.405815e-06
000020 b5 8b 9f 36 02 78 93 36 96 b2 ac 36 2f 42 9b 36
       4.7548333e-06 4.394912e-06 5.1467896e-06 4.6270648e-06
000030 aa c8 9e 36 b0 1f b2 36 a2 8a 96 36 80 64 b5 36
       4.7321273e-06 5.3085023e-06 4.4864873e-06 5.40592e-06

backbone.model1.conv1.bn.weight f4 [16]
000000 b3 ac cd 3e 77 9a bd 3e bf 24 b9 3e 3f f7 81 3e
       0.40170822 0.3703191 0.36160848 0.25383946
000010 0b ed e9 3e 8d f9 9c 3e 5e da d6 3e b1 fe b8 3e
       0.45688662 0.30659142 0.41963476 0.36131814
000020 9a 28 cd 3e b2 95 06 3f c8 dc a3 3e 54 ea c5 3e
       0.4007004 0.52572167 0.3200438 0.3865534
000030 f9 44 9f 3e 60 cd 9a 3e 4e 49 c0 3e 01 ba df 3e
       0.3110731 0.30234814 0.37555927 0.43696597

backbone.model1.conv1.bn.bias f4 [16]
000000 67 7f f4 3d 47 f7 42 3f 1f 66 fe 3a ac 61 41 3f
       0.119383626 0.76158565 0.0019409097 0.7553966
000010 57 bb e5 3e 93 7b f4 3e 3e e0 0d 3e 24 f9 83 3e
       0.4486949 0.4775053 0.13855073 0.25776017
000020 47 29 dc 3e 37 71 aa 3d 15 20 a2 3e 89 fc ae 3e
       0.43000242 0.08322375 0.31665102 0.34177044
000030 54 5c 9d 3c ca 21 32 3f b9 ba e0 3d 4d d6 a4 3e
       0.019209065 0.6958281 0.109731145 0.3219475

backbone.model1.conv1.bn.running_mean f4 [16]
000000 b0 37 82 3c bf 02 94 be 9f 8c b5 3c b0 fe 0f be
       0.015895694 -0.28908345 0.02216178 -0.14062
000010 76 ed 8e bf 17 d1 99 be 42 9e c7 36 a2 41 bc 3e
       -1.1166217 -0.30042335 5.949086e-06 0.36768824
000020 58 0a 58 3e da b4 4b bf 26 f9 2a ba c7 3f 92 be
       0.21097696 -0.7957283 -0.00065221114 -0.28564283
000030 2f 6c f0 b9 44 a5 14 bf 1f 86 ee 3e 0a 21 a6 3e
       -0.0004585697 -0.58064675 0.465867 0.32447082

backbone.model1.conv1.bn.running_var f4 [16]
000000 27 50 83 3e ec 94 1a 3e 30 7a d3 3c 35 7e 26 3d
       0.2564709 0.15095872 0.0258151 0.040647704
000010 f5 91 2e 3e eb 26 ef 3d 97 0f 71 3e 0c f3 4d 3d
       0.17047866 0.11677345 0.23541103 0.050280616
000020 27 c0 82 3d 0d 25 a6 3d f2 0a 8c 3d 9f 3b 9a 3d
       0.063843064 0.081125356 0.06838025 0.07530903
000030 6b 57 28 3c 9d ea 29 3d 8a a3 b5 3d b7 a1 c5 3d
       0.010274748 0.04148351 0.08869083 0.09649985

backbone.model1.conv2.conv1.weight f4 [32, 16, 1, 1]
000000 a6 c2 0e be 64 81 b2 be 4d af d1 bd 82 d9 6e bd
       -0.1394144 -0.34864342 -0.10238514 -0.0583129
000010 fa 9e a6 3e e4 d9 17 be 25 d0 b0 bd 9a e1 89 3b
       0.32543164 -0.14829212 -0.086334504 0.004207802
000020 29 aa 5d 3c 94 3f c0 bc ac b5 3c 3e 2d a2 fd bd
       0.013529339 -0.023467816 0.18428677 -0.12384448
000030 4c c3 38 bd 66 81 11 3d d1 aa 84 bd 4d 17 61 be
       -0.045108125 0.035523795 -0.06477893 -0.21981545
000040 9b a0 94 bd f7 a7 e3 3e 75 62 bd 3d b8 d7 02 3c
       -0.072571956 0.44464085 0.09247295 0.007986002
000050 98 0d 52 bd 23 31 b3 3e 06 c0 12 3e cf d8 88 3e
       -0.051282495 0.34998426 0.14331064 0.26727912
000060 aa 38 9a 3d 7d ec 57 3d 66 88 f0 bd d6 3b 16 3e
       0.07530339 0.052715767 -0.11744766 0.14671263
000070 5b 09 57 bd 40 ad cc 3d 7a 52 ff 3c 2e 35 35 3d
       -0.052499156 0.09993982 0.031167258 0.04424017
000080 ac 4e 0c 3e 44 bc a4 3e 8b 94 5e 3e 1b 00 23 3e
       0.13701886 0.32174885 0.21736352 0.15918009
000090 01 45 97 bd 41 5e d8 bd 0d 9b 0a be 4e d6 c0 bd
       -0.07386208 -0.105648525 -0.1353571 -0.094158754
0000a0 8b bf c2 3c 58 28 9c 3e 3a 8f 6b 3c 7b db 21 3e
       0.023772975 0.3049953 0.01437741 0.15806381
0000b0 05 b7 7a 3e 5a e6 0a be 18 d9 44 bd 3f e6 88 3d
       0.24483879 -0.13564435 -0.0480586 0.06684541
0000c0 d6 89 88 3d 76 48 16 3d 80 e2 9b 3d 29 23 2c bd
       0.06666915 0.036690198 0.07611561 -0.04202572
0000d0 88 10 26 bf ff f0 1d 3d b7 e8 94 bd 27 2c 24 3c
       -0.64868975 0.03855991 -0.07270949 0.010020292
0000e0 ef 2e 0e bd 22 ec 88 bc 6b b1 78 3d bb 72 f0 3c
       -0.034712728 -0.01671416 0.060716074 0.029351583
0000f0 dd 64 f7 bb 99 91 d2 3e a6 05 b5 3d ca 7b 2c bc
       -0.0075498656 0.41126707 0.08838968 -0.0105275605
000100 0d 78 5e 3d 37 02 dc 3e 47 41 00 bd c7 dc 4e 3e
       0.054313708 0.4297044 -0.031312253 0.20201407
000110 bb 79 36 3d 99 1d 25 bd 06 2e 56 3d 47 d9 a3 bd
       0.044549685 -0.04031143 0.052289985 -0.08000427
000120 7b e2 63 3b 1f a0 9e be 67 41 21 3d 8d 81 02 3e
       0.0034772444 -0.30981538 0.039369013 0.12744732
000130 e1 be 05 bd ca ff f8 3b f0 39 9b 3c 11 07 53 be
       -0.03265274 0.007598852 0.018948525 -0.20608164
000140 92 7b ee bd 5a df cb be 8e ed bd bd 90 99 44 be
       -0.11644663 -0.3981884 -0.092738256 -0.19199204
000150 d6 a1 5e 3d 7c 02 74 3d b8 48 75 3e 85 fc 02 bf
       0.054353558 0.05957268 0.23953521 -0.51166564
000160 b9 bc dd bc cf 0e 98 3a fb 12 09 be 6a ae 9a 3e
       -0.027067529 0.0011601093 -0.13386147 0.30211192
000170 7f 09 98 be 5f 4f 9c be 42 1c 47 be ce 6f f8 bb
       -0.29694745 -0.30529305 -0.19444373 -0.0075816875
000180 7e 08 45 3e 6c 4e 6e 3e b8 50 f0 3e 4a cb 5f be
       0.19241521 0.23272103 0.46936584 -0.21854892
000190 b7 ee 00 be dd 1e 07 3e fc db 00 3d 2d ea 57 3d
       -0.12591062 0.13195367 0.031459793 0.05271356
0001a0 17 0c c8 ba 5c 0d a8 3e a7 85 91 bd 6b 89 09 3e
       -0.0015262392 0.32822692 -0.0710557 0.13431327
0001b0 47 77 a5 3e 5c f5 2f be f0 a8 5a 3e 6b 22 09 3c
       0.32317564 -0.17183441 0.21353507 0.008370022
0001c0 1c 3c cb bd 8e 55 de 3e 2c d1 d0 bd 42 72 82 3c
       -0.09923574 0.43424648 -0.10196146 0.015923623
0001d0 f5 9a e8 3b 4a 78 6d 3c 48 e1 9c bc 6b 5d 4a 3e
       0.0070985504 0.014494011 -0.019150391 0.19762199
0001e0 ea fd 6f 3e 8e be 2e 3e 82 27 e1 3c c0 6b 9e 3d
       0.23436704 0.17064878 0.02748466 0.077353954
0001f0 9d a6 b4 3b 46 f4 d6 3e 7c 10 ce bd 9e 09 4b 3e
       0.005513026 0.4198324 -0.10061738 0.19827887
000200 13 89 e7 3e 97 cb c9 bd 72 b9 5d 3d 4d a4 2a 3d
       0.45221767 -0.09853285 0.054131933 0.041660596
000210 28 0c 14 bd 66 54 47 be 7c 14 f8 3e a5 f4 90 bc
       -0.036144406 -0.19465789 0.48453128 -0.01769478
000220 23 b1 a2 bb 60 b0 47 3d 98 7e 93 3e 09 29 01 3e
       -0.004964964 0.04875219 0.2880752 0.1261331
000230 9c f6 55 bd f4 03 b7 bd d2 df bf be f7 67 c4 3c
       -0.05223714 -0.08936301 -0.3747545 0.023975356
000240 71 9b 5f 3d fc 94 0f be 6f 1b 87 3c 6e b5 40 be
       0.0545916 -0.14021677 0.016492574 -0.1881921
000250 85 94 41 bd 3b 0f ac be 4b 2e 2a 3c ec 70 cf be
       -0.04726078 -0.3360537 0.010387014 -0.4051584
000260 89 3b 2d 3c 53 20 6b 3e 20 a0 28 bd 8b 5a 15 3f
       0.010573276 0.2296155 -0.041168332 0.5834128
000270 58 b1 6c be e0 57 b8 bd 9e 02 8e bc 0d ed 55 bd
       -0.23114526 -0.09001136 -0.017335232 -0.052228022
000280 f1 96 a1 3e e8 c9 46 bd 3d 32 83 3d 6d b3 c1 ba
       0.31560472 -0.048532397 0.064060666 -0.0014778204
000290 72 90 a8 bb 1e 5f 3a bc ef 88 d0 be be a5 f1 3c
       -0.0051441723 -0.011375217 -0.40729472 0.029497977
0002a0 9a 29 79 3a 54 c1 61 3e 9e d0 d5 bc 17 f6 db 3d
       0.00095047953 0.22046405 -0.026100453 0.10740297
0002b0 2a 64 98 3e ac c9 2d be 40 6a 37 be aa c6 58 3d
       0.2976392 -0.16971463 -0.17911625 0.052923836
0002c0 c4 93 fe 3d 77 e6 d6 bd 07 6c 61 bc 05 66 c1 be
       0.12430528 -0.104931764 -0.013758666 -0.37773147
0002d0 be 55 11 be 4e 7d 3c be c8 26 72 bd 8c 0d 91 3e
       -0.14192864 -0.18407175 -0.059119016 0.28330648
0002e0 73 dc 0e 3d 70 6e a6 bd 44 d3 b0 3c 2b a6 11 be
       0.034878206 -0.08126533 0.021585114 -0.14223544
0002f0 24 5a 80 3d a5 d1 b0 be 5f 4f 53 3c 92 da 3e 3f
       0.06267193 -0.34534946 0.0128973415 0.7455226
000300 94 3b f9 bd 5f cf 33 3d 1d 7d c0 bd 08 86 b6 3e
       -0.12169567 0.043898936 -0.093988635 0.35649133
000310 21 2b fe bd 79 b9 57 3d 10 f8 90 3e 27 cc 6c 3e
       -0.1241057 0.052667115 0.28314257 0.23124753
000320 65 b8 d3 3c 9a 8f 8c be cc 98 ca 3e af 5f b1 3b
       0.025844762 -0.2745331 0.395697 0.0054130177
000330 db 7b 46 3e 61 ee 93 bc b9 26 63 3e 45 fe 8d 3d
       0.19383185 -0.018058004 0.2218274 0.06933264
000340 83 ee 2d bf 97 92 1e 3d 1f 2f 63 3e fb 59 26 3e
       -0.67942065 0.038714018 0.22185944 0.16245262
000350 27 65 26 3e 98 0c 82 be 35 0e c7 bd 71 e5 46 bd
       0.16249524 -0.25400233 -0.09719507 -0.048558656
000360 3e 92 bc bd 98 db 69 be 99 10 1b 3e 77 eb 2a bb
       -0.09207581 -0.22837675 0.1514305 -0.002608029
000370 0a 53 5f be 17 bd 63 3e fa 3e 51 3c 10 67 34 3d
       -0.2180902 0.22240101 0.012771362 0.0440436
000380 bd 98 fe bd ff 88 0a bf 3c 49 bb be ee bd 22 3e
       -0.12431476 -0.5411529 -0.3657931 0.15892765
000390 80 6c 2d be 7a 4c a5 be 07 fb 19 3e 00 e1 a9 3e
       -0.1693592 -0.3228491 0.15037166 0.33179474
0003a0 c9 b2 6d 3d ca 1f 46 be 54 f0 e3 bd 8d 13 a2 be
       0.05803183 -0.19348064 -0.11129823 -0.3165554
0003b0 f6 1b 9d bd 03 74 31 be 23 be bb bc e4 b1 60 bc
       -0.07671349 -0.17329411 -0.022917813 -0.013714287
0003c0 7d 04 83 3d 75 e0 5a 3e dd f5 11 bc d1 36 02 3f
       0.063973404 0.21374686 -0.008908716 0.50864893
0003d0 0f 2b 36 3b 8b b3 f3 bc 88 32 52 bf dd db a3 bd
       0.002779666 -0.029748699 -0.82108355 -0.0800092
0003e0 26 e9 20 bd 4f ba 92 bd db f8 e0 be d8 3f 42 3e
       -0.039284848 -0.07164442 -0.43939862 0.18969667
0003f0 3b e6 a4 3d c6 b1 65 bd d5 86 7c bd 89 fc c9 3c
       0.080517255 -0.05607774 -0.061652023 0.024656551

backbone.model1.conv2.conv1.bias f4 [32]
000000 2b df b2 3e d1 0e 8d bd e2 39 75 3c 70 ca 3d 3e
       0.3493589 -0.06887592 0.014967414 0.18534255
000010 50 d6 c6 bd f1 3a 84 3d 19 84 da bc 5e ee 9e be
       -0.097088456 0.06456555 -0.026674317 -0.31041235
000020 2d a2 c4 bd d6 2c c4 ba 01 35 90 3c 08 55 92 bd
       -0.09601245 -0.0014966975 0.0176034 -0.07145125
000030 9a 32 d6 bc 23 bb 5e 3b b4 c8 cf 3c 86 c3 77 bd
       -0.026147176 0.0033986054 0.025364257 -0.0604892
000040 a3 70 06 bc 3e 27 16 be 3b ef 95 bd b4 84 7a bb
       -0.008205566 -0.14663407 -0.0732102 -0.003822607
000050 26 2d b6 3d 48 e3 4d be 7e e1 3f bd c2 e1 2a bc
       0.0889533 -0.20106232 -0.046845905 -0.010429801
000060 eb e3 c2 bc 06 d9 f5 3d 39 3a 96 3e a4 95 10 be
       -0.02379032 0.120042846 0.29341295 -0.14119583
000070 a2 77 1b bd 07 fd 0c bf 1c ac 18 be 15 5b 75 3d
       -0.037955888 -0.5507359 -0.14909405 0.059901316
