weights/yunet_n.pth (torch, 747497 bytes, 320 tensors)

backbone.model0.conv1.weight f4 [16, 3, 3, 3]
0.023541633 -0.5516204 0.05802684 0.17218405 0.007552068 0.09127115 0.0013125985 0.09854312
0.011912392 -0.004360332 -0.7103558 0.0135031855 0.26545453 0.0020338027 0.13937204 0.005390895
0.05974949 -0.013382771 0.030885004 -0.5340028 0.1109963 0.2849788 0.1677087 0.26343793
-0.08296924 0.090226315 -0.0057137413 0.21984027 0.20804122 0.14335938 0.24973765 0.23923624
0.27358687 0.34322408 0.35857272 0.323125 -0.22939989 -0.29896507 -0.3129184 -0.30804506
-0.3957236 -0.31125376 -0.24157867 -0.3093735 -0.28645432 0.12397634 0.14542545 0.07884624
-0.017421933 0.018671736 0.087994955 -0.080638506 -0.011641158 0.038565837 0.15010688 0.078328274
0.022701621 -0.35851148 -0.15484539 0.2187267 -0.12817399 -0.0003017658 0.13887265 0.08117474
0.18220526 0.29850662 -0.5909428 -0.20236401 0.38793486 -0.33903468 -0.088926494 0.22150952
0.13105644 0.1236268 0.21576846 -0.5003463 -0.25321445 0.27623793 -0.15229471 -0.042239882
0.20288205 0.12703638 0.24033727 0.083368845 0.22442922 0.3909698 0.19913594 -0.018551178
0.05089689 -0.055428285 0.23774347 0.27122593 0.21403708 0.2968532 0.37421572 0.28297246
0.22145127 0.20624985 0.18548203 -0.38289374 -0.50466084 -0.34754407 -0.40680462 -0.47582212
-0.34417078 -0.22432292 -0.3428415 -0.1570332 -0.26666078 -0.3504002 -0.31411868 -0.25000525
-0.22074507 -0.2098658 -0.13493322 -0.13325068 -0.13712128 0.44662082 0.41863486 0.36931807
0.46297404 0.5708977 0.5083607 0.29601324 0.37520173 0.3458453 0.0067059975 -0.24142662
-0.092786275 -0.18500537 -0.30456853 -0.12687606 -0.23391706 -0.3377098 -0.1191924 0.016400585
0.0660973 0.0502474 -0.030846216 -0.0599475 -0.07442949 -0.025430165 -0.08447756 -0.0038647815
0.16417363 0.2511632 0.2131831 0.09068831 0.09827456 0.039658632 0.04772067 0.0127105415
0.045059066 0.09729027 0.13876683 0.106527634 -0.010690258 -0.04516612 -0.08043133 -0.05237236
-0.14152054 -0.09219921 -0.01947633 0.11870132 -0.17236374 0.22914636 0.21388267 -0.31079078
0.03645637 -0.06634477 -0.04595659 0.10335421 0.10560745 -0.33447284 0.3939002 0.22493318
-0.49821505 0.17344691 -0.03565027 -0.17209552 0.09903066 0.11100219 -0.33693767 0.38605475
0.23015177 -0.49454185 0.20849401 -0.007514502 -0.17056738 -0.010025549 -0.056099202 -0.07065891
0.023072256 -0.19634855 0.111027405 0.16096076 0.08114371 0.14081159 -0.06265388 -0.1240497
-0.07416267 -0.17379175 -0.43964013 -0.048161846 -0.06677032 -0.21226981 -0.08834814 0.03414099
0.060827516 -0.015452644 0.013355066 -0.15707424 0.09699022 0.053419232 0.0049573025 0.025197977
0.052929997 0.25988328 0.17156115 0.085336365 -0.040548176 0.058115948 0.15090632 -0.5236473
-0.2430354 0.27372155 0.50980955 0.37859502 0.10595656 -0.05688391 0.06062968 -0.04056713
-0.8103188 -0.46306482 0.14049897 0.4902083 0.3171546 0.09534844 0.04992839 0.07125555
-0.037555 -0.6617352 -0.40867656 -0.052512173 0.12383779 0.17253083 0.107287906 -0.27421257
-0.342764 -0.0054161674 0.15028568 0.017779952 0.04230382 0.1309092 0.123705454 0.16910373
00000000: 62da c03c ff36 0dbf 8dad 6d3d 0451 303e
00000010: 5777 f73b 5eec ba3d 7f0b ac3a fad0 c93d
00000020: 322c 433c 1ee1 8ebb e1d9 35bf 773c 5d3c
00000030: a8e9 873e 8c49 053b 8bb7 0e3e 1ba6 b03b
00000040: e2bb 743d 6943 5bbc 8c02 fd3c 68b4 08bf
00000050: 0752 e33d bee8 913e d4bb 2b3e 56e1 863e
00000060: c7eb a9bd 93c8 b83d 563a bbbb cf1d 613e
00000070: c208 553e cdcc 123e 3abb 7f3e 58fa 743e
00000080: 9413 8c3e 11bb af3e d896 b73e a470 a53e
00000090: cee7 6abe f311 99be d736 a0be 15b8 9dbe
000000a0: 499c cabe a75c 9fbe 6660 77be 3466 9ebe
000000b0: 24aa 92be 4fe7 fd3d 69ea 143e 237a a13d
000000c0: 71b8 8ebc 78f5 983c b336 b43d cd25 a5bd
000000d0: 8eba 3ebc 36f7 1d3d 9eb5 193e 936a a03d
000000e0: c0f8 b93c d18e b7be ca8f 1ebe e4f9 5f3e
000000f0: 0b40 03be 5236 9eb9 a234 0e3e f13e a63d
00000100: 0494 3a3e dcd5 983e 0748 17bf 8338 4fbe
00000110: 669f c63e f495 adbe 181f b6bd 64d3 623e
00000120: a933 063e 0c30 fd3d 68f2 5c3e b216 00bf
00000130: 53a5 81be 0f6f 8d3e 25f3 1bbe ba03 2dbd
00000140: 50c0 4f3e d315 023e f91a 763e 49bd aa3d
00000150: c6d0 653e 322d c83e 4bea 4b3e a4f8 97bc
00000160: 4279 503d c508 63bd 0673 733e 20de 8a3e
00000170: 892c 5b3e 25fd 973e 3499 bf3e c4e1 903e
00000180: 1fc4 623e 2933 533e 00ef 3d3e a60a c4be
00000190: 7431 01bf 4cf1 b1be b248 d0be f59e f3be
000001a0: 2737 b0be e8b4 65be ec88 afbe 50cd 20be
000001b0: c387 88be a867 b3be 2ad4 a0be b000 80be
000001c0: ff0a 62be 0fe7 56be ef2b 0abe de72 08be
000001d0: 8569 0cbe 7cab e43e 4f57 d63e 4217 bd3e
000001e0: ef0a ed3e 5a26 123f ed23 023f 0c8f 973e
000001f0: 711a c03e a312 b13e fcbd db3b 8a38 77be
00000200: bb06 bebd 0c72 3dbe 68f0 9bbe cceb 01be
00000210: f487 6fbe 4de8 acbe 251b f4bd 855a 863c
00000220: 055e 873d 38d0 4d3d 34b1 fcbc 828b 75bd
00000230: 7d6e 98bd ec52 d0bc 9202 adbd 4648 7dbb
00000240: 221d 283e 7798 803e ac4c 5a3e cbba b93d
00000250: 2c44 c93d 1771 223d c076 433d e03f 503c
00000260: db8f 383d 1f40 c73d e418 0e3e 292b da3d
00000270: 3126 2fbc 1c00 39bd 2eb9 a4bd 6684 56bd
00000280: c3ea 10be f0d2 bcbd d38c 9fbc ad19 f33d
00000290: 1f80 30be 58a5 6a3e 0f04 5b3e f81f 9fbe
000002a0: 4653 153d c4df 87bd fa3c 3cbd 5fab d33d
000002b0: b848 d83d 0640 abbe 49ad c93e e254 663e
000002c0: 0b16 ffbe 119c 313e 0406 12bd cf39 30be
000002d0: 96d0 ca3d 1e55 e33d 1883 acbe f8a8 c53e
000002e0: e8ac 6b3e 9734 fdbe 747f 553e 363c f6bb
000002f0: 37a9 2ebe 3342 24bc 47c8 65bd 9eb5 90bd
00000300: 0702 bd3c 980f 49be 5662 e33d e6d2 243e
00000310: ac2e a63d ea30 103e ad50 80bd c50d febd
00000320: 99e2 97bd 77f6 31be 8318 e1be 5b45 45bd
00000330: e1be 88bd 425d 59be dfef b4bd 6cd7 0b3d
00000340: 4626 793d 162d 7dbc 35cf 5a3c 12d8 20be
00000350: cfa2 c63d 20ce 5a3d de70 a23b fd6b ce3c
00000360: 20cd 583d 6c0f 853e baad 2f3e d5c4 ae3d
00000370: d815 26bd fd0a 6e3d 3087 1a3e c00d 06bf
00000380: 46de 78be 3b25 8c3e e182 023f 35d7 c13e
00000390: c1ff d83d 1aff 68bd d456 783d b829 26bd
000003a0: 0e71 4fbf d516 edbe f6de 0f3e 95fc fa3e
000003b0: 1662 a23e 0b46 c33d b681 4c3d 6eee 913d
000003c0: 46d3 19bd 7a67 29bf 0e3e d1be 0117 57bd
000003d0: ab9e fd3d ecab 303e c3b9 db3d 9765 8cbe
000003e0: c37e afbe 1b7a b1bb 7de4 193e 43a7 913c
000003f0: c546 2d3d 100d 063e 4959 fd3d 8729 2d3e

backbone.model0.conv1.bias f4 [16]
4.8681695e-06 4.8749953e-06 4.873011e-06 4.8703264e-06 4.8792826e-06 4.8737143e-06 4.866344e-06 4.8473794e-06
4.867726e-06 4.8667875e-06 4.857184e-06 4.8586003e-06 4.8618963e-06 4.863196e-06 4.8683673e-06 4.8738507e-06
00000000: 4259 a336 e493 a336 d982 a336 c96b a336
00000010: b8b8 a336 e388 a336 9449 a336 aca6 a236
00000020: 7355 a336 634d a336 e5fa a236 0f07 a336
00000030: 5f23 a336 892e a336 f55a a336 0f8a a336

backbone.model0.conv2.conv1.weight f4 [16, 16, 1, 1]
-0.47626546 -0.0301523 -0.11806938 -0.04717907 -0.033748813 -0.006743185 -0.10169961 0.08744909
0.31657818 0.10270774 -0.031603143 0.04013828 -0.44862738 0.07409457 -0.20089407 0.037239563
-0.020438854 -0.07190034 -0.041277274 0.28619558 -0.29655904 0.013840155 -0.07025867 -0.13020512
0.012568127 -0.026253613 -0.15460806 -0.46534747 -0.018780371 -0.048795566 -0.046004657 -0.7784326
0.12986326 0.018013895 0.15592144 -0.010135298 -0.060952783 0.19640347 -0.18616174 0.027834713
-0.3556172 -0.15064752 0.22584368 0.09396986 0.17043202 -0.2266241 0.30232197 0.065768436
0.08055321 0.0024982153 -0.14025025 -0.10171332 -0.108655445 -0.17016627 -0.082798146 -0.11856921
0.19050841 -0.1547854 -0.2866498 -0.14858203 -0.097855575 0.36624616 -0.12927258 -0.14326249
0.102934934 0.41119453 -0.099809006 0.22744332 0.49792698 0.29616657 -0.024969123 -0.028071241
0.08817212 0.09210048 -0.23117907 0.65002257 0.056429677 0.09329859 -0.100667894 0.17515735
-0.17313871 -0.05748227 0.21250296 0.04752208 -0.04204614 -0.16586542 -0.15979336 0.1991143
0.28945118 -0.13839622 0.26529595 -0.07073275 0.07068652 -0.009557737 -0.15677637 0.056762356
0.16272494 0.085121624 0.020490825 -0.03810155 -0.06181392 -0.1613103 -0.040370714 0.22235584
0.045617204 0.039967075 0.2891118 -0.422394 -0.015546408 -0.022993261 0.008840044 0.20236164
0.060694646 0.0022114324 -0.51412123 -0.072662644 -0.0076613114 0.052626334 0.17548484 0.03463614
-0.1324832 -0.011018026 0.038274042 0.048937574 -0.5306199 -0.3120628 0.10987398 0.041956365
0.12082563 -0.055698782 -0.2445902 -0.06305495 -0.050064847 0.101579145 -0.0765594 0.054971978
-0.62018096 -0.08964254 0.12734479 0.0027074006 0.123687595 -0.32522488 0.4713523 0.117955625
0.034623515 -0.02060023 -0.0048161717 -0.020162277 -0.011412083 -0.15717426 0.078523606 0.22306468
-0.09147471 0.08492031 0.40996355 -0.46317592 0.0746944 -0.1993793 0.2112753 0.25973678
-0.112288326 -0.5678076 -0.059975762 -0.24653056 0.23759054 -0.10321173 -0.12298782 -0.39800823
-0.03707132 0.01940201 -0.09985424 -0.20492388 -0.09322681 -0.037173536 0.03596328 0.06321349
0.009510182 0.2001014 -0.0049096034 -0.051083677 0.02998241 -0.37318477 -0.022588836 0.5841252
0.16229264 0.1324145 0.53983206 -0.055715896 0.0288767 0.13758725 -0.071510136 0.3230636
0.15652862 -0.0637922 0.24223998 -0.0764678 -0.053859305 0.114878714 -0.5420638 -0.008548695
-0.39579403 -0.2188526 0.18819438 -0.029951176 0.068756215 -0.17156029 0.16390641 0.009000532
-0.06450366 -0.3321668 -0.062496543 -0.7383916 -0.46848512 0.03614222 -0.14825894 -0.17371516
0.06857839 -0.056300655 -0.3511361 0.22962943 -0.1354206 0.059094545 -0.17259245 0.03091294
0.22316258 0.056322467 -0.28292936 0.0483965 0.0129356235 0.15110111 0.4536065 -0.09369463
-0.31190526 0.10573715 -0.061279193 0.063224845 -0.010380651 -0.25757203 0.37456802 -0.028471975
0.24969399 0.006937688 -0.15557496 -0.045142066 -0.0826021 0.22174798 0.1376771 -0.13585387
-0.14600578 -0.30867225 -0.14253946 -0.28601423 0.098210566 0.15037432 -0.0029535436 0.09726144
00000000: 11d9 f3be f501 f7bc 5cce f1bd d73e 41bd
00000010: 323c 0abd f0f5 dcbb e347 d0bd 8218 b33d
00000020: 8916 a23e 7058 d23d 4c72 01bd 0968 243d
00000030: 7db2 e5be e5be 973d 2db7 4dbe 8388 183d
00000040: 626f a7bc 7c40 93bd 5c12 29bd 3a88 923e
00000050: 96d6 97be d1c1 623c c7e3 8fbd 7e54 05be
00000060: 8cea 4d3c d111 d7bc 9351 1ebe 0642 eebe
00000070: 4bd9 99bc dcdd 47bd 616f 3cbd 5c47 47bf
00000080: e0fa 043e e091 933c dfa9 1f3e 850e 26bc
00000090: a0a9 79bd fe1d 493e 2fa1 3ebe a005 e43c
000000a0: 7513 b6be 5843 1abe 9143 673e 4573 c03d
000000b0: bb85 2e3e 2610 68be f2c9 9a3e 9ab1 863d
000000c0: 15f9 a43d 19b9 233b c39d 0fbe 134f d0bd
000000d0: bf86 debd 1140 2ebe 1392 a9bd 6ad4 f2bd
000000e0: a314 433e 1080 1ebe c3c3 92be e325 18be
000000f0: 8168 c8bd 9e84 bb3e 0860 04be 67b3 12be
00000100: 8dcf d23d 1788 d23e aa68 ccbd e7e6 683e
00000110: 49f0 fe3e 25a3 973e 0c8c ccbc a9f5 e5bc
00000120: 9693 b43d 2d9f bc3d 35ba 6cbe e167 263f
00000130: ce22 673d 5513 bf3d f82a cebd 735c 333e
00000140: 464b 31be 8772 6bbd 609a 593e 83a6 423d
00000150: 9338 2cbd a0d8 29be dfa0 23be 9ee4 4b3e
00000160: f232 943e bdb7 0dbe dfd4 873e 55dc 90bd
00000170: 18c4 903d 0e98 1cbc fc89 20be a57f 683d
00000180: 5ea1 263e 3f54 ae3d 60dc a73c 5f10 1cbd
00000190: 9830 7dbd 872e 25be c35b 25bd 40b1 633e
000001a0: 1bd9 3a3d 84b4 233d 7606 943e 0744 d8be
000001b0: 5cb6 7ebc 5d5c bcbc d5d5 103c e437 4f3e
000001c0: f39a 783d aeed 103b 739d 03bf 27d0 94bd
000001d0: bd0b fbbb b68e 573d 4cb2 333e a0de 0d3d
000001e0: ada9 07be f384 34bc 3ec5 1c3d c472 483d
000001f0: b5d6 07bf b2c6 9fbe 9c05 e13d 70da 2b3d
00000200: 6e73 f73d 6824 64bd da75 7abe f422 81bd
00000210: cc10 4dbd ba08 d03d 2dcb 9cbd 4c2a 613d
00000220: 2ec4 1ebf 8296 b7bd ac66 023e a56e 313b
00000230: ec4f fd3d e083 a6be 1755 f13e b892 f13d
00000240: 63d1 0d3d d0c1 a8bc fad0 9dbb 5c2b a5bc
00000250: bff9 3abc 4af2 20be fcd0 a03d 116b 643e
00000260: 1857 bbbd b3ea ad3d bee6 d13e 6525 edbe
00000270: 61f9 983d 162a 4cbe 8d58 583e 38fc 843e
00000280: 6cf7 e5bd d75b 11bf 25a9 75bd 8272 7cbe
00000290: ef4a 733e ac60 d3bd 0ae1 fbbd bcc7 cbbe
000002a0: 19d8 17bd f7f0 9e3c 6180 ccbd 91d7 51be
000002b0: b3ed bebd 4743 18bd 3b4e 133d 1376 813d
000002c0: 98d0 1b3c 62e7 4c3e bde0 a0bb 1e3d 51bd
000002d0: ac9d f53c 1312 bfbe 390c b9bc 3b89 153f
000002e0: 0b30 263e ab97 073e 6f32 0a3f 5a36 64bd
000002f0: d48e ec3c ace3 0c3e e873 92bd 9868 a53e
00000300: 0a49 203e 7ca5 82bd c20d 783e 269b 9cbd
00000310: 939b 5cbd 8845 eb3d b1c4 0abf d30f 0cbc
00000320: 84a5 cabe e51a 60be 07b6 403e 2b5c f5bc
00000330: 0fd0 8c3d 80ad 2fbe 15d7 273e f876 133c
00000340: 7f1a 84bd c411 aabe 60fc 7fbd 3b07 3dbf
00000350: 48dd efbe dd09 143d 31d1 17be 63e2 31be
00000360: d472 8c3d 849b 66bd 1cc8 b3be fa23 6b3e
00000370: b3ab 0abe 1f0d 723d 13bc 30be 223d fd3c
00000380: bb84 643e 63b2 663d 1edc 90be 693b 463d
00000390: f0ef 533c 40ba 1a3e 1c3f e83e f8e2 bfbd
000003a0: 0cb2 9fbe b88c d83d e4ff 7abd 077c 813d
000003b0: 9b13 2abc 7be0 83be 61c7 bf3e 0f3e e9bc
000003c0: c8af 7f3e 8c55 e33b 0b4f 1fbe e3e6 38bd
000003d0: 4a2b a9bd e711 633e 3afb 0c3e 471d 0bbe
000003e0: 8a82 15be 4a0a 9ebe ddf5 11be 7570 92be
000003f0: 9f22 c93d bafb 193e 3d90 41bb 0131 c73d

backbone.model0.conv2.conv1.bias f4 [16]
-0.029175244 0.18327689 -0.08819541 0.09318091 -0.027194588 -0.07199605 0.5063343 0.19958688
0.01712346 0.040124483 0.12075683 0.06952111 0.08428283 0.10020676 0.016154239 0.14345725
00000000: ec00 efbc f0ac 3b3e cc9f b4bd a2d5 be3d
00000010: 2fc7 debc aa72 93bd 209f 013f 8160 4c3e
00000020: 8046 8c3c 9259 243d 5b4f f73d 1561 8e3d
00000030: 7a9c ac3d 3439 cd3d e555 843c 75e6 123e

backbone.model0.conv2.conv2.weight f4 [16, 1, 3, 3]
-0.031460486 -0.03559418 -0.027127258 -0.09221689 0.039796043 0.051443737 0.13206188 0.54339457
0.25719687 -0.068075545 0.35136622 -0.035426002 0.06916785 0.5399218 0.22347265 -0.063603155
-0.168602 -0.16316672 0.08781328 -0.029405322 -0.18186742 -0.17220528 -0.539338 0.34722102
-0.24659412 0.25679594 0.16432145 -0.032088447 -0.14799108 -0.034373395 0.1650917 0.502679
0.31872442 -0.1402172 -0.23477907 -0.2730279 -0.03039159 0.09969642 0.1966012 -0.04661453
0.533975 -0.05016133 0.11915473 -0.193194 0.03637259 -0.019885777 -0.34779233 -0.17754912
0.111570284 0.66404426 -0.4037296 -0.026066449 0.05809574 0.15452725 0.11109514 -0.37263715
0.15419246 0.5388874 -0.9493386 0.58768606 0.10584129 -0.3327113 0.13329355 0.022706486
0.30916563 -0.03635447 -0.09099964 0.6663159 -0.14479832 0.020830259 0.11075045 -0.013576782
-0.0013143084 -0.13056771 -0.045610577 0.209625 0.51287216 0.26802662 0.024493627 0.06384304
0.03543952 0.30500644 0.6298332 0.40912268 -0.077602126 -0.4483021 0.11574999 -0.26024744
-0.40077657 -0.27792075 0.059144672 0.18002656 0.004450165 0.102213524 0.20905167 0.09710109
-0.0035037275 0.044346437 -0.032872293 0.0075210473 0.29864672 0.14868516 0.08280806 0.37407592
0.11780463 0.052625176 -0.055848 -0.03659898 -0.027768211 0.14605804 0.061420314 -0.14110963
0.7606703 -0.18171442 0.028418187 0.036504906 -0.0099336915 0.0134042585 0.2730326 0.06697252
0.06259661 0.5143682 0.15033343 -0.12988366 0.12040046 -0.1043312 -0.2567778 -0.16900371
-0.05498917 0.31410018 -0.45293665 -0.20752686 0.103422016 0.090130135 -0.12812854 -0.003141348
0.07572743 0.04179244 -0.12729222 -0.50021565 -0.19935586 0.109040044 0.2907503 0.25445738
00000000: b6dc 00bd 34cb 11bd fc39 debc 35dc bcbd
00000010: 2d01 233d abb6 523d 3b3b 073e e81b 0b3f
00000020: 4faf 833e 316b 8bbd 46e6 b33e db1a 11bd
00000030: e0a7 8d3d 5138 0a3f 04d6 643e 5f42 82bd
00000040: 01a6 2cbe 2d15 27be 73d7 b33d 6ee3 f0bc
00000050: 743b 3abe 9556 30be 0e12 0abf f4c6 b13e
00000060: 2b83 7cbe c27a 833e e243 283e 2d6f 03bd
00000070: f98a 17be 1ecb 0cbd cc0d 293e 92af 003f
00000080: d92f a33e 1995 0fbe ed69 70be 50ca 8bbe
00000090: c9f7 f8bc a32d cc3d d351 493e e1ee 3ebd
000000a0: 96b2 083f f775 4dbd 6507 f43d a6d4 45be
000000b0: 6dfb 143d 7fe7 a2bc d611 b2be 70cf 35be
000000c0: f67e e43d cefe 293f a5b5 cebe 4e89 d5bc
000000d0: ccf5 6d3d 643c 1e3e d985 e33d 4cca bebe
000000e0: a1e4 1d3e 86f4 093f db07 73bf 9872 163f
000000f0: 51c3 d83d 2359 aabe 1b7e 083e f402 ba3c
00000100: f54a 9e3e 6de8 14bd 055e babd ae93 2a3f
00000110: 0346 14be 38a4 aa3c 22d1 e23d 2771 5ebc
00000120: df44 acba 8bb3 05be 28d2 3abd f0a7 563e
00000130: 974b 033f c93a 893e dca6 c83c 24c0 823d
00000140: 0829 113d ce29 9c3e c03c 213f 8778 d13e
00000150: dded 9ebd da87 e5be 550e ed3d 273f 85be
00000160: 9632 cdbe a14b 8ebe af41 723d e258 383e
00000170: b1d2 913b 5355 d13d a411 563e f0dc c63d
00000180: cb9e 65bb 9ca4 353d 19a5 06bd 1e73 f63b
00000190: 39e8 983e ec40 183e 4697 a93d e186 bf3e
000001a0: 8e43 f13d 7f8d 573d dfc0 64bd d0e8 15bd
000001b0: 297a e3bc 3d90 153e de93 7b3d 0b7f 10be
000001c0: 4abb 423f 5813 3abe 42cd e83c 2b86 153d
000001d0: ecc0 22bc 899d 5b3c eeca 8b3e e328 893d
000001e0: a732 803d a2ad 033f 02f1 193e 3900 05be
000001f0: 8494 f63d 99ab d5bd 6178 83be 4f0f 2dbe
00000200: 533c 61bd bdd1 a03e 50e7 e7be ec81 54be
00000210: ecce d33d 2696 b83d 2134 03be 13df 4dbb
00000220: fc16 9b3d 8d2e 2b3d e458 02be 220e 00bf
00000230: f123 4cbe 6350 df3d 39dd 943e 3d48 823e

backbone.model0.conv2.conv2.bias f4 [16]
4.826061e-06 5.3054378e-06 5.0840854e-06 5.1463117e-06 4.5899e-06 4.8395746e-06 4.627948e-06 4.483204e-06
5.9566805e-06 4.9287896e-06 5.0498343e-06 4.1075677e-06 4.671074e-06 4.2438496e-06 3.7597442e-06 5.6476197e-06
00000000: 8cef a136 5d05 b236 f697 aa36 7bae ac36
00000010: f102 9a36 a163 a236 c549 9b36 6e6e 9636
00000020: 7fdf c736 fb61 a536 bf71 a936 bdd3 8936
00000030: 38bc 9c36 6466 8e36 ea4f 7c36 af80 bd36

backbone.model0.conv2.bn.weight f4 [16]
0.38064548 0.40879747 0.29488662 0.26820797 0.43610048 0.29518306 0.3032705 0.4973932
0.3294836 0.268831 0.55776846 0.46871096 0.38980305 0.5207596 0.33092663 0.30755383
00000000: f7e3 c23e e74d d13e 61fb 963e 8e52 893e
00000010: 9048 df3e 3c22 973e 4546 9b3e 52aa fe3e
00000020: 13b2 a83e 38a4 893e eac9 0e3f e2fa ef3e
00000030: 4494 c73e 8050 053f 376f a93e b277 9d3e

backbone.model0.conv2.bn.bias f4 [16]
-0.03706623 0.73991334 0.015551337 -0.021105502 0.8050614 -0.024977913 -0.01739153 -0.017333144
0.09342317 0.06867129 0.13268606 0.6432901 0.05125582 0.553462 0.14160682 -0.018753473
00000000: c2d2 17bd f66a 3d3f 09cb 7e3c 72e5 acbc
00000010: 8118 4e3f 7b9e ccbc af78 8ebc 3dfe 8dbc
00000020: a654 bf3d 89a3 8c3d dbde 073e a9ae 243f
00000030: 9ff1 513d b0af 0d3f 6101 113e e2a0 99bc

backbone.model0.conv2.bn.running_mean f4 [16]
-0.15078701 -0.20948632 0.0353049 -0.008860811 0.5880915 -0.00044206897 -0.009165803 -0.08007948
-0.2590383 0.0020889577 -0.22689117 0.266496 -0.12579457 -0.40623733 -0.053251285 -0.0025201447
00000000: e967 1abe 9583 56be df9b 103d ef2c 11bc
00000010: 2a8d 163f 7ec5 e7b9 2a2c 16bc b600 a4bd
00000020: aba0 84be e5e6 083b 2956 68be 2a72 883e
00000030: 4bd0 00be 57fe cfbe 051e 5abd 0329 25bb

backbone.model0.conv2.bn.running_var f4 [16]
0.020384245 0.073977455 0.009866157 0.0053750095 0.06160425 0.0066408957 0.006100708 0.05415861
0.022911478 0.017598664 0.031377617 0.089673184 0.025783172 0.13368939 0.021193378 0.0050581037
00000000: dcfc a63c 7e81 973d a9a5 213c d920 b03b
00000010: bd54 7c3d df9b d93b 73e8 c73b 6bd5 5d3d
00000020: dab0 bb3c 132b 903c d185 003d 93a6 b73d
00000030: 3b37 d33c dfe5 083e bc9d ad3c 73be a53b

backbone.model0.bn1.weight f4 [16]
0.25725845 0.44643092 0.2705044 0.54871017 0.4362319 0.3622671 0.27658337 0.57308316
0.3681084 0.17895019 0.76854473 0.38733608 0.28158852 0.2426138 0.4244309 0.46323588
00000000: 61b7 833e 9892 e43e 8d7f 8a3e 4578 0c3f
00000010: ca59 df3e 137b b93e 569c 8d3e 94b5 123f
00000020: b478 bc3e b83e 373e 59bf 443f ea50 c63e
00000030: 5f2c 903e c16f 783e 024f d93e 412d ed3e

backbone.model0.bn1.bias f4 [16]
0.2539858 0.16633765 0.20165706 0.30817994 0.3044275 0.12014196 0.22319221 -0.2272562
0.22976637 0.15646085 -0.85677433 0.5718008 0.19983838 0.32502216 -0.3845893 0.0014828021
00000000: 6d0a 823e 6b54 2a3e 307f 4e3e c3c9 9d3e
00000010: ecdd 9b3e fd0c f63d 808c 643e d9b5 68be
00000020: e047 6b3e 4637 203e 9055 5bbf 8a61 123f
00000030: 6fa2 4c3e 4e69 a63e e4e8 c4be 955a c23a

backbone.model0.bn1.running_mean f4 [16]
3.3244143 -5.511656 -8.693187 2.8364604 13.8185005 82.754684 -4.104921 -111.97377
-2.4409025 -3.9480863 -160.05681 93.37018 -0.61857146 16.924717 -1.2343218 -48.217876
00000000: 34c3 5440 7c5f b0c0 4b17 0bc1 9188 3540
00000010: 9418 5d41 6682 a542 835b 83c0 92f2 dfc2
00000020: bf37 1cc0 72ad 7cc0 8b0e 20c3 88bd ba42
00000030: b35a 1ebf d265 8741 42fe 9dbf 1bdf 40c2

backbone.model0.bn1.running_var f4 [16]
682.5035 3761.983 1568.5082 14626.963 4991.102 2872.5256 1496.2175 4991.0195
2975.3264 278.8271 9101.72 4677.4653 1152.4897 748.1934 1082.9363 6458.843
00000000: 39a0 2a44 ba1f 6b45 4310 c444 da8b 6446
00000010: d1f8 9b45 6988 3345 f606 bb44 28f8 9b45
00000020: 39f5 3945 de69 8b43 e136 0e46 b92b 9245
00000030: ac0f 9044 610c 3b44 f65d 8744 bed6 c945

backbone.model1.conv1.conv1.weight f4 [16, 16, 1, 1]
0.055662543 -0.02681016 -0.11993588 -0.37565526 -0.09064067 -0.053992115 0.2993213 0.28891855
-0.50103295 -0.3397548 0.038601045 -0.12721299 0.10253598 0.0689216 -5.3779913e-05 -0.68059176
-0.27120245 0.026638357 0.2744852 -0.5362658 0.15985385 -0.48201755 -0.052081905 -0.19968924
-0.03426951 -0.08790593 -0.032780115 0.17789166 0.38961115 -0.0041520717 -0.2663763 -0.41565993
0.024033166 0.35634905 -0.0121862795 0.019837923 -0.2719717 -0.01404774 0.024853563 -0.0019386479
-0.019723002 0.045769587 0.3763591 -0.3457865 0.014618867 -0.5456288 0.031514935 -0.0127553195
0.045810528 -0.22213939 -0.056791805 0.025240984 -0.10027111 -0.028690374 0.017002655 -0.0029213685
-0.029884495 -0.06719135 0.52608603 -0.44954702 -0.0064238524 0.25032717 -0.038235527 0.0062424405
0.25306085 0.3018169 0.18967816 0.036327116 0.45182765 0.112636834 -0.15897793 -0.13485566
-0.047678668 0.17957596 -0.0030939556 0.02165125 -0.037192255 0.25777346 0.112798594 -0.07882143
-0.4969352 0.021349898 -0.6509063 -0.2842707 0.07206486 0.488209 -0.18933637 0.15817702
0.041432448 0.15526776 0.013538045 -0.018691102 -0.51957864 -0.059035737 0.47897324 -0.15878154
0.22327895 0.37141466 0.11937003 0.1296396 0.0047662132 0.05936426 0.039921347 0.07180551
0.3233766 0.12904546 -0.028601993 0.31120545 0.099096864 -0.42568663 0.16681565 0.14325866
0.08967484 0.069347925 -0.20089565 0.017967727 0.055136498 0.025896685 0.099303216 0.04849693
0.34458813 0.6264494 0.06485673 -0.33881125 0.09532282 0.07400357 -0.24177103 0.023493832
-0.034625486 -0.04880518 0.031281475 -0.020875176 -0.57080096 -0.070587374 -0.07078138 -0.017978363
0.05243335 -0.08418657 0.25732252 0.48830554 -0.049927227 -0.03370443 0.14700739 0.0013897816
0.3732901 -0.007213483 -0.1811157 0.27222937 -0.020635147 -0.28599933 -0.5733208 -0.7336761
0.24812001 0.16007349 0.013672061 -0.10786229 -0.1682077 0.037272904 -0.27947146 0.20609365
-0.11759507 0.59092087 -0.0019096718 -0.076372966 0.8178364 0.06629329 -0.018764641 -0.031040823
-0.13162132 -0.08662103 0.46191314 0.59049803 -0.08503988 -0.5165216 -0.1014277 -0.030642726
-0.0031571956 -0.21953209 -0.022970423 -0.061693534 -0.04864706 -0.004373454 -0.07677579 -0.13281487
-0.060095433 0.030771531 0.105023585 -0.36110508 -0.06579435 0.61698526 -0.0685139 -0.06943488
-0.17714524 0.022969073 -0.16468284 -0.044686124 0.12117863 0.21163036 0.26110613 -0.27669847
-0.17540848 -0.18370314 -0.0014342798 -0.06730025 0.5219343 0.006870939 0.3747769 -0.054970987
-0.02983048 0.5282548 0.02091681 0.0049139806 -0.180056 -0.017101595 -0.0071181506 -0.009606135
-0.006698361 0.019759469 0.14248545 -0.0037195266 -0.03517352 -0.53077215 0.0126104085 0.015007926
0.11207014 0.04486816 -0.10771905 0.028319295 0.49692765 0.012011755 0.045326754 0.022314532
-0.08453329 -0.011529794 -0.110242866 -0.42119557 0.058336526 0.0384902 -0.028506575 0.00926855
0.060998216 0.3495693 0.048480816 0.00101079 -0.0066242022 -0.0014213794 -0.028610213 -0.06430212
-0.026307555 0.028287405 0.23671868 -0.41797894 -0.010998422 -0.21816581 -0.06842694 -0.020725103
00000000: 68fe 633d fba0 dbbc f1a0 f5bd e355 c0be
00000010: d1a1 b9bd d626 5dbd a440 993e 22ed 933e
00000020: b243 00bf 57f4 adbe 211c 1e3d 1f44 02be
00000030: 62fe d13d c526 8d3d be91 61b8 433b 2ebf
00000040: 0cdb 8abe af38 da3c 5389 8c3e b748 09bf
00000050: bab0 233e 01cb f6be d653 55bd 567b 4cbe
00000060: 305e 0cbd 0608 b4bd 7144 06bd 3b29 363e
00000070: 1d7b c73e 1a0e 88bb 7962 88be 61d1 d4be
00000080: 34e1 c43c 6273 b63e f6a8 47bc 2483 a23c
00000090: e03f 8bbe 7e28 66bc b399 cb3c 3b1a feba
000000a0: 2292 a1bc e478 3b3d 24b2 c03e ee0a b1be
000000b0: f983 6f3c 54ae 0bbf ce15 013d b0fb 50bc
000000c0: d2a3 3b3d 8278 63be 869e 68bd 2ec6 ce3c
000000d0: f15a cdbd 1308 ebbc 2749 8b3c 6e74 3fbb
000000e0: 54d0 f4bc 9e9b 89bd 93ad 063f 072b e6be
000000f0: 2e7f d2bb e22a 803e db9c 1cbd 638d cc3b
00000100: 3191 813e bf87 9a3e fe3a 423e becb 143d
00000110: f455 e73e 24ae e63d 1ccb 22be 9a17 0abe
00000120: b54a 43bd c3e2 373e f6c3 4abb f65d b13c
00000130: e856 18bd e2fa 833e f302 e73d 216d a1bd
00000140: 4a6e febe fbe5 ae3c cca1 26bf ee8b 91be
00000150: be96 933d 88f6 f93e 65e1 41be 28f9 213e
00000160: 12b5 293d 83fe 1e3e adce 5d3c 151e 99bc
00000170: 1b03 05bf 75cf 71bd fb3b f53e a197 22be
00000180: 3da3 643e 102a be3e 4678 f43d 3ec0 043e
00000190: e52d 9c3b f027 733d 9184 233d c40e 933d
000001a0: 9e91 a53e 7e24 043e ba4e eabc 5256 9f3e
000001b0: 4cf3 ca3d 99f3 d9be b9d1 2a3e 66b2 123e
000001c0: 71a7 b73d 4906 8e3d 97b7 4dbe 0e31 933c
000001d0: cfd6 613d 4925 d43c 7c5f cb3d b8a4 463d
000001e0: db6d b03e fd5e 203f 9bd3 843d ab78 adbe
000001f0: 9c38 c33d 2f8f 973d d392 77be 2376 c03c
00000200: 74d3 0dbd f1e7 47bd 0121 003d 6b02 abbc
00000210: 0320 12bf 1d90 90bd d4f5 90bd 5c47 93bc
00000220: 5ac4 563d 026a acbd c7bf 833e 2f03 fa3e
00000230: 7e80 4cbd a80d 0abd 1b89 163e 5529 b63a
00000240: e11f bf3e 155f ecbb 6576 39be a661 8b3e
00000250: 0a0b a9bc 816e 92be 27c5 12bf 32d2 3bbf
00000260: 2c13 7e3e 4eea 233e c800 603c e8e6 dcbd
00000270: a43e 2cbe 79ab 183d e216 8fbe 370a 533e
00000280: afd5 f0bd 9746 173f f44d faba 6e69 9cbd
00000290: ba5d 513f c7c4 873d 4eb8 99bc 5349 febc
000002a0: bdc7 06be 5e66 b1bd e17f ec3e e12a 173f
000002b0: 6329 aebd c23a 04bf 53b9 cfbd 7406 fbbc
000002c0: f4e8 4ebb 05cd 60be 782c bcbc 5cb2 7cbd
000002d0: 2442 47bd 314f 8fbb a03c 9dbd 9f00 08be
000002e0: a126 76bd 9414 fc3c 9b16 d73d c4e2 b8be
000002f0: 30bf 86bd bff2 1d3f 0451 8cbd e033 8ebd
00000300: 9065 35be a329 bc3c 9ea2 28be cc08 37bd
00000310: 802c f83d a1b5 583e b4af 853e 6cab 8dbe
00000320: 489e 33be ad1c 3cbe 72fe bbba b7d4 89bd
00000330: 7c9d 053f 9d25 e13b c2e2 bf3e 4229 61bd
00000340: 0d5f f4bc b53b 073f bb59 ab3c 7505 a13b
00000350: 9a60 38be a518 8cbc 603f e9bb 0d63 1dbc
00000360: ed7d dbbb 9cde a13c b5e7 113e 4dc3 73bb
00000370: 1c12 10bd afe0 07bf e39b 4e3c cee3 753c
00000380: 0885 e53d adc7 373d ce9b dcbd defd e73c
00000390: 4d6d fe3e f4cc 443c 8ca8 393d f7cc b63c
000003a0: ca1f adbd 76e7 3cbc 03c7 e1bd f2a6 d7be
000003b0: 48f2 6e3d e6a7 1d3d 9f86 e9bc 1edb 173c
000003c0: 44d9 793d bffa b23e d293 463d 7c7c 843a
000003d0: d60f d9bb 944d baba f75f eabc d4b0 83bd
000003e0: f182 d7bc fdba e73c 6266 723e 5601 d6be
000003f0: ba32 34bc dc66 5fbe 6c23 8cbd b1c7 a9bc

backbone.model1.conv1.conv1.bias f4 [16]
0.00028725862 -0.0019959596 0.1882255 0.14539021 -0.067447715 0.025797203 -0.22817393 -0.0329167
0.06694284 -0.0042938483 -0.19972469 0.23226522 -0.009537406 0.09190473 -0.11102477 0.2573093
00000000: 339b 9639 a5ce 02bb 2fbe 403e 2ce1 143e
00000010: 0722 8abd a854 d33c 6da6 69be a9d3 06bd
00000020: 5419 893d 69b3 8cbb a184 4cbe efd6 6d3e
00000030: c842 1cbc 8c38 bc3d f460 e3bd 0bbe 833e

backbone.model1.conv1.conv2.weight f4 [16, 1, 3, 3]
-0.019057713 0.0625457 -0.007313992 0.0060033295 0.73765785 0.023833333 0.029570976 -0.0109097725
0.040121153 -0.01168309 -0.04590891 -0.033016656 0.050168924 -0.8392537 0.047039703 -0.007192563
-0.016497133 -0.039445534 -0.23289451 -0.5055735 0.09900196 -0.46789822 -0.21967652 -0.0072216047
0.12305822 1.0074708 0.20061888 0.032560006 0.34873167 0.049608145 0.28165656 -0.03976632
0.20290749 -0.10365533 -0.8468526 -0.03961362 0.03164542 0.58599675 0.1527343 0.03188283
-0.4152003 -0.052801 -0.08179101 -0.019512538 -0.033749294 -0.030644305 -0.08725725 -0.008018553
0.00835155 -0.764672 0.0030653628 -0.014081206 -0.04422063 -0.021821223 -0.023784861 0.20250285
-0.093326166 -0.11501759 0.990944 -0.16706732 -0.1020283 -0.36614266 -0.08854379 0.041556954
-0.11614656 0.058223218 -0.078106984 0.8431167 -0.086577944 0.017369185 -0.014607924 -0.017949207
-0.070813105 -0.5463074 -0.0988326 0.028695716 -0.55939823 -0.32283264 0.20965053 1.1307715
0.16087744 0.02368748 0.011251945 -0.010911824 -0.031648792 0.86622936 0.007864666 0.017877331
0.07824776 -0.007596815 0.034969237 0.03487017 0.019451711 0.09316217 -0.9450814 0.063586704
0.10674573 -0.09569011 0.046898805 0.023401743 -0.3133326 -0.06506404 -0.2697383 -0.25792345
0.94194114 -0.044392403 -0.098651744 0.14282966 -0.027259137 -0.055762373 0.0093283355 -0.0112481825
-0.6744256 0.02775665 -0.0050142165 -0.012502166 -0.039866738 -0.068037696 0.47743508 0.11848128
-0.46583912 0.46192452 0.41843125 -0.5331236 -0.42805746 0.021585425 -0.002822736 -0.3010704
0.11510346 -0.9278877 0.17511258 0.37459743 -0.20253652 0.38515836 0.29910856 0.057940822
-0.5058139 -0.10333668 0.46141413 0.13244706 -0.4875763 0.15755703 0.42764026 -0.17262362
00000000: ec1e 9cbc f617 803d 36aa efbb 94b7 c43b
00000010: 25d7 3c3f 1f3e c33c d53e f23c e7be 32bc
00000020: 1456 243d 6e6a 3fbc fb0a 3cbd 793c 07bd
00000030: ee7d 4d3d 55d9 56bf b4ac 403d 97af ebbb
00000040: ff24 87bc a491 21bd e67b 6ebe 446d 01bf
00000050: 8ac1 ca3d 5b90 efbe e2f2 60be 36a3 ecbb
00000060: f305 fc3d cef4 803f 096f 4d3e a45d 053d
00000070: f58c b23e e931 4b3d 4a35 903e 02e2 22bd
00000080: fbc6 4f3e 3f49 d4bd 55cb 58bf e441 22bd
00000090: a19e 013d e203 163f 6166 1c3e 9297 023d
000000a0: 2295 d4be dd45 58bd 0c82 a7bd c2d8 9fbc
000000b0: b33c 0abd c409 fbbc eeb3 b2bd 4060 03bc
000000c0: f1d4 083c 8bc1 43bf 41e4 483b dcb4 66bc
000000d0: b120 35bd 6cc2 b2bc 78d8 c2bc e85c 4f3e
000000e0: ca21 bfbd 588e ebbd 82ae 7d3f b213 2bbe
000000f0: 37f4 d0bd 0d77 bbbe 7256 b5bd a037 2a3d
00000100: 3fde edbd 787b 6e3d 8ef6 9fbd 7fd6 573f
00000110: c74f b1bd d249 8e3c 1356 6fbc 370a 93bc
00000120: 7606 91bd cdda 0bbf bf68 cabd 4713 eb3c
00000130: b934 0fbf 524a a5be a1ae 563e 1fbd 903f
00000140: 0ebd 243e 3f0c c23c 145a 383c 82c7 32bc
00000150: 2aa2 01bd 35c1 5d3f cdda 003c 7b73 923c
00000160: 5d40 a03d b4ee f8bb e73b 0f3d 06d4 0e3d
00000170: 3259 9f3c cfcb be3d dbf0 71bf bf39 823d
00000180: 819d da3d 2df9 c3bd f618 403d 03b5 bf3c
00000190: 216d a0be 4c40 85bd 231b 8abe 8b0e 84be
000001a0: 0e23 713f cfd4 35bd ed09 cabd f041 123e
000001b0: 8e4e dfbc 1667 64bd e0d5 183c 4c4a 38bc
000001c0: 28a7 2cbf ea61 e33c 4c4e a4bb e3d5 4cbc
000001d0: 4e4b 23bd 5957 8bbd 5f72 f43e 50a6 f23d
000001e0: 7782 eebe 5f81 ec3e 9f3c d63e ca7a 08bf
000001f0: 592a dbbe ebd3 b03c a7fd 38bb e625 9abe
00000200: 5dbb eb3d 0c8a 6dbf b650 333e 3ccb bf3e
00000210: bc65 4fbe 7a33 c53e c224 993e 5b53 6d3d
00000220: 057d 01bf 2ea2 d3bd 793e ec3e 34a0 073e
00000230: 9aa3 f9be a156 213e aaf3 da3e 3fc4 30be

backbone.model1.conv1.conv2.bias f4 [16]
5.402213e-06 4.648933e-06 5.1853335e-06 4.9081796e-06 5.2688188e-06 4.7176723e-06 5.666901e-06 5.21938e-06
4.9358764e-06 4.911979e-06 4.653273e-06 5.139291e-06 4.939781e-06 5.144059e-06 4.9306727e-06 4.4251888e-06
00000000: a844 b536 08fe 9b36 adfd ad36 f1b0 a436
00000010: cfca b036 7f4c 9e36 4f26 be36 2222 af36
00000020: db9e a536 94d1 a436 5023 9c36 2c72 ac36
00000030: 65c0 a536 219b ac36 2872 a536 157c 9436

backbone.model1.conv1.bn.weight f4 [16]
0.34524694 0.3021711 0.27073586 0.27239928 0.24986717 0.30250964 0.2376093 0.28195718
0.30987132 0.33363566 0.39882675 0.24699357 0.29343855 0.29048732 0.29163796 0.29845834
00000000: 35c4 b03e 2cb6 9a3e e49d 8a3e eb77 8b3e
00000010: 2edd 7f3e 8be2 9a3e da4f 733e b15c 903e
00000020: 74a7 9e3e 4bd2 aa3e 0533 cc3e e2eb 7c3e
00000030: 943d 963e c1ba 943e 9251 953e 88cf 983e

backbone.model1.conv1.bn.bias f4 [16]
0.59118986 0.4494192 0.32612094 0.15935877 0.3557368 0.5659375 0.6928423 0.60201895
0.24374564 0.8988972 0.076543376 0.2977782 0.4740194 0.085126586 0.2605259 0.040202104
00000000: 3858 173f 461a e63e 53f9 a63e f22e 233e
00000010: 2223 b63e 48e1 103f 1d5e 313f ea1d 1a3f
00000020: 7598 793e 201e 663f c6c2 9c3d 6276 983e
00000030: acb2 f23e d956 ae3d a763 853e f6aa 243d

backbone.model1.conv1.bn.running_mean f4 [16]
-0.32180575 -0.00568357 0.0009088453 0.015477003 0.16128626 0.070161775 0.08070014 0.045665603
0.0066760294 -0.2710993 -0.6730949 0.0060679317 -0.14238063 0.0012096888 -0.0042141844 -0.0054020425
00000000: b9c3 a4be 3e3d babb 933f 6e3a 4193 7d3c
00000010: 3a28 253e fab0 8f3d 1d46 a53d db0b 3b3d
00000020: 98c2 da3b 87cd 8abe f34f 2cbf 80d5 c63b
00000030: 3acc 11be 6c8e 9e3a 2417 8abb 9e03 b1bb

backbone.model1.conv1.bn.running_var f4 [16]
0.08710363 0.09242704 0.040032666 0.0148373265 0.013838901 0.07571314 0.027628602 0.04712171
0.066879 0.12883306 0.06576462 0.016176771 0.036386043 0.033477087 0.03702743 0.0170049
00000000: 6363 b23d 634a bd3d 4bf9 233d 4218 733c
00000010: 8fbc 623c 7e0f 9b3d 6155 e23c b202 413d
00000020: dbf7 883d d0ec 033e 9aaf 863d 2685 843c
00000030: 8809 153d 451f 093d 13aa 173d dc4d 8b3c

backbone.model1.conv2.conv1.weight f4 [64, 16, 1, 1]
-0.09294762 -0.10641222 0.05995755 0.0037411533 -0.018417098 -0.07725756 0.043288965 -0.21477494
-0.11648537 -0.10927664 0.44624695 0.018057356 0.06089339 -0.14543772 -0.11315685 -0.0019253764
-0.16363238 0.16711648 -0.06594924 -0.071003385 -0.021500176 -0.034273773 -0.55729055 -0.0833839
-0.12274781 -0.11768682 0.068812974 -0.2917314 0.07258164 -0.08811612 -0.14011616 -0.22485578
-0.18903731 -0.0640946 0.114289455 0.14765276 0.03592767 -0.10580448 0.19503208 -0.14482747
0.04397684 0.16591938 0.017195776 0.042086016 0.08512674 0.087326296 -0.08096707 0.05393536
0.13635488 0.084059864 0.07427284 0.08747181 -0.07460246 0.35666516 0.036541857 -0.02719322
0.009245241 -0.12026645 -0.18858849 0.09610757 0.13850415 0.14534144 -0.133038 0.09051874
-0.30529192 0.385839 0.07687857 0.10197538 0.011581654 0.23416628 0.14647648 -0.16103691
0.019388221 0.034811024 -0.039803635 -0.07843866 -0.05544431 -0.0052528996 -0.12269964 -0.04892873
-0.10956004 -0.19159997 -0.11198076 -0.2160273 0.09991627 -0.11660347 -0.2863522 -0.14590108
-0.23605387 -0.051565856 0.13691005 -0.055877563 0.052954096 0.040011648 0.10727061 0.04852375
0.047069687 0.14685309 0.00016125846 -0.013073186 0.018262671 0.045340262 -0.04694548 0.11872724
0.008103294 -0.15691821 -0.036299925 -0.020916276 0.4344864 0.012997025 -0.101893775 -0.023088979
0.11726804 -0.47201288 -0.029495759 -0.06651827 0.060796287 -0.14224054 0.0019247277 0.11177389
-0.2653919 -0.20110597 0.17317583 -0.004348753 0.047843877 0.03000439 0.13146761 -0.05567069
-0.09275087 -0.111828394 -0.058750067 -0.016799334 0.074486524 0.14501595 -0.13071951 -0.1835103
0.27707273 0.21411815 0.059774093 -0.008509124 -0.2051402 -0.07181374 0.3451872 -0.20965844
-0.20941004 0.4401511 -0.02893573 -0.028368374 0.11995671 -0.10808177 0.14920722 0.06459612
-0.0022177158 -0.027475515 -0.115383185 0.048212327 -0.19448435 0.10661218 -0.05048811 0.10148574
0.34088817 -0.17538156 -0.036135625 -0.1586489 -0.07884849 -0.17951353 -0.10219668 -0.08058883
-0.078855485 0.15254025 -0.03063894 -0.06392763 0.08112159 -0.090616666 -0.10678818 -0.11785184
-0.25617436 0.017828584 0.025808588 -0.02449165 0.10776894 0.04106867 0.13136719 -0.103526644
-0.23811707 -0.17980957 -0.13856685 -0.037289158 -0.13921615 0.00620645 -0.0359814 0.02264848
-0.15535192 0.35830653 -0.015506994 -0.026925595 -0.0348415 0.08773683 -0.052419677 0.09676303
0.032597337 -0.20630369 0.25545138 -0.07663929 -0.03177736 0.0014540424 0.06802759 0.041240003
0.15238762 -0.13920169 0.0411092 0.015216238 0.03972252 0.075922795 -0.11589821 -0.22095034
-0.05107739 -0.003920621 0.039031472 0.0600749 -0.024288462 -0.13886179 0.06474296 -0.074290924
-0.04616305 -0.044792946 0.037799552 0.04451775 0.31460154 0.06217171 0.06500462 -0.010525122
-0.23833835 0.0034823075 -0.036618557 -0.0056081186 0.2007118 -0.110481285 0.009883747 -0.037559554
-0.34208062 0.038367268 0.15895621 0.1509728 -0.07847755 0.053776495 0.23803915 0.055396084
-0.020020248 0.28189182 -0.064523295 -0.19506328 0.17896828 -0.22910884 0.026947282 -0.12409346
00000000: 525b bebd a6ee d9bd 0c96 753d 232e 753b
00000010: 74df 96bc 3639 9ebd c54f 313d f6ed 5bbe
00000020: e28f eebd 6ecc dfbd 7b7a e43e 05ed 933c
00000030: 596b 793d a0ed 14be c7be e7bd e95c fcba
00000040: 3f8f 27be 9520 2b3e 6510 87bd 396a 91bd
00000050: 2321 b0bc a862 0cbd 98aa 0ebf 2ec5 aabd
00000060: 3463 fbbd ca05 f1bd d1ed 8c3d d15d 95be
00000070: afa5 943d 3976 b4bd 9c7a 0fbe 9840 66be
00000080: ff92 41be 0844 83bd 9710 ea3d 4932 173e
00000090: e428 133d 05b0 d8bd 7db6 473e a74d 14be
000000a0: 0f21 343d c5e6 293e 28de 8c3c 6362 2c3d
000000b0: ee56 ae3d 21d8 b23d 10d2 a5bd 53eb 5c3d
000000c0: 9da0 0b3e 9427 ac3d 5c1c 983d 6c24 b33d
000000d0: 2dc9 98bd d19c b63e eaac 153d 51c4 debc
000000e0: 5a79 173c 424e f6bd 571d 41be 0cd4 c43d
000000f0: 08d4 0d3e 63d4 143e 1d3b 08be e461 b93d
00000100: 394f 9cbe b08c c53e 8372 9d3d 78d8 d03d
00000110: fac0 3d3c 49c9 6f3e eefd 153e dce6 24be
00000120: 0cd4 9e3c 0196 0e3d 2309 23bd 73a4 a0bd
00000130: 9319 63bd 8420 acbb f349 fbbd 7e69 48bd
00000140: 0461 e0bd c832 44be 2b56 e5bd 4336 5dbe
00000150: e7a0 cc3d cdcd eebd c19c 92be 1867 15be
00000160: 1bb8 71be b836 53bd 2632 0c3e dfdf 64bd
00000170: 65e6 583d 41e3 233d b2b0 db3d d7c0 463d
00000180: 25cc 403d a860 163e 7d17 2939 eb30 56bc
00000190: 999b 953c b6b6 393d e749 40bd 4427 f33d
000001a0: aec3 043c 2baf 20be 3baf 14bd 9c58 abbc
000001b0: 0075 de3e 79f1 543c afad d0bd 1925 bdbc
000001c0: 3a2a f03d acab f1be 17a1 f1bc bb3a 88bd
000001d0: 8705 793d 81a7 11be 2547 fc3a b6e9 e43d
000001e0: 72e1 87be b9ee 4dbe 0155 313e fc7f 8ebb
000001f0: f1f7 433d c4cb f53c 729f 063e f306 64bd
00000200: 2bf4 bdbd 4906 e5bd e9a3 70bd c29e 89bc
00000210: 648c 983d 107f 143e 56db 05be 20ea 3bbe
00000220: 7adc 8d3e ca41 5b3e aed5 743d da69 0bbc
00000230: 4610 52be 1513 93bd 60bc b03e b4b0 56be
00000240: 966f 56be 7c5b e13e a00a edbc cb64 e8bc
00000250: ddab f53d fa59 ddbd c7c9 183e f84a 843d
00000260: 1957 11bb 5514 e1bc 054e ecbd 4a7a 453d
00000270: e826 47be 7d57 da3d 9fcc 4ebd c1d7 cf3d
00000280: e588 ae3e 3997 33be f302 14bd db74 22be
00000290: 517b a1bd 65d2 37be 7e4c d1bd c20b a5bd
000002a0: fc7e a1bd 8333 1c3e 84fe fabc 7dec 82bd
000002b0: 1423 a63d 3b95 b9bd c3b3 dabd 4e5c f1bd
000002c0: 4929 83be 400d 923c 886c d33c b6a2 c8bc
000002d0: f6b5 dc3d 9f37 283d 1f85 063e c705 d4bd
000002e0: f6d4 73be 0020 38be 78e4 0dbe 84bc 18bd
000002f0: ae8e 0ebe 7a5f cb3b 3c61 13bd 4e89 b93c
00000300: 9314 1fbe f473 b73e 0c11 7ebc 1193 dcbc
00000310: f6b5 0ebd 5eaf b33d 04b6 56bd b22b c63d
00000320: c984 053d 4641 53be 86ca 823e 0ff5 9cbd
00000330: fa28 02bd 9195 be3a 0d52 8b3d 47eb 283d
00000340: 800b 1c3e e38a 0ebe 1f62 283d 874d 793c
00000350: 15b4 223d 697d 9b3d 0a5c edbd ce40 62be
00000360: 8636 51bd 8d78 80bb 77df 1f3d 1911 763d
00000370: 99f8 c6bc c931 0ebe f597 843d d725 98bd
00000380: 7715 3dbd cf78 37bd b4d3 1a3d 3f58 363d
00000390: 7413 a13e c3a7 7e3d 2421 853d 9071 2cbc
000003a0: f80e 74be 6d37 643b 57fd 15bd 4fc4 b7bb
000003b0: 6587 4d3e 0344 e2bd 71ef 213c 0cd8 19bd
000003c0: 3125 afbe ff26 1d3d 6bc5 223e 9d98 1a3e
000003d0: d6b8 a0bd be44 5c3d 89c0 733e 01e7 623d
000003e0: 8101 a4bc 2054 903e ca24 84bd abbe 47be
000003f0: 7643 373e 829b 6abe 8cc0 dc3c b624 febd

backbone.model1.conv2.conv1.bias f4 [64]
0.08747606 -0.0074023358 0.011833104 -0.029788367 -0.08659916 0.07433913 0.071653895 -0.0048259837
-0.11171067 -0.039852817 0.059498575 0.0073808674 -0.14155214 0.02657134 0.013661627 -0.046586633
-0.07180246 -0.072799556 -0.002758164 -0.02821424 -0.057976156 -0.094613425 0.09282184 -0.031076515
-0.01966665 -0.061788563 0.00221756 0.03022706 -0.07368045 -0.019632157 -0.025868837 -0.009044243
-0.08986613 -0.009678442 -0.023565939 0.0032004723 0.18903872 -0.058571823 0.18254088 -0.19713925
0.026422853 -0.03236838 -0.03578316 -0.03069914 -0.06878739 -0.008900614 0.042292003 0.07360183
-0.009469248 0.029624378 -0.07673789 0.12105287 0.025848718 0.016948732 0.026055755 0.0380181
-0.028368888 0.08962979 -0.0055681965 -0.14950462 0.024006357 0.0036542087 -0.14088346 -0.06352082
00000000: a626 b33d 4b8f f2bb a3df 413c bc06 f4bc
00000010: e75a b1bd 1d3f 983d 47bf 923d 4923 9ebb
00000020: 90c8 e4bd b53c 23bd c7b4 733d 34db f13b
00000030: 0bf3 10be 24ac d93c 04d5 5f3c a0d1 3ebd
00000040: 2b0d 93bd ef17 95bd 50c2 34bb 8d21 e7bc
00000050: 6878 6dbd afc4 c1bd 6019 be3d 2d94 febc
00000060: f41b a1bc 0116 7dbd 7c54 113b bd9e f73c
00000070: c7e5 96bd 9ed3 a0bc e2ea d3bc 4e2e 14bc
00000080: bc0b b8bd 5492 1ebc 5b0d c1bc 04bf 513b
00000090: 5e93 413e 02e9 6fbd ffeb 3a3e dfde 49be
000000a0: bd74 d83c b594 04bd 5d91 12bd c37c fbbc
000000b0: 67e0 8cbd e2d3 11bc 613a 2d3d 8ebc 963d
000000c0: e824 1bbc d3ae f23c c128 9dbd 91ea f73d
000000d0: b1c0 d33c 11d8 8a3c e172 d53c deb8 1b3d
000000e0: df65 e8bc d38f b73d 6b75 b6bb bd17 19be
000000f0: fba8 c43c 737b 6f3b c143 10be 3417 82bd

backbone.model1.conv2.conv2.weight f4 [64, 1, 3, 3]
-0.09237456 -0.21650696 -0.011843537 0.10067245 -0.1159631 0.19391923 -0.07847545 -0.247908
0.10852612 0.006335824 -0.11917848 0.064609304 -0.12206871 0.49903643 0.042789742 0.06792559
0.11465841 0.066436805 0.05347765 -0.19483845 0.09794097 0.069685265 -0.34762993 0.32633474
-0.05753907 0.043425735 0.018058974 0.0012095348 -0.080970645 0.010007819 -0.35251975 0.07564711
0.15412548 -0.13592395 -0.07025574 -0.009811683 -0.17966408 -0.5144416 -0.18199502 -0.025219107
0.28473422 0.043549072 0.057764344 0.08305407 0.0119392015 -0.032069277 0.353732 0.04181761
-0.033899132 -0.4587389 -0.014834305 -0.017631238 -0.09308728 0.021161212 -0.014375163 -0.19003072
0.077133685 0.20379314 -0.44546074 0.24507831 0.021700665 -0.054714248 0.043034583 -0.021596685
-0.08392785 -0.025966667 0.06454387 0.62674654 0.030292744 -0.0154065145 -0.18455502 0.07396063
0.06308375 0.16243798 -0.0066259857 -0.10151453 0.24888568 0.08768703 0.06836966 0.024491766
0.17123285 0.16816902 0.13688348 0.0024692945 0.11350785 -0.16539077 -0.36039507 0.09209803
-0.29655808 -0.10567447 -0.29274142 0.25978515 0.21327008 -0.32100627 0.18107282 0.35059744
-0.12866122 -0.111033864 0.103283964 0.13145919 0.1192264 -0.012182387 -0.22668318 -0.38252774
0.0053474926 0.105916254 0.18968235 -0.0004943996 -0.16195722 -0.20576367 0.09684905 -0.28229985
-0.14968404 0.12495381 -0.095991686 0.3886527 0.33217102 -0.10370128 0.12928012 0.03190387
0.013775007 0.017979972 0.09540941 0.17547041 -0.3367273 -0.1347225 -0.017848661 -0.21809658
-0.075376034 0.07736113 0.24863422 -0.20114982 0.010064577 0.0734315 0.08397034 -0.00039455303
0.078871235 0.024515767 -0.034510154 -0.21648306 -0.17215502 0.030095102 -0.24827148 -0.006140156
-0.048435435 -0.393993 0.19824658 -0.1263462 0.41980523 0.002139983 -0.0006854599 -0.04406987
-0.0072744377 0.0958567 -0.0116114095 0.090661936 0.08804224 0.19814327 -0.016333485 -0.1856811
-0.26605758 -0.04020252 0.05650114 0.0050425385 0.09637142 0.10731569 0.057150174 0.065604
-0.014290304 0.19077796 -0.046638917 -0.0063924394 0.250097 -0.05165542 -0.08371417 -0.5842037
0.050103508 0.0061665587 -0.08080425 0.05903239 0.16719776 0.20125309 -0.05406353 -0.04677861
0.17065518 -0.036240283 0.0011218897 -0.19997211 -0.2663039 0.038219806 0.079177864 0.33252993
-0.0007669655 0.18325685 0.0887273 -0.013389138 -0.12634125 -0.10776667 -0.027986566 -0.19451603
0.017211933 -0.0161036 -0.2532064 -0.06644217 0.01324496 -0.012077959 -0.031374987 -0.023117697
0.13855061 0.024666691 -0.007179752 0.39521375 -0.00095951604 0.04502094 0.017750535 -0.05367418
-0.059540816 -0.03912836 -0.006680307 0.01284775 -0.35083914 0.20165002 0.057995573 -0.2702759
-0.0815472 -0.037095215 0.21101609 -0.036339473 0.04055736 0.37855318 -0.020431766 0.14285973
-0.04272056 0.012347896 0.06914098 0.060589932 0.092067085 0.17104033 0.3621009 0.07581909
-0.19530103 -0.44682813 -0.06631807 0.056408122 -0.0357893 -0.22580265 0.101045005 -0.054292392
-0.41367248 0.05895231 0.028119916 0.08516061 -0.024225246 0.11893349 0.1114363 -0.03057303
00000000: e02e bdbd 00b4 5dbe 650b 42bc 5c2d ce3d
00000010: 107e edbd c392 463e bdb7 a0bd 98db 7dbe
00000020: f142 de3d be9c cf3b d913 f4bd e251 843d
00000030: 29ff f9bd b481 ff3e 4c44 2f3d 921c 8b3d
00000040: 07d2 ea3d 0510 883d 610b 5b3d bb83 47be
00000050: 4695 c83d 26b7 8e3d 8dfc b1be 5915 a73e
00000060: 16ae 6bbd 2fdf 313d 6af0 933c 4189 9e3a
00000070: f0d3 a5bd d6f7 233c 787d b4be dfec 9a3d
00000080: 12d3 1d3e a62f 0bbe 3ee2 8fbd 2ec1 20bc
00000090: dcf9 37be 72b2 03bf e75c 3abe 4d98 cebc
000000a0: afc8 913e 8360 323d 4e9a 6c3d 4118 aa3d
000000b0: a49c 433c 135b 03bd 5c1c b53e f148 2b3d
000000c0: d1d9 0abd d3df eabe 960b 73bc 636f 90bc
000000d0: 8ba4 bebd 475a ad3c ce85 6bbc 6a97 42be
000000e0: 44f8 9d3d 26af 503e 6e13 e4be cff5 7a3e
000000f0: 98c5 b13c 0c1c 60bd 0845 303d 88eb b0bc
00000100: 5de2 abbd 0cb8 d4bc 942f 843d 7672 203f
00000110: 7d28 f83c 9b6b 7cbc fefb 3cbe ac78 973d
00000120: 0e32 813d 2456 263e cc1e d9bb dae6 cfbd
00000130: e3db 7e3e 4295 b33d 6405 8c3d f5a2 c83c
00000140: aa57 2f3e 8034 2c3e 2f2b 0c3e e3d3 213b
00000150: ce76 e83d 335c 29be b485 b8be e49d bc3d
00000160: 76d6 97be db6b d8bd 34e2 95be 8f02 853e
00000170: 7963 5a3e ef5a a4be 276b 393e 8281 b33e
00000180: c4bf 03be b965 e3bd 8b86 d33d 3d9d 063e
00000190: f92c f43d a298 47bc a31f 68be adda c3be
000001a0: 053a af3b 9fea d83d 173c 423e 989a 01ba
000001b0: 1dd8 25be b6b3 52be cb58 c63d 9b89 90be
000001c0: c646 19be c8e7 ff3d 4a97 c4bd 7dfd c63e
000001d0: 5212 aa3e 5661 d4bd 0262 043e a2ad 023d
000001e0: 91b0 613c bc4a 933c 0266 c33d 84ae 333e
000001f0: 8567 acbe b2f4 09be 5b37 92bc b654 5fbe
00000200: c05e 9abd 836f 9e3d f899 7e3e 38fa 4dbe
00000210: e5e5 243c 4163 963d a4f8 ab3d 03dc ceb9
00000220: 3e87 a13d 4ad5 c83c 855a 0dbd bcad 5dbe
00000230: 6849 30be 018a f63c e13a 7ebe 5d33 c9bb
00000240: 3c64 46bd 73b9 c9be 2701 4b3e e660 01be
00000250: b6f0 d63e f53e 0c3b 6fb0 33ba 9c82 34bd
00000260: 685e eebb 8450 c43d c83d 3ebc f7ac b93d
00000270: 7d4f b43d 12e6 4a3e cdcd 85bc 3023 3ebe
00000280: b338 88be 66ab 24bd bd6d 673d e13b a53b
00000290: 615e c53d 54c8 db3d 4d16 6a3d 645b 863d
000002a0: e121 6abc 4c5b 433e 7308 3fbd ab77 d1bb
000002b0: b70c 803e a294 53bd 5672 abbd 608e 15bf
000002c0: 5639 4d3d d810 ca3b b37c a5bd f3cb 713d
000002d0: e435 2b3e 4a15 4e3e b871 5dbd ee9a 3fbd
000002e0: 3bc0 2e3e b170 14bd 5f0c 933a 7dc5 4cbe
000002f0: fc58 88be 5f8c 1c3d 0128 a23d 5d41 aa3e
00000300: 2f0e 49ba afa7 3b3e a9b6 b53d 1d5e 5bbc
00000310: 9a5f 01be c6b4 dcbd 1544 e5bc 362f 47be
00000320: 0a00 8d3c b2eb 83bc 45a4 81be d512 88bd
00000330: 6401 593c a2e2 45bc 0f83 00bd 5361 bdbc
00000340: 36e0 0d3e cd11 ca3c 2044 ebbb 7559 ca3e
00000350: 0888 7bba e167 383d 9269 913c 75d9 5bbd
00000360: 12e1 73bd 0f45 20bd 7ae6 dabb 5f7f 523c
00000370: 30a1 b3be 587d 4e3e c48c 6d3d 9a61 8abe
00000380: 3802 a7bd 27f1 17bd 9a14 583e b3d8 14bd
00000390: 791f 263d b9d1 c13e 8560 a7bc d249 123e
000003a0: c1fb 2ebd d44e 4a3c c999 8d3d 262d 783d
000003b0: ab8d bc3d 3225 2f3e 4a65 b93e 0a47 9b3d
000003c0: fefc 47be a8c6 e4be c5d1 87bd 340c 673d
000003d0: cd97 12bd cf38 67be aff0 ce3d b361 5ebd
000003e0: e1cc d3be fa77 713d bd5b e63c b068 ae3d
000003f0: 0674 c6bc 6793 f33d b738 e43d 4a74 fabc

backbone.model1.conv2.conv2.bias f4 [64]
4.787634e-06 5.3966887e-06 5.1162497e-06 4.523113e-06 4.524069e-06 4.773223e-06 5.219467e-06 4.8797483e-06
4.5349984e-06 4.3102527e-06 4.922877e-06 4.6073365e-06 4.7984795e-06 4.954912e-06 4.95147e-06 4.483875e-06
5.2084597e-06 4.5544207e-06 4.3670025e-06 4.825795e-06 4.947374e-06 5.1081565e-06 4.9136243e-06 5.0021977e-06
5.1340025e-06 4.692663e-06 5.1032034e-06 4.758661e-06 4.768733e-06 5.0779568e-06 4.6833743e-06 4.5885545e-06
4.935485e-06 5.3822528e-06 4.8268985e-06 4.9136747e-06 4.9912614e-06 4.559806e-06 5.0576996e-06 4.056871e-06
4.3411064e-06 4.5188417e-06 4.7124367e-06 4.848016e-06 4.598326e-06 4.8442016e-06 4.886186e-06 4.9554574e-06
4.4538824e-06 4.463802e-06 4.85672e-06 4.7026238e-06 4.8175984e-06 5.152551e-06 4.7963917e-06 4.3367972e-06
5.1590378e-06 4.368592e-06 4.6112705e-06 4.561287e-06 4.661972e-06 4.632639e-06 4.20263e-06 4.8241895e-06
00000000: 77a5 a036 3415 b536 40ac ab36 3fc5 9736
00000010: 75cd 9736 ac29 a036 e122 af36 b8bc a336
00000020: 572b 9836 caa0 9036 312f a536 b898 9a36
00000030: a002 a136 5f42 a636 ce24 a636 3174 9636
00000040: 54c4 ae36 2dd2 9836 4488 9236 43ed a136
00000050: 9e01 a636 bb66 ab36 b6df a436 8dd8 a736
00000060: bf44 ac36 ab75 9d36 2f3c ab36 96ac 9f36
00000070: 1b03 a036 5163 aa36 e125 9d36 62f7 9936
00000080: 7e9b a536 3399 b436 bef6 a136 25e0 a436
00000090: 9c7a a736 6f00 9936 4fb5 a936 4220 8836
000000a0: d2a9 9136 8ea0 9736 861f 9e36 24ac a236
000000b0: 524b 9a36 608b a236 05f4 a336 0e47 a636
000000c0: 8f72 9536 c4c7 9536 e8f6 a236 3bcb 9d36
000000d0: dba6 a136 13e4 ac36 b1f0 a036 ce84 9136
000000e0: cc1b ad36 eb95 9236 83ba 9a36 280d 9936
000000f0: 096e 9c36 1172 9b36 5104 8d36 79df a136

backbone.model1.conv2.bn.weight f4 [64]
0.32702324 0.30054504 0.24846905 0.28170332 0.33499348 0.31849337 0.34038898 0.39701307
0.29867628 0.33169398 0.34969902 0.27164263 0.1917327 0.25211525 0.25498104 0.28209436
0.28856313 0.28835738 0.29882544 0.38402143 0.24092716 0.30558148 0.27956486 0.3554721
0.3414569 0.34011254 0.2731403 0.37995437 0.24873932 0.34338278 0.25015908 0.31405956
0.24974719 0.27083147 0.32322958 0.23317882 0.29235652 0.27573746 0.2884508 0.3271797
0.21760122 0.43668827 0.30313605 0.31832722 0.36828685 0.25883195 0.3006419 0.34398347
0.23041418 0.31455076 0.33875927 0.29309255 0.2838301 0.2432698 0.2653252 0.32656616
0.17711724 0.30524433 0.20519899 0.31991038 0.30571204 0.26766983 0.2537039 0.34861395
00000000: 976f a73e 0ae1 993e ac6e 7e3e 6b3b 903e
00000010: 4484 ab3e 9011 a33e 7747 ae3e 4c45 cb3e
00000020: 19ec 983e cbd3 a93e c00b b33e be14 8b3e
00000030: 9455 443e 4015 813e e08c 823e ac6e 903e
00000040: 8cbe 933e 94a3 933e a6ff 983e 759e c43e
00000050: 9cb5 763e 2d75 9c3e 2023 8f3e 7000 b63e
00000060: 70d3 ae3e 3b23 ae3e 0cd9 8b3e 6189 c23e
00000070: 85b5 7e3e decf af3e da14 803e 6acc a03e
00000080: babd 7f3e 6caa 8a3e 597e a53e 6ec6 6e3e
00000090: c1af 953e 762d 8d3e d3af 933e 1984 a73e
000000a0: dbd2 5e3e 9b95 df3e a634 9b3e c9fb a23e
000000b0: 1890 bc3e 9f85 843e bced 993e 9a1e b03e
000000c0: b2f1 6b3e cc0c a13e db71 ad3e 3a10 963e
000000d0: 2e52 913e b81b 793e b4d8 873e ae33 a73e
000000e0: 395e 353e fc48 9c3e af1f 523e 4bcb a33e
000000f0: 4a86 9c3e 050c 893e 7ae5 813e 877d b23e
