tasks/task1/onnx/yunet.onnx (onnx, 344799 bytes, 86 tensors)

model0.conv2.conv1.weight f4 [16, 16, 1, 1]
000000 ad ec 73 3e 16 7e 81 be ff 70 1c 3c 68 55 af bd
       0.23820753 -0.25291508 0.009548425 -0.08561212
000010 8f 5f 94 bd 44 1a 42 3e 8e 1a 75 3c a7 d8 fd bb
       -0.07244789 0.18955332 0.014959944 -0.0077467742
000020 a7 19 5c ba e6 fd ee be 3a 3f cd 3c aa 0e f3 bd
       -0.00083961565 -0.46678084 0.025054563 -0.11868031
000030 e8 de 4a be 16 e1 81 3e 1a 52 7b 3d a0 1d 36 bc
       -0.19811594 0.2536704 0.061357595 -0.011115462
000040 3d 13 21 3d 56 dc 8f bc 33 16 07 3e 5c a3 73 be
       0.039324988 -0.017561119 0.13192062 -0.23792785
000050 ae 37 a2 be 5d d6 a0 be 16 0f 0d 3d 58 43 bd bd
       -0.31683105 -0.31413546 0.034438215 -0.092413604
000060 fd bc b7 bd 85 f6 b3 bd 3f 0e d6 bc f8 f0 ba 3e
       -0.089715935 -0.08787254 -0.02612984 0.3651197
000070 ca cd 9b bd d5 4a c6 be 97 2d 0d 3e c0 bc 8a 3d
       -0.076076105 -0.38728967 0.13786922 0.067742825
000080 33 4d 49 3c d0 ee c5 be 74 54 06 3d ca a8 14 bd
       0.012286472 -0.38658762 0.032795385 -0.036293782
000090 9a 33 01 bf a0 b4 63 3e 4d 03 16 bd 13 0b 01 bd
       -0.5046936 0.22236872 -0.03662424 -0.0315047
0000a0 00 e9 7d be a2 49 a5 be a4 2d ea bc d0 7f 8a bd
       -0.24795914 -0.3228274 -0.028586216 -0.067626595
0000b0 50 00 0d 3e 8b e3 25 3e ab 21 5a 3d eb 89 c7 bc
       0.1376965 0.16200082 0.053254765 -0.024357757
0000c0 e9 ac 30 3b 58 cf d8 3e 0f 8c 8e 3e 97 bb e1 3d
       0.0026958531 0.4234569 0.2784123 0.11022108
0000d0 92 3d 47 3e 18 5a 74 bd 73 d0 8e 3e dc 24 3e 3f
       0.19457081 -0.059656233 0.2789341 0.7427499
0000e0 de 09 ab 3d 55 2a 0d 3e f0 fc 19 bd 4b 9d 60 3d
       0.083514914 0.1378568 -0.037594736 0.054837506
0000f0 e9 15 aa 3c 17 32 27 3e 1b 31 08 3f 7c 2d 05 3f
       0.0207624 0.16327702 0.5319993 0.5202253
000100 a2 9d ec 3d 12 0c bf 3c 93 b1 f1 3d 6c d9 79 3e
       0.115535036 0.023321185 0.11801448 0.24399346
000110 70 51 51 3e 7b 83 9d 3c 0d 7c 5f 3e 18 4c 7b 3d
       0.20441222 0.019227734 0.21824665 0.061351866
000120 38 38 97 3e 73 95 57 be be 7c 59 be 87 bb 8c 3e
       0.2953508 -0.21053104 -0.21238992 0.27486822
000130 56 7c 37 be 72 da 15 be c9 7e b1 bc 37 ec 9b bd
       -0.17918524 -0.14634112 -0.021666901 -0.07613414
000140 73 02 e9 3e 80 41 b1 be da 34 4a 3c cc a4 9b 3e
       0.4550968 -0.34620285 0.012341702 0.30399168
000150 87 64 5e be d4 e6 b6 3e 71 ae a7 3c 25 d9 64 3d
       -0.21718036 0.35722983 0.020468922 0.055871148
000160 98 c7 8e 3d ea 2c 35 bd 7d 4a da be af 0f d6 3e
       0.06971663 -0.044232287 -0.42634955 0.4180884
000170 33 e7 26 bf b3 d8 0e 3e 13 67 b0 3d 70 9c 5f 3d
       -0.6519653 0.13949852 0.0861341 0.05459255
000180 f5 49 64 bd 10 04 cf bd 26 b3 2b be 40 c7 2a 3e
       -0.055734593 -0.10108197 -0.16767558 0.1667757
000190 29 dc 9e bd b3 3e 16 3c 80 a3 c3 bd c9 de e8 3d
       -0.07756836 0.009170222 -0.095526695 0.11370618
0001a0 dd 0c a7 be c8 84 87 3e d5 7f 08 be 59 a7 aa 3e
       -0.32627 0.26468492 -0.13330014 0.333308
0001b0 9b a2 ce 3e a6 7e 63 3e ee 12 83 3c 79 fb 28 3d
       0.40358433 0.22216281 0.016000237 0.041255448
0001c0 21 89 e6 3e 3f 61 02 bc 63 68 4d 3d e0 f2 a6 3e
       0.45026496 -0.007957756 0.05014838 0.32607174
0001d0 4d c3 92 3d 73 a9 ce 3c 97 75 0c 3e c1 71 a5 bd
       0.07166157 0.025227284 0.13716732 -0.080783375
0001e0 ae fd 14 3d eb 5a 92 be 72 ab a8 be d3 26 b4 3e
       0.03637474 -0.2858499 -0.32943302 0.3518587
0001f0 69 9a e7 be 52 35 e3 bd c0 fc 8a bd 55 1a 96 bd
       -0.45234993 -0.110941544 -0.067864895 -0.07329241
000200 e4 4a 0d 3e ee b8 8c bd 9a 80 04 bd b9 38 c2 3e
       0.137981 -0.0687121 -0.032349207 0.379339
000210 d3 db 30 bc dd 05 35 bd 8b 0c 4e 3c bf 10 9d 3d
       -0.010794598 -0.044195045 0.012576233 0.0766921
000220 c8 2c 21 bb 4f 73 d9 bd 80 12 04 bf d9 65 cf 3e
       -0.0024593342 -0.106176965 -0.5159073 0.4050739
000230 78 12 be bc 79 95 62 bd 8a 2f 21 3c 21 1a 45 3c
       -0.023202166 -0.05531833 0.009837994 0.012030155
000240 79 31 72 be 57 63 f3 bd e3 e2 71 bd a0 f3 92 3e
       -0.23651685 -0.11884182 -0.059054267 0.28701496
000250 15 b1 68 be 9a f6 47 3d 29 6c b7 bb 31 d7 12 3c
       -0.22723801 0.048819162 -0.0055976105 0.008962438
000260 c3 b7 18 be 96 69 06 3e 0b 4a dd be f4 d2 bd 3e
       -0.1491385 0.13126215 -0.43220553 0.37075007
000270 0d 3c 72 3e 92 c1 07 bd d3 15 a8 bc a0 a5 92 bb
       0.2365572 -0.033143587 -0.02051822 -0.0044753104
000280 00 47 9b be aa 8a 03 bf a7 56 62 3e 94 6d 4d b9
       -0.30327606 -0.5138346 0.22103368 -0.00019591145
000290 f7 b0 84 be e6 70 21 3f 67 4b 15 3e 10 ef f4 bd
       -0.25916263 0.63062894 0.14579545 -0.1195966
0002a0 c0 11 e4 bd ec af 47 3e 1f de 9b bb 1f 7f a6 bd
       -0.11136198 0.19500703 -0.0047567035 -0.08129715
0002b0 7e 01 6f 3e b9 b2 10 3e 50 03 f5 3b 10 23 47 3d
       0.23340413 0.14130677 0.0074772015 0.048617423
0002c0 61 c2 80 bd 1d cc 06 bf c3 da b0 3e 42 20 b8 3c
       -0.06287075 -0.526552 0.34541902 0.02247632
0002d0 b8 c2 01 bf 99 c5 18 3f 01 23 3c 3e fb d5 4c be
       -0.5068774 0.5967651 0.18372728 -0.20003502
0002e0 be 27 f1 bc 70 6e 87 3c 3f 2a 7f 3c c1 f0 a1 bd
       -0.029437896 0.016532153 0.015574037 -0.07907248
0002f0 f4 d0 5b bd 9b e7 78 bd cd 40 ca 3c 58 11 ab 3b
       -0.05366607 -0.06076775 0.024689103 0.0052205734
000300 89 f6 e3 bb 4f 65 65 be 90 d6 88 be 6c 56 a5 bd
       -0.0069568795 -0.22401927 -0.26726198 -0.08073124
000310 9b 0b c9 bc e0 1c 23 3d 42 3b 17 bf 26 2b 08 be
       -0.024541667 0.03982246 -0.59074795 -0.1329771
000320 a7 0a d7 bc d4 20 d4 bd c3 4e c8 3d 36 71 db 3b
       -0.026250197 -0.10357824 0.097806476 0.0066968454
000330 c5 47 2d 3d f1 a6 56 bd 39 3f 2b bf 0c 93 61 3e
       0.042304773 -0.0524053 -0.66893345 0.2202875
000340 b2 df 43 bd 4c 98 9d be 59 67 69 bf fa e7 a0 3c
       -0.047820754 -0.30780256 -0.9117332 0.019641865
000350 eb da 1a bd e2 43 b4 3d 8b c6 1e be 6c 17 6a 3e
       -0.037806433 0.0880201 -0.15505426 0.22860497
000360 2b 15 42 bb d3 33 04 3d 5e 64 86 bc eb 30 5c 3c
       -0.0029614668 0.032275986 -0.01640528 0.013439397
000370 68 af 21 bd 93 04 7a bd bc 92 52 3e 36 88 3b be
       -0.03947392 -0.06103952 0.20563787 -0.18313679
000380 87 79 82 be a9 60 d1 3d e3 94 96 3d 6e 63 d9 3e
       -0.25483343 0.102235146 0.07352617 0.4245867
000390 96 d3 de bc 22 9f bc bd ca 25 3d 3e 83 28 56 3c
       -0.027200501 -0.0921004 0.18471447 0.013071182
0003a0 69 4a 08 bf e2 61 fc bc 9f ae a5 be 71 34 d0 3e
       -0.5323854 -0.030808393 -0.32359788 0.4066501
0003b0 00 61 b6 3e 3f 2a 4d be ba 4d 3b bd c7 a8 27 bd
       0.3562088 -0.20035647 -0.045728423 -0.040932443
0003c0 57 2d 2c 3d a6 e7 80 3d 94 04 f8 bd 4a 3b 0b 3f
       0.042035427 0.062941834 -0.12110248 0.5438734
0003d0 f3 d7 dc bc 4a e0 30 3d 8a ae 8e bd 85 18 95 3d
       -0.026958441 0.04318265 -0.069668844 0.07280067
0003e0 4c 79 c4 3b e7 ea ab bd a9 11 d8 bd d4 cc fa 3c
       0.005995905 -0.083944134 -0.105502434 0.030615248
0003f0 a2 10 94 3d 34 83 32 3e bb 39 73 bd 99 24 82 3d
       0.07229735 0.17432863 -0.059381228 0.06354637

model0.conv2.conv1.bias f4 [16]
000000 17 45 42 3e cf cc 10 3e c7 27 5f 3d b5 73 34 3e
       0.18971668 0.14140628 0.054481294 0.17622264
000010 e0 0c 25 be 7a c8 2e be 6f 51 a6 be 6c 42 a7 3d
       -0.16118193 -0.17068663 -0.32484004 0.08166966
000020 7f ae 1d 3d 94 c6 31 be 1f 92 d6 3d 6a 65 04 be
       0.03849649 -0.17360908 0.10477089 -0.12929311
000030 cf 06 f6 3e 10 a6 29 3f de c2 6a bd 80 20 ba 3e
       0.4805207 0.66269016 -0.057314746 0.3635292

model1.conv1.conv1.weight f4 [16, 16, 1, 1]
000000 54 01 11 bd 8e 71 51 3d 93 1c e6 bc 28 71 84 bd
       -0.035401657 0.051133685 -0.028089797 -0.06466895
000010 95 46 d3 3d 51 3a 9a be 8b a1 51 bc 29 20 9b 3e
       0.10316197 -0.30122617 -0.0127948625 0.30297974
000020 a0 c8 93 3e d3 e8 75 3d d0 ab 90 be 91 a6 8d bc
       0.28864002 0.06003649 -0.28256083 -0.01729134
000030 47 e8 3f 3e fe ee 50 3e 8a a8 c1 3e 42 05 00 be
       0.1874095 0.20403668 0.37823898 -0.12502006
000040 67 9b 7e bc a3 eb 07 3d 85 1a f1 3b 18 0c 01 3e
       -0.0155399805 0.033183705 0.0073578977 0.1260227
000050 ac 38 6e 3b f7 25 fc bd 92 d3 28 bd 85 00 ba bd
       0.0036349697 -0.12311929 -0.041217394 -0.0908213
000060 79 2d 76 3e 8e d9 41 be 75 08 5e bd d2 44 bc 3d
       0.24040784 -0.18930647 -0.054207284 0.09192814
000070 9e a3 52 bc 54 20 56 3f 09 49 2d 3d 6b ec 14 3e
       -0.012856392 0.8364308 0.04230598 0.14543311
000080 aa 37 cd bc a5 b5 42 3d b6 4c 10 bd d4 14 4f 3d
       -0.025050957 0.04753651 -0.035229407 0.050556973
000090 c2 5c c3 3b f9 bb 60 3e 84 8b 05 3d 41 ed b8 3c
       0.0059619853 0.21946706 0.032603756 0.022574069
0000a0 31 00 ed 3d b6 70 05 bd 3e 32 84 3e 5a e8 85 3f
       0.11572302 -0.032578193 0.25819582 1.0461533
0000b0 4b 98 a1 3d 76 c9 da 3d 80 b5 95 bd 40 b6 ef 3c
       0.07890376 0.10682957 -0.07310009 0.029261708
0000c0 39 37 8a 3d 2d a8 7e 3d 68 c0 ac 3b 45 2a 29 bc
       0.06748814 0.062172104 0.00527196 -0.010325019
0000d0 33 ab 60 bc 98 8c 4c 3e 08 48 2c 3c 35 b3 a8 3d
       -0.013712692 0.19975507 0.01051522 0.08237306
0000e0 64 4c 8a bc 88 0c ed 3d 5f 5a 3d bf 98 cc a8 3d
       -0.016882129 0.11574656 -0.7396602 0.08242148
0000f0 9a 3e 53 bd fc db 26 3e 12 ee 3b 3d 25 e1 b9 3c
       -0.051573373 0.16294855 0.04588134 0.022690365
000100 5c da 82 bd c8 7f 87 3e 93 19 3d bc be dc 06 bd
       -0.06389305 0.26464677 -0.011541742 -0.03292536
000110 5a 39 81 3d 32 15 17 bd b1 45 80 3b 1d 7c 51 3e
       0.06309767 -0.036885448 0.003914558 0.20457502
000120 f4 f5 9c 3e 18 41 12 3e 31 67 7c 3e 49 66 70 3d
       0.30656397 0.14282644 0.2464874 0.058691297
000130 78 67 82 be a3 75 10 be 37 57 3d 3e 0d 04 5a 3e
       -0.25469565 -0.14107375 0.18490301 0.21290608
000140 58 f8 4d be ae 9f c7 bc 3c 93 0b be 48 1b 4b bc
       -0.20114267 -0.024368133 -0.13630384 -0.012396641
000150 5d 55 02 bd 48 c0 ab be 0e 96 51 bd eb 89 92 bd
       -0.03181969 -0.33545136 -0.051168494 -0.07155212
000160 4f cb fa bd 08 48 53 be 33 88 fe 3e fc cc 43 bd
       -0.12245809 -0.20632946 0.49713287 -0.04780291
000170 25 2d d2 bd 78 a8 95 bd 59 f4 58 bd a9 7f a0 bd
       -0.10262517 -0.073075235 -0.052967403 -0.07836849
000180 75 55 d0 bc b8 5b 89 3d 79 6c 9a bc 1a 2d 82 3e
       -0.025431374 0.06706947 -0.018850552 0.25425035
000190 65 22 0c 3d 78 07 17 be 05 0f 9a 3d 9a a3 53 3d
       0.03421249 -0.14748943 0.07522396 0.051669694
0001a0 38 fe 5e 3e d2 ce 59 3d 74 70 93 3e 58 de 85 3e
       0.21776664 0.053175755 0.28796732 0.26146197
0001b0 47 41 dc bd 41 c3 a5 3e 61 29 95 3d 21 1a ab 3d
       -0.10754638 0.3237553 0.07283283 0.08354593
0001c0 f6 ff bc 3e c7 99 d2 3e c1 03 a5 3e c9 13 ee bd
       0.36914033 0.41132948 0.32229427 -0.116248675
0001d0 fb fa aa bd 29 f8 93 be 67 ea d9 3e 5a d5 34 be
       -0.08348652 -0.2890027 0.42561647 -0.17659512
0001e0 25 8e 03 be 81 41 9b 3e 33 7e 20 be 91 bc 51 bc
       -0.12847193 0.30323413 -0.15673141 -0.012801305
0001f0 34 11 41 bd b2 4e 3d be dc a6 ed 3e f3 95 9d 3e
       -0.047135547 -0.18487051 0.46416366 0.30778465
000200 c1 7e a3 3b 06 e0 3c bd 32 a6 db bb 7e 69 77 3f
       0.0049894755 -0.046112083 -0.0067031616 0.96645343
000210 9d 97 e4 3c f8 3b 32 bc bc f0 f8 3a 98 a4 bc 3c
       0.027904326 -0.0108785555 0.0018992643 0.023027703
000220 a9 8a 5c be ab 1f d2 3d 52 cc 0c 3c a0 c1 a5 bc
       -0.2153727 0.102599464 0.008593636 -0.02023393
000230 40 e8 17 3f 83 4e 4b 3f 2a f8 f7 bb bf 85 df bd
       0.5933876 0.79416674 -0.0075674253 -0.10914182
000240 ac 8f 70 bd 0d 37 b0 bc 49 92 c6 be 97 6e 88 bd
       -0.058730766 -0.021510625 -0.38783482 -0.06661718
000250 ab 44 2c be b7 1d 15 bf bd 9f 44 3e 6a 42 34 3e
       -0.1682307 -0.58248466 0.1920156 0.1760346
000260 12 d6 8e 3d 84 cf 87 3d 14 85 05 bf 7e 52 33 3e
       0.069744244 0.06631377 -0.52156186 0.17511937
000270 7d 4b 89 bd 8b 4f 38 be 37 e3 a3 be 98 08 0b 3b
       -0.06703851 -0.17999093 -0.3200929 0.002121484
000280 f4 e2 32 be e8 7c 83 be 20 52 fe bd b7 dc 62 3c
       -0.17469388 -0.25681233 -0.12418008 0.013846568
000290 6a 6e 38 bf 2f a0 53 be 08 d0 b1 3e fc f1 3d bf
       -0.7204348 -0.20666574 0.34729028 -0.74197364
0002a0 16 66 79 bd 38 98 07 3f ae c3 22 bd e8 83 dc 3c
       -0.060888372 0.5296664 -0.039737396 0.026918367
0002b0 3a 62 70 3d 2c 53 c9 3d a5 cd 13 3f e6 11 67 be
       0.058687426 0.09830317 0.57735664 -0.22565421
0002c0 84 71 ac 3c fa c9 07 3c 5c 38 1b 3c 18 3f d9 3b
       0.021050222 0.008287901 0.009473886 0.006629836
0002d0 89 05 d9 3c bf 62 24 bd e9 64 e9 3d b7 b3 02 3d
       0.026491897 -0.040133234 0.113962 0.03190967
0002e0 fc 0a e8 3c 9e da 33 bd e2 bc 2d 3f 74 82 c3 bb
       0.02832555 -0.04390966 0.6786634 -0.005966479
0002f0 f7 ef b8 3d 8f 0e 43 3e 5d 85 0d 3d fe aa 6b bc
       0.09030145 0.19048522 0.034551013 -0.014384029
000300 87 5f 0c 3f 1b 9b b0 be 43 d6 0e 3f 5b 4b 0e 3d
       0.54833263 -0.34493336 0.5579569 0.034739833
000310 8a 80 bc 3e 00 b0 56 3e 03 fd 13 3f 15 d4 15 be
       0.36816818 0.20965576 0.5780794 -0.14631684
000320 47 aa 78 be 0f 84 35 3d 28 34 4f 3e 5b 2e 92 be
       -0.24283706 0.044315394 0.2023474 -0.2855099
000330 c9 d9 bb 3c f6 66 f4 3d 27 0f 8f bd 25 b7 9c be
       0.022930996 0.11933701 -0.06985312 -0.30608478
000340 b3 93 f4 3c 5c 67 78 3d bd 2b 8a 3d a3 85 0f 3d
       0.029855585 0.060645446 0.06746624 0.035039555
000350 a5 c5 eb 3d 8d 9d 54 3f c1 0f 4d bd 1d 9d ba 3d
       0.11512307 0.83052903 -0.050063852 0.09111998
000360 ad 47 89 bc 73 2e 8b 3d 8e 97 c6 3e aa 78 44 3e
       -0.01675781 0.06795969 0.38787502 0.19186655
000370 9a 86 fb bc ab 91 60 3e ca 4e c1 bc 88 ec f0 bc
       -0.030703831 0.21930568 -0.02359714 -0.029409662
000380 4d 41 36 3c fd 9e b8 3c e4 45 46 3c 07 43 b9 3e
       0.011123967 0.022536749 0.012101624 0.3618395
000390 f8 89 4f 3c 63 ae 3f bd d7 15 82 3c a0 00 ff 3c
       0.012667172 -0.046797168 0.015879555 0.031128228
0003a0 99 7d 9e bc c8 37 e5 bb f2 64 8c 3e 81 f6 36 3c
       -0.019346999 -0.006995175 0.27420765 0.01116717
0003b0 cb 0f 45 bf b5 7c bc be 97 21 60 3d fe 00 a3 bb
       -0.76977223 -0.36813894 0.054719534 -0.0049744835
0003c0 bf 96 c1 3e 01 9f 0f bf bf 0d a7 3e 10 bd e1 bd
       0.37810323 -0.56101996 0.32627675 -0.11022389
0003d0 8b 27 e2 3d 5a ed 4a 3d db fa 80 3e ef 90 61 be
       0.110426985 0.049542762 0.25191388 -0.22027944
0003e0 c2 9d a4 be a1 b6 3c be 79 c6 ed 3d e7 14 81 be
       -0.3215161 -0.18429042 0.11610121 -0.2521126
0003f0 f6 17 5d bb b4 de 87 bc b2 93 20 be db b4 08 bf
       -0.0033736206 -0.016585685 -0.15681341 -0.53400964

model1.conv1.conv1.bias f4 [16]
000000 d1 73 45 3e 7d 2b 83 be fe 16 3b 3d 67 32 ff 3d
       0.19282462 -0.25619116 0.045676224 0.12460785
000010 4a 09 4d be 3d 34 13 3e 31 a4 1b bf ca 62 87 be
       -0.20023075 0.14375396 -0.6079741 -0.26442558
000020 d2 89 19 bf b9 79 06 3e 76 c4 a7 3d a1 65 62 bf
       -0.5997592 0.13132371 0.08191769 -0.88436323
000030 95 81 fc bd f2 76 88 be 37 a1 a6 3e 9a 24 0a 3e
       -0.12329403 -0.26653248 0.32544872 0.13490525

model1.conv2.conv1.weight f4 [64, 16, 1, 1]
000000 70 62 f4 3c 63 71 76 bd 90 89 73 bd 66 a8 41 be
       0.029832095 -0.060166728 -0.05945736 -0.18911895
000010 f7 59 11 bd 3a e1 d6 3c 20 41 e2 3d 61 3d 29 3e
       -0.035486188 0.026230443 0.11047578 0.1652732
000020 3d e3 d7 3d 91 29 86 bc 72 e3 a8 be e1 b5 a9 bd
       0.10541389 -0.016377242 -0.32986027 -0.08286644
000030 80 fa af 3e 39 b8 f6 bd 2b 81 ac 3a be 7f 81 bd
       0.34370804 -0.120468564 0.0013161054 -0.06323193
000040 44 67 d6 3d 0d f7 a0 bd c9 d4 e2 bd c9 d1 87 bd
       0.10468915 -0.07859621 -0.11075742 -0.0663181
000050 06 e3 2d bc 3c 16 1a be cc 36 ba 3d 62 e4 ee bd
       -0.010613209 -0.15047544 0.09092483 -0.11664654
000060 68 b9 8e 3d 85 7f 44 bd ad e5 70 bd 3c bf 2d bc
       0.06968957 -0.047973175 -0.058812786 -0.010604676
000070 ea 3c be bd 4d 73 df 3e 62 0a 4d 3d 11 6f 80 3d
       -0.09288962 0.43642655 0.05005873 0.06271184
000080 f4 c2 52 3d 16 98 d7 3b db ed 88 be 69 f5 16 3e
       0.051455453 0.0065794094 -0.2674397 0.14742054
000090 4d 9d f0 3c c6 ac 5b be ec 8c 95 3d 61 b5 bc 3d
       0.029371882 -0.21452627 0.07302269 0.09214283
0000a0 65 2c cf bd 36 3e be 3e 12 c9 46 bd c1 cd 41 3d
       -0.101158895 0.37156838 -0.0485316 0.047315363
0000b0 2e 6f 0c be a6 4a 93 bd bb 5d be bb f1 4e 10 3e
       -0.13714287 -0.071919724 -0.0058095134 0.14092614
0000c0 9f a3 a6 bc 55 24 c4 3d 7a 07 e9 bb 8a 4a 96 bd
       -0.020341692 0.09577242 -0.007111487 -0.07338436
0000d0 6b 92 f2 3d 21 7c 1a 3d 85 dc 53 be d5 3b a4 3d
       0.11844333 0.037716035 -0.2068959 0.080192246
0000e0 ac 07 36 3b 09 1d ce 3d c5 b4 b7 be 88 47 4e 3e
       0.002777557 0.10064132 -0.35880104 0.20144475
0000f0 e8 f4 44 be 81 39 d5 3c c8 0b 0d 3d 3e d8 0b 3e
       -0.1923405 0.026028397 0.034435064 0.13656709
000100 60 d7 98 3d 48 2e 84 bc 11 0d ad be 33 34 7d 3e
       0.074629545 -0.01613535 -0.3379903 0.24726944
000110 41 fa 27 bd d9 97 42 be 72 ea 17 bd 4a 89 1b be
       -0.041010145 -0.19003238 -0.03708882 -0.1518909
000120 1c 26 38 3e a2 76 2b 3e 3e 76 06 3e 4a 82 54 3e
       0.17983288 0.16744474 0.13131043 0.20752826
000130 ff d6 05 3e 8b b0 c2 be 35 cb 10 bc 90 db 97 be
       0.13070296 -0.38025317 -0.008837511 -0.296597
000140 ce de 8d 3c f1 b8 e4 3e b3 dd e7 bc 0a 51 88 bc
       0.017318156 0.4467235 -0.028303957 -0.016640205
000150 11 9f ff 3c 04 ed 13 3d 83 6f a6 3d b0 66 ec 3b
       0.031203778 0.036114708 0.08126738 0.0072143897
000160 d4 60 0c 3f ea 29 a6 bc 97 df e7 3c ea f6 67 3c
       0.5483525 -0.020283658 0.028304858 0.01415799
000170 1b 65 04 3c 71 08 24 be 1f 07 85 bd f9 9d aa bd
       0.008080746 -0.16018845 -0.06495499 -0.08330912
000180 3f 70 28 bc 8a 9d b5 bd f9 ed e3 3c df a7 47 3d
       -0.010280668 -0.08867939 0.027823435 0.04874408
000190 42 1c c5 bd 51 91 50 be 89 a6 0e be d2 2c 68 3c
       -0.096245304 -0.20367934 -0.13930716 0.014170842
0001a0 a0 27 5f be 15 ac 2e 3e fd 76 9e be 27 d2 e2 bc
       -0.2179246 0.17057832 -0.30950156 -0.0276881
0001b0 46 ad 54 be 88 81 05 3e 25 03 e8 3d 6f 67 57 3e
       -0.20769224 0.13037694 0.11328725 0.2103555
0001c0 6a 9c bc bd 06 bc 4d 3d b6 e2 21 3e 8a a8 4a 3d
       -0.09209521 0.05022814 0.1580914 0.049477138
0001d0 09 48 3d 3d 38 71 80 3d e3 dc 2f bd 3f ab 1d 3e
       0.046211276 0.06271595 -0.042935263 0.15397356
0001e0 d7 a7 4e 3d f9 3b 44 bd da 03 2a bf 0b 90 24 3e
       0.050453033 -0.047908757 -0.66412127 0.16070573
0001f0 3b 73 45 3d 51 ac 39 bc 37 d8 9d ba c8 82 10 3d
       0.048205595 -0.011332587 -0.0012042586 0.035280973
000200 fc eb 9b 3c 14 46 e6 3d 6b 92 87 3e b7 e4 86 bd
       0.019033425 0.11243835 0.26478896 -0.06586593
000210 c8 f5 33 be d7 92 1a 3d 81 cf 54 3e 09 34 5f 3e
       -0.17574227 0.037737694 0.20782281 0.21797194
000220 69 ee 54 bd 11 97 64 bc 8d 1d 32 bc ee 05 3f bd
       -0.05198518 -0.013952033 -0.010871303 -0.046636514
000230 89 d7 b9 be df 96 69 be 9c e1 e2 bd 46 81 0f 3b
       -0.36297253 -0.22811459 -0.11078188 0.0021897121
000240 2e f1 f7 bb a1 0d 7d 3e 04 85 bb bd 39 3f 18 bc
       -0.0075665927 0.2471223 -0.0915623 -0.009292417
000250 62 32 02 bd ad 0e 4f 3e 22 c9 f9 3d fe 99 61 be
       -0.03178633 0.20220442 0.12196566 -0.220314
000260 27 bc ea 3d b9 05 75 3d 32 94 0e be 05 0f 48 3e
       0.114616685 0.05981991 -0.1392372 0.1953698
000270 64 ad 55 be 33 12 00 3d 44 c0 11 3d c1 d2 6a 3e
       -0.20866925 0.031267356 0.03558375 0.22931959
000280 f5 c3 34 3d 4d 04 4f bc 44 ca 79 be 8a 2d a5 3e
       0.04413219 -0.012635303 -0.24393564 0.32261306
000290 94 ec c8 3b 1d 5f 09 be 7f 7f 3a be ae 59 0e 3e
       0.006131718 -0.13415189 -0.18212698 0.13901398
0002a0 2e 9b 61 bb 3e 19 ad 3e ef 8f 8f ba 32 d8 0e 3f
       -0.003442477 0.3380832 -0.001095293 0.5579864
0002b0 32 7c 9d bd 03 04 59 be 3e 6d b5 3d 5f 30 3a 3d
       -0.07689704 -0.21192937 0.08858727 0.045456287
0002c0 25 63 1e 3d 32 d7 ef bc c3 cd db bd a0 0d fb bd
       0.03866877 -0.029277418 -0.10732605 -0.12258458
0002d0 3c a7 62 bc 7c a7 5b 3d 25 f4 9e 3e fe 18 58 bd
       -0.013833817 0.053626522 0.31045642 -0.05275821
0002e0 b9 ed ba 3d 37 eb dc bc 19 62 87 bd b4 53 31 3f
       0.09127373 -0.026967628 -0.066105075 0.69268346
0002f0 32 6a 81 bc 26 bd d5 3d b6 0a 75 3d 8e 79 c3 bd
       -0.015797708 0.10436468 0.059824668 -0.09544669
000300 d5 08 e5 b9 b2 93 b0 3d 08 e5 0c be 01 df 84 bd
       -0.00043684864 0.08621921 -0.13759243 -0.06487847
000310 9b 4e c7 bd 15 19 9a bd 9e b9 c1 3e a5 a9 2e 3d
       -0.0973179 -0.07524315 0.37836927 0.042642254
000320 f5 80 85 bc 09 d6 9d bd cf b9 af bd f4 66 4f be
       -0.016296843 -0.077068396 -0.08580362 -0.20254117
000330 2a 26 c3 bd 1a ca 2f 3d f5 ba c5 bd 63 65 bb 3d
       -0.095287636 0.04291735 -0.096548 0.09150197
000340 f6 93 13 be 76 1f c5 be c3 7f c8 3c 90 09 b4 3c
       -0.14411911 -0.38500565 0.024474984 0.021977216
000350 2b 84 84 3b dc 7f 38 3e 5f 49 3c 3b af 85 8c 3e
       0.004044076 0.18017524 0.0028730256 0.27445742
000360 c2 11 51 be 44 4e 41 bd 3d 62 d7 3d 66 6f 33 3d
       -0.2041693 -0.04719378 0.10516784 0.04380741
000370 a3 74 d9 bd 11 9c 01 3e 7e db 05 3d 97 57 9a be
       -0.1061795 0.12657191 0.032680027 -0.3014495
000380 cf 9e 39 bc bf ed 2c 3e 58 0c c8 3c bf 9f b5 3d
       -0.011329367 0.16887568 0.024419948 0.0886836
000390 71 b2 f4 3d b5 1b 49 bd a9 a2 22 be d8 41 e4 be
       0.119480975 -0.04909869 -0.15882362 -0.44581485
0003a0 95 5b b4 3d 93 7d b3 3e f1 d6 48 be 8a c6 fc 3c
       0.088065304 0.35056743 -0.19613244 0.03085639
0003b0 d9 02 df 3d 05 87 b9 3d 4a 85 88 3d 5c 3b 89 3e
       0.10889215 0.09058956 0.06666048 0.268031
0003c0 16 e6 84 bd bb 18 b4 3d 95 1d 84 bd 84 e6 02 bb
       -0.06489198 0.087937795 -0.06450955 -0.0019973824
0003d0 18 60 86 3d b9 9c bb bd 84 6d 9b be d8 31 e9 3a
       0.06561297 -0.09160752 -0.3035699 0.0017791344
0003e0 9b 6f 88 3d 64 18 99 3d 3a 14 e6 be 4e 2b 56 3e
       0.06661912 0.07475355 -0.44937307 0.20914957
0003f0 77 40 98 3d 17 cf b8 bd 6b f2 d9 3d ae 68 61 3b
       0.07434171 -0.09023874 0.10641941 0.003439467

model1.conv2.conv1.bias f4 [64]
000000 8c d5 08 3e da 40 35 3c 96 ef 8d bc 97 10 14 3e
       0.13362712 0.011062825 -0.017326158 0.14459454
000010 e2 4d 3d 3d db 86 95 be 27 95 35 3e 18 74 2e 3e
       0.046216853 -0.2920445 0.17732678 0.17036474
000020 c9 58 cf bd 03 37 34 be 55 99 7b bd fb f4 1a 3d
       -0.10124356 -0.1759911 -0.061425526 0.037831288
000030 18 10 f0 bb 3c ac 99 3d f4 97 8b bd a4 e8 97 3e
       -0.0073261373 0.07503554 -0.06816092 0.29669678
000040 6e 58 0c 3e af 85 84 be 9d 1a 72 3d 91 2a 87 be
       0.13705608 -0.25883242 0.05910741 -0.26399663
000050 d8 90 40 bd 7e c5 4d 3e a2 dc 3f 3d 3c e2 bd bd
       -0.047013134 0.20094869 0.04684127 -0.092716664
000060 90 35 84 3c b7 ea 3e 3e ad f2 c2 3d 35 d8 80 be
       0.016138822 0.18644224 0.09518943 -0.25164953
000070 9d c2 40 bd f2 1d 27 3d f7 44 c5 3d 99 bf a1 3e
       -0.047060598 0.040800042 0.096322946 0.3159149
000080 1e 2d 13 3e d6 34 e3 3d 34 86 d2 bd 9a 77 35 3e
       0.1437268 0.11094062 -0.102795035 0.17721406
000090 41 f6 7b be f8 ba 76 be 8f 3b 03 be dc 0c ac 3d
       -0.24605657 -0.2409476 -0.12815689 0.0840089
0000a0 ef f6 f1 3d b4 5a 03 3e d5 86 37 bd 8b 52 91 3d
       0.11814677 0.12827569 -0.04480632 0.07095822
0000b0 8a a8 16 3e 83 c1 a2 bd 38 36 19 bd eb c4 3b 3d
       0.1471273 -0.07947066 -0.037405223 0.045842092
0000c0 b3 ed f0 bd 05 81 78 3d 66 e9 af be 0d 8f 41 be
       -0.117640875 0.060669918 -0.34357756 -0.18902226
0000d0 a2 a7 c7 bb af 26 b9 bc 1d c4 b1 3d 92 81 21 be
       -0.0060929814 -0.022601454 0.08679984 -0.15772083
0000e0 4d 90 c4 bc 74 49 52 3e 73 1b d3 bd 9c ce 66 bd
       -0.02399459 0.20535833 -0.1030797 -0.05634938
0000f0 83 f4 44 3e c2 fc 9d bd fa 62 a9 bd 86 c7 81 3e
       0.19233899 -0.07714225 -0.082708314 0.25347537

model2.conv1.conv1.weight f4 [64, 64, 1, 1]
000000 78 6f 29 be 2c a2 78 3d 11 7e ab bd 3e 97 85 bd
       -0.16546428 0.060701534 -0.08373655 -0.06522988
000010 67 85 0a 3d 0d e4 2f 3c 05 18 2a 3d 37 12 d0 3d
       0.03381863 0.010735524 0.041526813 0.10159724
000020 f2 0f 28 3e 40 2c 00 be dc 72 12 3e e0 32 81 3b
       0.16412333 -0.1251688 0.14301628 0.0039428324
000030 da 44 2c 3c e7 85 79 3c 92 f1 23 bc d5 f9 08 be
       0.010514462 0.015229679 -0.010006325 -0.13376553
000040 d0 83 45 be 7f 98 73 bd 87 aa cd 3d b8 19 23 be
       -0.19288564 -0.059471603 0.10042291 -0.1592778
000050 0b b8 7d bd 54 40 ba 3d ac 32 98 3d 29 b5 17 be
       -0.061943095 0.09094301 0.0743154 -0.14815201
000060 c2 6f 7d 3d fa 37 9b 3d 24 2f be 3a 2a 60 ce 3d
       0.06187416 0.07579036 0.0014509899 0.100769356
000070 c1 36 9b 3d 2a e7 ae 3e 1d 0d 1f bd ac 48 c3 3d
       0.07578803 0.3416074 -0.038830865 0.095353454
000080 80 71 0b bd 75 a8 91 bd 1b da 8a 3d a1 5a 4e 3d
       -0.03404379 -0.07112209 0.067798816 0.0503794
000090 f6 2c 77 3c 7b 4a 44 3d 13 7a bd 3d 5b 92 a7 3d
       0.015086403 0.047922593 0.092517994 0.08182212
0000a0 d2 9f 02 3d ac 24 4e bd b3 5d 15 bc c0 de 29 3e
       0.031890698 -0.05032794 -0.009116578 0.16588879
0000b0 ed ec 62 3d ee 1c 9d 3c 27 15 ae bd 71 53 21 be
       0.05540173 0.019178834 -0.08500128 -0.15754487
0000c0 38 b2 39 3d ae 5b 8c bc 21 12 4d 3c 36 a6 15 bc
       0.04533598 -0.01713356 0.012516529 -0.009133866
0000d0 74 9f da 3d 19 76 98 3c 66 23 96 3e b9 4a 93 3d
       0.106749445 0.018611 0.29323882 0.071919866
0000e0 56 c4 08 bd 8e 9c 4c 3d 25 06 35 bd e9 37 af 3c
       -0.033390366 0.04995399 -0.044195313 0.021388965
0000f0 cb 9c 4b bc 56 56 c9 bd ad e1 5c 3c e8 f9 33 3d
       -0.012427519 -0.098309204 0.01348154 0.0439395
000100 fc df 90 bd ce 24 19 3d 0f 68 0a bd 57 22 14 3e
       -0.07073972 0.037388615 -0.033790644 0.14466225
000110 15 98 62 be 20 ff 31 be 4a aa d2 bb 0a 1e 85 bc
       -0.22128327 -0.17382479 -0.0064289914 -0.016249675
000120 d1 ea 78 bd 1d d0 1b 3d 63 c5 6f ba 0a bc de 3c
       -0.060770813 0.03804027 -0.00091465394 0.027189273
000130 6f 7d 25 be 7a 29 ff 3c 4f a3 7d 3d 39 c8 0a 3e
       -0.1616113 0.031147707 0.06192332 0.13552941
000140 aa 33 18 3d 89 8b 68 be 86 88 d8 3c bf 60 1b be
       0.037158646 -0.22709478 0.026432287 -0.15173624
000150 1e 63 11 bd 01 98 34 3d 78 76 9a bd d6 47 40 3d
       -0.035494916 0.044090275 -0.07542127 0.046943508
000160 00 d3 48 bd 43 9c 38 3e 0b 2a bc bc 67 12 a2 3e
       -0.04902935 0.18028359 -0.022969266 0.31654665
000170 ed 88 0c be 8f ff 5b bc 2d 78 8f 3c cb 99 dd 3d
       -0.13724108 -0.013427629 0.017513359 0.10820349
000180 cd 25 b5 bd 6b a4 99 3e 27 21 04 be fd b1 b4 3d
       -0.088451006 0.30008253 -0.12903272 0.08823011
000190 b5 dc 06 3c 0a d9 8e 3d fc 7b 24 3c cc 8c 96 bb
       0.008231332 0.06974991 0.010039326 -0.004594421
0001a0 4a 29 48 3e 06 13 25 3d 9b ad 05 be ed be 35 3e
       0.19547 0.040301345 -0.13054506 0.17748614
0001b0 12 bb a8 bd 7b 99 84 3e 53 2d b5 bd 4f 79 6b bd
       -0.08238806 0.25898346 -0.088465355 -0.057488736
0001c0 68 3c f4 3c a0 6f 90 3e 81 04 d3 bb 20 72 80 3e
       0.02981396 0.28210163 -0.006439746 0.2508707
0001d0 10 ca bb bd 80 43 e7 bc 36 18 ba bc c5 d4 00 3e
       -0.091694 -0.028230429 -0.022716623 0.12581165
0001e0 4f fb bd 3d 75 12 df 3d b7 6a c7 3d d2 f9 bd 3d
       0.09276449 0.10892192 0.09737151 0.09276165
0001f0 59 7f e6 bc 78 53 b2 3c 53 42 2b 3e ba 87 6b be
       -0.028136896 0.021768317 0.1672452 -0.23000994
000200 29 a5 e2 bc df cf b9 bc b1 0e 7d 3d 61 c4 9a 3c
       -0.027666645 -0.022682128 0.06178159 0.018892469
000210 c1 fa b9 3d 1d 73 56 3e 8c 96 bc bd b5 dc a9 bd
       0.09081031 0.2094235 -0.09208402 -0.0829405
000220 ed dc 36 be 76 1b 0a be fb a1 96 3e 49 13 a9 3e
       -0.17857714 -0.13487038 0.29420456 0.33022526
000230 fa 06 1f 3d 58 c7 8a 3c 83 4a dc 3d a8 cd 05 bd
       0.038825013 0.016940758 0.107563995 -0.032666832
000240 89 3d cf bc f8 d5 06 be a1 41 d1 bc e9 0a 03 3e
       -0.025297897 -0.1316756 -0.02554399 0.1279713
000250 33 12 ee bd 27 c1 b9 3d 77 e4 40 bd 54 1c ba 3d
       -0.11624565 0.09070044 -0.04709288 0.090874344
000260 bc 66 80 3c 97 63 4c bc 15 0d be bc fc 4c 51 3d
       0.015673988 -0.012474916 -0.023199597 0.05109881
000270 a7 09 34 3e 92 ec 85 3e ec 05 3c bd 9a 97 1f 3e
       0.17581807 0.2615705 -0.045904085 0.15585175
000280 83 64 46 3d a4 8c ae 3e f7 be 9f bd ee ee 1f 3c
       0.0484357 0.34091675 -0.078000955 0.009761555
000290 d8 8d b4 3d 41 6e d0 3c 61 0a c3 bc 5a 5b f7 bc
       0.08816117 0.025443198 -0.02380866 -0.030194927
0002a0 9e 93 e3 bc a9 f8 ac 3d 2b a5 b9 3d 13 27 6a bc
       -0.02778035 0.08445866 0.090647064 -0.014291543
0002b0 69 62 36 bd 9c 8d fe 3d 63 3e a3 bd bc 24 b7 bd
       -0.044527445 0.124293536 -0.07970884 -0.089425534
0002c0 97 12 86 bd cb e2 d9 bc 17 07 ef 3d c3 b4 ab 3d
       -0.065465145 -0.026597401 0.11671274 0.08384087
0002d0 45 57 e0 bc 6c 2d 4b 3d 06 27 8a bd f0 14 84 bd
       -0.027385363 0.049603865 -0.067457244 -0.06449306
0002e0 1d 59 66 3b 71 0b ad bb 8e db d2 ba 4e 4d ae 3e
       0.003514833 -0.005280905 -0.0016087161 0.34043354
0002f0 22 79 1a 3c 88 47 fc bc ef 2b 9c bd 41 c3 83 3e
       0.009428294 -0.030795828 -0.07625567 0.25734904
000300 9b bd 8e 3d 7a 6a 7d 3d 86 9e 9b bd 1c a1 90 bd
       0.06969758 0.061869122 -0.07598595 -0.07061979
000310 d6 ed 1f be 44 02 53 be d0 89 94 3b e0 39 88 be
       -0.15618071 -0.20606333 0.00453303 -0.26606655
000320 8a 88 b3 3d 0d 11 de bd cd c6 4a be c8 e4 06 be
       0.08766277 -0.10843096 -0.19802399 -0.1317321
000330 31 84 f1 3d ae e3 40 3d 79 e4 b7 bc 63 09 f6 bc
       0.11792792 0.047092132 -0.022447811 -0.030033773
000340 c2 3f 47 bb 53 4b 30 3d 38 37 f5 bd ab 89 31 bd
       -0.0030402993 0.043040585 -0.11973423 -0.04334418
000350 01 f1 a8 bb 34 8d cc 3d 12 d2 89 3a af 09 77 bd
       -0.005155683 0.0998787 0.0010514876 -0.06031197
000360 17 29 8d 3d f0 30 3f bd 3b 1b 61 3d 52 53 e3 bd
       0.06892603 -0.04667753 0.05495761 -0.110998765
000370 72 a3 df 3d f1 5b 15 3e b8 da 28 be 0d a3 8f 3e
       0.109198466 0.14585854 -0.16489685 0.28054085
000380 9e 61 d0 bd 74 30 21 be 5f d6 4a 3d e1 61 0e 3e
       -0.10174869 -0.1574114 0.049520846 0.13904525
000390 ed 56 2a 3e a4 59 e2 bd 35 ff 44 3c c4 36 78 bd
       0.16634722 -0.11052254 0.012023737 -0.060599104
0003a0 a5 a2 2c be 2f 1e d3 3d 04 33 94 bd 3b 47 63 bd
       -0.16858919 0.103084914 -0.07236293 -0.055487853
0003b0 9c 63 3b be 15 10 5c bd 83 f7 6e bd 4f ea c5 3d
       -0.18299717 -0.053726275 -0.058341514 0.096638314
0003c0 32 71 d1 bd cc 20 2e bc 04 f4 26 3c b0 c6 ee bd
       -0.102266684 -0.010627937 0.010190014 -0.116589904
0003d0 e8 c8 4a 3c 77 e3 ca 3d 84 fe 84 3e 0e 0c b9 bd
       0.012377001 0.09906667 0.2597543 -0.090355024
0003e0 ee cb 5f 3d 56 e9 08 be 31 0f 2e bd 81 e0 c9 bd
       0.054637842 -0.1337026 -0.042494956 -0.09857274
0003f0 68 75 0f 3c be 87 46 3e 4b 76 47 bb 2b 06 93 bd
       0.008756019 0.19387719 -0.0030435498 -0.07178911

model2.conv1.conv1.bias f4 [64]
000000 06 b9 27 3d b2 97 08 be cb 8c 03 bd 51 04 25 3e
       0.040947936 -0.13339117 -0.032116693 0.16114928
000010 05 4c 31 3d 3d 7f 35 3e 89 5c 87 3d b7 6f c8 3d
       0.04328539 0.17724319 0.066094466 0.09786933
000020 4c c8 04 3e 2c 94 25 bd f1 fb 36 3e 64 b7 49 3d
       0.12967032 -0.04042451 0.17869546 0.04924716
000030 59 24 fd 3c 33 2f c5 3c 5f 58 71 3d 96 06 01 bd
       0.030901121 0.024070358 0.058922168 -0.03150042
000040 5a cc b5 bd 6f d1 b8 bd 28 24 bd bd 4e 6f 2d bd
       -0.088768676 -0.09024321 -0.09235412 -0.042342477
000050 5a 69 95 3b e8 5f 0d be 74 69 bd bc 0a 00 a8 bd
       0.004559678 -0.13806117 -0.023121573 -0.082031325
000060 97 6a e3 3b a0 98 6f bd c4 1d 83 bc 26 4b f3 3c
       0.0069401967 -0.058495164 -0.016005404 0.02969892
000070 85 b0 67 3c b3 f4 93 3d 20 36 db 3c 45 e5 27 be
       0.014141207 0.07224407 0.026759207 -0.16396053
000080 c7 02 e1 3d ff 77 d1 bd 0d e7 62 bd 50 09 9c bd
       0.10986858 -0.102279656 -0.05539613 -0.07618964
000090 99 4c a6 bd b4 3f 95 3c 15 49 3e bd c5 77 50 3e
       -0.081200786 0.018218853 -0.046456415 0.20358188
0000a0 f1 b3 74 bd 61 2c 94 bd c8 b5 47 3d 48 c6 87 bc
       -0.059741918 -0.07235027 0.048757344 -0.01657404
0000b0 c1 d5 87 3c 08 b7 eb 3d 5a 6c df bd d5 a9 b7 3d
       0.016581418 0.1150952 -0.10909338 0.0896794
0000c0 b9 2d e0 3d 78 2a 89 bd 49 62 82 bd e6 96 27 3d
       0.10946221 -0.066975534 -0.06366403 0.040915392
0000d0 86 45 b6 3d 7b 32 80 bd 17 a0 2d 3e 81 8f 83 bd
       0.08899979 -0.062596284 0.169556 -0.064238556
0000e0 9d 07 d8 bd 51 a1 e7 bc 10 bd 40 be 2d 92 f0 3d
       -0.10548327 -0.028275164 -0.18822122 0.11746631
0000f0 d9 b6 d6 bd e7 af 87 bd 89 1a fb bd 33 e4 30 be
       -0.10484094 -0.066253476 -0.122609206 -0.17274551

model2.conv2.conv1.weight f4 [64, 64, 1, 1]
000000 98 be 00 3c 11 c3 1e bd ec 11 c3 be a8 52 c4 bc
       0.007857941 -0.03876025 -0.3809961 -0.023965195
000010 f1 82 7e 3d 45 43 04 be 03 11 1c be f8 7f 05 be
       0.062136594 -0.12916286 -0.15240864 -0.13037097
000020 f4 ac f9 3d 0b 84 93 3e 3e 70 af bd 52 33 08 3c
       0.12191191 0.28811678 -0.085663304 0.008313017
000030 02 74 82 bd d9 87 8a 3d ab 4c ab 3b 0b 45 76 3c
       -0.06369783 0.06764192 0.0052276454 0.01503111
000040 3c 4d b2 3b fe 75 77 be f2 77 a2 3d cd 16 42 bc
       0.005441336 -0.24166104 0.07933034 -0.011846256
000050 d2 bc 42 be f3 5b 83 bc 8e 13 db bc 05 70 50 3d
       -0.19017342 -0.016035056 -0.026742723 0.05088808
000060 45 7c 80 3b 51 20 bc 3d 7d 99 ae bd 1b ac cb 3d
       0.003921064 0.09185851 -0.08525369 0.09944936
000070 b4 61 8f 3d 60 52 ac bd b4 16 9a 3d 3a 06 89 3b
       0.07001057 -0.08414149 0.075238615 0.0041816505
000080 38 d6 68 be db 9b 9e 3d 34 6c c0 3d 18 1f 51 bd
       -0.22737968 0.07744571 0.09395638 -0.051055044
000090 a6 92 12 be db 0d cb bd 63 60 76 bd 43 6b 0f 3e
       -0.14313754 -0.09914752 -0.060150515 0.14005761
0000a0 c1 92 cd bd 1a 77 ec bd 33 ed 4e be ab 8f 2e 3d
       -0.10037757 -0.11546154 -0.20207672 0.04261748
0000b0 05 f1 fe bd 38 4b 87 3e d7 70 7b 3c 02 99 13 3e
       -0.124483146 0.26424575 0.015346727 0.14413837
0000c0 23 e7 32 3d db 1c d6 3d 32 10 44 be f1 4e 94 bd
       0.04367746 0.104547225 -0.19146803 -0.072416194
0000d0 84 58 51 3e 50 3c eb 3d 4d b5 8f 3c 71 a8 66 3d
       0.20443922 0.11486113 0.017542506 0.056312982
0000e0 5b 57 d5 bd ba a8 65 3d ad 76 b6 3b e4 17 d1 bd
       -0.10417052 0.056069113 0.0055683465 -0.10209635
0000f0 d4 40 7f bd 20 b7 33 3e 89 5b 37 3c 7e 1e 90 bd
       -0.062317684 0.17550325 0.011191257 -0.07037066
000100 7c 1b 7d 3e 0b d3 07 3e 5f a6 50 3d 32 9a 4d 3e
       0.24717516 0.132641 0.050939914 0.20078352
000110 a0 16 a2 3e 24 37 0a bd 32 24 af bc 1f 6e 50 bd
       0.31657887 -0.033743992 -0.021379564 -0.05088627
000120 9f b8 8f bd 66 68 49 bd a7 ed 20 3e 1f f5 5a bd
       -0.070176356 -0.049171828 0.15715657 -0.053456422
000130 8f 38 21 3e 1e 78 d1 bd ff 20 18 bd 7b b1 5b be
       0.15744232 -0.10227989 -0.037140843 -0.21454422
000140 a9 20 09 3e e5 18 0b bd 1e ad 25 be 03 ea e4 bd
       0.13391365 -0.03395929 -0.1617932 -0.11177447
000150 18 55 c0 3d 5c 8c 3f bd 40 20 55 3e b2 7b 99 3d
       0.0939123 -0.046764717 0.20813084 0.07494296
000160 d7 0e bb bc 3e 33 0f 3e d3 9b 36 bc 0d a8 ca 3d
       -0.022834225 0.13984391 -0.01114555 0.098953344
000170 1b 0a 92 bd f3 9b ed bc be 18 2c 3d b0 96 84 bd
       -0.07130834 -0.029005026 0.042015783 -0.06474054
000180 60 72 64 3d 93 62 52 bd 48 e4 c2 bd e7 43 18 3d
       0.05577314 -0.05136354 -0.095161974 0.03717413
000190 cd d3 a4 bd 19 1e 23 3e 14 b4 fe bd 23 f6 44 bc
       -0.0804821 0.1592945 -0.12436691 -0.012021574
0001a0 64 05 6c 3d 31 b8 31 bd 72 52 49 bd c0 e2 09 be
       0.05762233 -0.04338855 -0.04915089 -0.13465405
0001b0 2f 8f c3 3c 6b 47 7d bd 51 9a 15 bd da 8c d9 3d
       0.023871986 -0.061835688 -0.03652412 0.106225684
0001c0 82 ae 97 3e b1 4d 62 3e db 69 10 3d 06 8f a2 bd
       0.29625326 0.2209995 0.0352572 -0.07937436
0001d0 01 34 06 bd ad e6 89 3e 0a e4 a7 3d 0a b9 04 be
       -0.03276444 0.26933804 0.08197792 -0.12961212
0001e0 72 bc 07 3d c8 87 ef 3c 15 58 9a 3c fb 8c b2 bd
       0.0331387 0.02923955 0.018840829 -0.08718296
0001f0 69 50 b8 bc f3 bf c2 bc f9 24 42 bd b4 3b 8e 3d
       -0.02249928 -0.02377317 -0.04739854 0.06944981
000200 f9 c5 d6 bd 1f 92 fc 3c 94 c9 0b 3d 09 a1 94 bd
       -0.10486979 0.030831395 0.034127787 -0.072572775
000210 e4 50 ee bc 17 b4 0d be d8 d0 85 bd 04 6a be 3b
       -0.029091306 -0.1383823 -0.065339744 0.005810978
000220 e1 c9 a3 bd 05 e8 f3 3d 99 20 68 bc 2f 7a 87 bd
       -0.0799749 0.119094886 -0.014167928 -0.066151015
000230 55 4a 08 bb 9c 33 ff bd c3 e7 9b 3e 9e b6 a4 bd
       -0.0020796258 -0.124610156 0.30450258 -0.08042644
000240 0f af 39 be 5c c3 04 bd 63 28 d0 3c e3 97 7a bc
       -0.18133186 -0.03241287 0.025409883 -0.015295002
000250 a6 41 c6 bd fb cf cc bc b2 2d e9 bd 58 d7 ab bd
       -0.0968049 -0.025001517 -0.11385669 -0.08390683
000260 ce 9a a2 3d 99 2f e1 bc 3a 75 bf 3d ce 20 41 bd
       0.07939683 -0.027488517 0.09348531 -0.047150426
000270 2d d6 2b 3d 1f 52 88 3e 51 5d 6e bd be d7 74 be
       0.0419523 0.26625153 -0.058194462 -0.23910424
000280 7c 92 b7 bc 2b f5 5b 3d d2 e3 91 3d f5 38 37 3c
       -0.022408716 0.053700607 0.071235314 0.011183013
000290 3c 9f 96 3d 8d 36 a6 3c 0e b9 59 be ba be ad bd
       0.0735459 0.020289684 -0.21261999 -0.08483644
0002a0 9b e1 cf bd 7d 8a 3b 3c df c3 c5 bd 67 cd 8b bd
       -0.10150453 0.011446592 -0.096565 -0.06826287
0002b0 c9 6c 82 bc 79 f9 cc bb 02 3a bb 3b 65 e2 59 3d
       -0.015921013 -0.0062553254 0.005713702 0.053194422
0002c0 71 a2 26 3e 8e 86 8c bd 52 c7 4c bc 36 c3 00 3d
       0.16272904 -0.06861602 -0.012498694 0.031436168
0002d0 34 28 dd bc 75 07 8c bd ea ef 1a bd 05 d0 34 bd
       -0.02699671 -0.0683736 -0.037826456 -0.044143695
0002e0 58 bb 07 3e 76 f4 91 3e 73 ca 42 3c 58 5f 54 be
       0.1325506 0.2850682 0.011889088 -0.20739496
0002f0 e9 20 75 3e ff ac d9 bd d8 01 09 be e6 f8 a6 bd
       0.23938335 -0.106286995 -0.1337961 -0.08152942
000300 9d e9 39 3d 8f f0 94 be 97 8c 5b 3d c2 f1 a7 bd
       0.045388807 -0.29089782 0.053600874 -0.082004085
000310 9b 9b cb 3c da 94 42 be ce fc 6c 3d 50 4e 9b be
       0.024854472 -0.19002095 0.05785828 -0.30333185
000320 1c 19 c4 3b 7b f3 d3 bc eb 0e 30 bd 87 1b 36 3e
       0.0059844386 -0.025872936 -0.042982977 0.17783938
000330 77 61 ef bd b3 a1 1e 3e 3c 5e 29 be 1d 54 e2 bd
       -0.11688512 0.15491371 -0.16539854 -0.110511996
000340 8c 45 06 be 4c 52 d8 bd 4a 16 39 be 1b 66 0a bd
       -0.13112468 -0.10562572 -0.18074909 -0.03378878
000350 9e 00 36 be fa 36 16 be f6 00 3f bd b0 8b 8b 3b
       -0.17773673 -0.1466941 -0.046631776 0.0042585954
000360 b6 ad 39 bd 39 9f 94 3d 4c 54 17 be 0f 76 79 bd
       -0.04533168 0.07256932 -0.1477825 -0.060903605
000370 b5 38 38 bd 6a 24 8e 3d b3 2d e7 bd b6 4d 59 3d
       -0.044975955 0.06940539 -0.11288013 0.053052627
000380 aa 0a 1d 3e 7f 20 64 3d 3b 1e 10 3d 5c 9b 8e bd
       0.153361 0.055695053 0.03518508 -0.06963226
000390 29 ab 3e 3c 4a 86 3f ba 9b 62 a4 bd 45 c9 cc 3d
       0.011637487 -0.00073060824 -0.0802662 0.099993266
0003a0 ca 7a d1 bc ad 8c e4 3d 68 35 3d bd f1 c0 22 be
       -0.025571246 0.11159644 -0.04619351 -0.15893914
0003b0 48 fd 63 be 30 b0 ab 3d 87 05 39 3d 0f 7b 05 bd
       -0.22264588 0.083832145 0.045171287 -0.03258806
0003c0 62 c3 d0 ba 6d 56 a0 bd c0 f7 3b 3e be 5d ea bd
       -0.0015927369 -0.078289844 0.18356228 -0.11443661
0003d0 dd 2c 06 3e 18 b8 f2 bc c9 e4 87 bd b3 b0 a8 bc
       0.13103051 -0.029628798 -0.06635434 -0.02059207
0003e0 71 10 8b bd 30 82 7e 3c 0f bc 19 bd 9d bf e1 3d
       -0.06790245 0.015533969 -0.037532862 0.110228755
0003f0 0c 15 32 3e 98 33 a6 bd 1e fd bd bc ec be 8b 3d
       0.17390841 -0.081153095 -0.023191985 0.06823525

model2.conv2.conv1.bias f4 [64]
000000 b9 41 af 3c d5 73 c3 bd f5 6c 89 3d d5 45 b5 bd
       0.021393644 -0.095435776 0.06710235 -0.0885121
000010 34 da 85 3d 88 18 63 bd 11 8b 98 bd a2 95 11 bd
       0.065357596 -0.055443317 -0.074484 -0.03554309
000020 41 a4 32 be 70 57 92 bd 54 cb b8 3b c2 48 d2 3d
       -0.1744547 -0.07145584 0.005639473 0.10267784
000030 cd 71 48 3e 63 de d5 3d 2c c5 aa 3c e1 d6 35 bb
       0.19574662 0.104428075 0.020845972 -0.0027746486
000040 08 33 ef 3d f7 17 1a 3d 70 06 9d 3d a0 09 33 be
       0.11679655 0.03762051 0.076672435 -0.1748414
000050 31 54 a0 be 7f 05 f4 bb ed 85 f3 bd a5 7c a2 b9
       -0.31314233 -0.0074469442 -0.11890779 -0.00030991915
000060 fb 00 3c bc 7e 8a 8f bc f6 61 d2 bb 56 2c b4 bc
       -0.011474843 -0.017522093 -0.0064203693 -0.021993797
000070 f5 88 49 3e a3 5c 2a bd 54 e4 6e 3d 36 90 6c be
       0.19681151 -0.04159225 0.05832322 -0.23101887
000080 aa fe 39 3d 85 11 63 bc 5c e1 1c bd b6 96 aa 3b
       0.045408882 -0.013859157 -0.038300857 0.0052059544
000090 9c 06 28 bd f7 b1 ed bd b1 d1 cb bd a2 db cc bd
       -0.04102193 -0.1160621 -0.09952105 -0.10002829
0000a0 01 b8 7f 3d 1e 67 38 3e 1b a8 ea bd ae 3c a1 bc
       0.06243134 0.18008086 -0.11457845 -0.019682255
0000b0 0d 78 e0 3b 9c 6f 29 be 60 7a d0 bd aa 41 08 be
       0.0068502487 -0.16546482 -0.10179591 -0.13306299
0000c0 54 7a 3f 3c 95 1a ec bc bc b4 51 3d 80 da be bd
       0.01168688 -0.028821269 0.051197752 -0.09319019
0000d0 f4 91 b5 bc 69 e0 c0 bb 6a 7a 0e be 28 54 7e bd
       -0.022164322 -0.005886127 -0.13913885 -0.062091976
0000e0 3e 49 57 be 1a 34 68 bc 80 44 49 bd 92 8b c7 bd
       -0.21024033 -0.014172578 -0.049137592 -0.09743418
0000f0 e5 75 03 be ba 98 98 3d 77 e0 6f bd 76 d7 9c be
       -0.12837942 0.07451005 -0.058563676 -0.30633134

model3.conv1.conv1.weight f4 [64, 64, 1, 1]
000000 b4 e4 bb 3d 6a 61 5b be 35 5a 49 bd 76 6a bb 3d
       0.09174481 -0.2142388 -0.049158294 0.09151165
000010 93 47 e5 3d 74 1d 63 bd 19 7c 5a 3d c0 dd 49 3b
       0.11195292 -0.05544801 0.053341005 0.003080234
000020 84 6d 6c bd a3 be 7f bb 20 95 c9 bd 9f 22 6c 3d
       -0.05772163 -0.003902354 -0.098428965 0.057650205
000030 1c 78 7f 3c a9 fb 52 3d 86 b0 44 bd 1c 0d b0 3d
       0.015592601 0.051509533 -0.04801991 0.085962504
000040 54 80 6c bd a7 aa 49 be 49 48 12 3e d8 13 2b 3e
       -0.05773957 -0.19694005 0.14285387 0.16706789
000050 2c 4d 9a bd 6b bc 70 3d 92 d6 37 bd 17 ec 96 3d
       -0.075342506 0.05877344 -0.044882365 0.07369249
000060 76 f0 ce bc a0 5f d8 bb 52 97 c8 3c 11 80 ec 3d
       -0.025261145 -0.0066031963 0.024486218 0.11547864
000070 78 c2 04 3d 19 9f 49 bd b2 01 82 3d fb f0 b6 bd
       0.032412022 -0.049223993 0.063479796 -0.08932682
000080 77 02 46 bd 43 30 14 3d bd a6 12 3e 1a 13 0b bd
       -0.048342194 0.03617884 0.14321418 -0.033953764
000090 aa a6 a7 3c 35 51 e6 3c 93 70 43 bd 34 7e 77 bd
       0.020465214 0.028114894 -0.04771478 -0.06042309
0000a0 de e7 d2 3d 82 0d 85 bc db c1 ab 3d 0e 8d b8 bd
       0.102981314 -0.016241793 0.08386584 -0.09011279
0000b0 7e ee 68 3e 62 30 13 bd 14 07 ce 3d 18 a4 a1 3c
       0.22747228 -0.035934813 0.10059944 0.019731566
0000c0 db f8 8b bb 12 e4 d2 3d 0e 09 64 3e f1 95 5a 3d
       -0.0042716092 0.10297407 0.22269079 0.05336565
0000d0 ec 55 60 3e ad be 93 3d db 03 83 bd d9 ff 0c 3e
       0.21907777 0.07214103 -0.0639722 0.13769473
0000e0 9c f6 1f be 00 0e ca bd 2c 15 54 bd 66 95 f6 bc
       -0.15621418 -0.098659515 -0.051778004 -0.030100536
0000f0 86 a8 67 3d 9d 29 95 bc 87 63 fa 3d 69 06 54 bd
       0.0565572 -0.01820832 0.122260146 -0.051763926
000100 cd 86 d4 bc 12 ec 98 bd 62 e0 8f 3d 76 2b b9 bc
       -0.025943184 -0.07466902 0.070252195 -0.022603732
000110 4f b9 32 3e f8 81 ff 3c 8b b2 4d 3c f8 ad 6d 3d
       0.17453502 0.031189904 0.012554775 0.058027238
000120 58 45 a5 3d 7d 2c ea 3d bf e9 f7 3d bd 40 29 ba
       0.08069867 0.11434267 0.121051304 -0.0006456485
000130 a3 58 4c 3d e4 1a eb bc 60 d5 17 3e 85 e9 75 bd
       0.049889218 -0.028699346 0.1482749 -0.060037155
000140 fa 9c b0 bd 51 25 de 3d e1 dd 2e bc 7a fd ec bd
       -0.08623691 0.10846961 -0.010673017 -0.11571784
000150 18 a1 0d 3e ef cf e1 bd 7d 43 16 3e f4 14 11 bd
       0.13830984 -0.11025988 0.14674182 -0.035420373
000160 c6 69 6e 3e e8 38 21 be 80 a5 0b be 75 08 de 3d
       0.23282537 -0.15744364 -0.13637352 0.10841457
000170 88 cf 1f 3e 9f 5f 51 3d 22 92 32 bd 43 a1 48 3d
       0.1560651 0.051116582 -0.043596394 0.048981916
000180 ba 2d 6c bd 73 28 d7 3c fb 73 d9 3b bb 88 36 3d
       -0.057660796 0.026264405 0.0066361404 0.04456399
000190 65 94 a3 bb 5a 7f 61 3d 97 19 b4 3d 23 5f a0 3e
       -0.0049920552 0.055053093 0.087939434 0.31322584
0001a0 3e b5 25 bd b1 30 49 3e f6 91 bd 3d 15 21 35 3d
       -0.04045605 0.1964748 0.092563555 0.044221003
0001b0 3a 46 28 be 7f d0 d6 bc 87 9b b1 bd 72 a8 8b b5
       -0.1643304 -0.026222466 -0.086722426 -1.0405331e-06
0001c0 a8 05 b8 bd ae 6c e8 bc 75 2a 55 3c 16 a7 5b bd
       -0.08985454 -0.028372135 0.013010611 -0.053626142
0001d0 c2 b5 6b 3d 89 01 1f bd 5d 82 ee 3d d7 63 82 bd
       0.057546385 -0.038819823 0.116459586 -0.06366699
0001e0 33 d1 f6 3d cc f8 db 3d 8b 78 48 bd 04 15 e7 3d
       0.1205162 0.107408136 -0.048943084 0.11283305
0001f0 48 a9 0b be 48 19 b0 3d 95 ac 98 bd 52 24 aa 3d
       -0.13638794 0.08598572 -0.074547924 0.08307709
000200 9c a4 ad bc 12 ff 5a 3d 82 f2 61 3b 3c 66 93 3a
       -0.021196656 0.05346591 0.0034476821 0.0011245678
000210 09 65 08 3e 2b 5c 05 3e 63 e6 29 bd ef 9e 99 bc
       0.13319792 0.1302344 -0.04147948 -0.018752543
000220 0b da a9 3d a5 63 12 bd 0c 24 03 be cf 95 b6 bd
       0.082935415 -0.03573956 -0.1280672 -0.089152925
000230 f2 1e f0 bd cc cc 90 3c 6f ad 43 be 7b 95 e2 3d
       -0.11724652 0.01767578 -0.19109128 0.110636674
000240 f9 a3 47 3e 35 fd f9 bb 42 70 90 bd f3 f3 80 bd
       0.19496144 -0.0076290616 -0.070526615 -0.062965296
000250 43 dd 9a 3c c7 09 ab 3d 11 05 3d bc 7e a2 be bc
       0.018904334 0.08351474 -0.011536852 -0.023270842
000260 2f 6c e8 3d 04 cc 35 3e c9 1b 56 bd 95 35 c7 bd
       0.113487594 0.17753607 -0.05227259 -0.09727017
000270 d5 f5 d3 bc 98 76 d0 bd 9f 4c d6 37 e1 9c ac bd
       -0.025874058 -0.1017887 2.5546467e-05 -0.0842836
000280 17 ab 4c bc 90 c7 62 be c9 24 a2 bd 58 83 8f 3d
       -0.012491963 -0.2214644 -0.079171725 0.07007474
000290 52 23 4d bc 98 b7 ca bc d2 56 6b bc d5 98 91 bd
       -0.012520628 -0.024745747 -0.014363961 -0.071092285
0002a0 20 b9 25 bb 41 f5 b6 bc 41 a6 b7 3c e3 51 20 be
       -0.0025287345 -0.022333743 0.022418143 -0.15656237
0002b0 f7 0e 8e bd b8 89 11 be 36 b4 f4 bb fb d0 8b 3d
       -0.06936448 -0.14212692 -0.007467772 0.06826969
0002c0 10 94 27 3c 1c 5e 8f 3c 68 18 5b bc 6b f5 f8 3d
       0.010228172 0.01750093 -0.013372518 0.12156185
0002d0 8f cd e6 bd 7d 82 e9 3d 5c cb 52 3c 1c 2e 11 3d
       -0.11269676 0.11401842 0.0128658675 0.035444364
0002e0 34 eb b1 bd 98 f8 91 3d d7 20 8f bd d8 a1 a0 3d
       -0.086874396 0.071274936 -0.069886856 0.07843369
0002f0 c9 80 9b bd 42 c2 93 3d ed 1c c3 bc 07 68 eb 3d
       -0.07592923 0.07214786 -0.023817504 0.11494451
000300 40 81 06 bd 92 6d 9a bd 39 04 20 3d 35 4d a6 3d
       -0.032838106 -0.0754043 0.039066527 0.08120195
000310 61 99 9b 3a e7 1a 84 3c 41 95 ac 3d 3c 71 78 3c
       0.0011871272 0.01612611 0.084269054 0.015163716
000320 87 d8 84 bd 77 51 95 3e 85 84 99 bc 3d 90 ad bc
       -0.06486612 0.29163715 -0.018739948 -0.021186942
000330 bc e1 a5 bc 40 7e d2 3d 56 94 97 3d e5 db 02 bd
       -0.02024924 0.102779865 0.0740134 -0.03194799
000340 4e 6c f0 3d e2 8a 66 bd 93 a3 45 3c 30 43 f2 3d
       0.117394075 -0.056284793 0.012062925 0.11829221
000350 70 04 43 3d 7c b8 3f 3d 4c b7 f7 3c 90 17 2e 3d
       0.047611654 0.046806797 0.03023877 0.04250294
000360 c7 7f b2 3d 43 ad 24 be cb b3 1e 3d e1 1d c6 bc
       0.08715778 -0.16081719 0.038745683 -0.02418417
000370 7e 56 2c bd 0b 7d a7 3a d0 01 10 be a4 34 24 bd
       -0.042074673 0.0012778355 -0.14063191 -0.040089265
000380 94 2f e9 bc 94 fe 48 be e3 58 4c be f2 08 3a bd
       -0.02846507 -0.19628364 -0.19955783 -0.045418687
000390 6e 9b fe 3d 49 b3 43 3d 42 5d ab 3d 69 99 91 3d
       0.124319896 0.0477784 0.08367397 0.07109339
0003a0 77 54 a7 3e 3d ce 9c 3c 8f 27 9f 3c f6 b1 34 be
       0.3268163 0.01914131 0.019428043 -0.17646012
0003b0 a4 61 03 be 60 c6 c6 3d 34 e5 7f 3d 14 4c 43 3e
       -0.12830216 0.09705806 0.062474445 0.1907199
0003c0 6b bf 19 3b 8e b3 0b 3d 43 de b4 bd 56 c0 30 3b
       0.0023460041 0.034106784 -0.088314556 0.002697011
0003d0 49 16 f7 bd ed c8 0c 3e 67 1b 8b bd b0 84 33 3d
       -0.120647974 0.13748522 -0.06792336 0.043827713
0003e0 08 9f 9d bb dc 9c e9 bd fb ba 2f bd 63 9d 62 bb
       -0.004810218 -0.11406872 -0.042902928 -0.0034578673
0003f0 e7 a7 0b be 15 d5 05 be 88 02 7a bd 89 b0 0d 3d
       -0.13638268 -0.13069566 -0.06103757 0.034592185

model3.conv1.conv1.bias f4 [64]
000000 c4 f2 51 3e 04 ed 07 be 50 f4 e2 3c 20 e2 90 bd
       0.20502764 -0.13274008 0.027704388 -0.0707438
000010 25 3f a3 3d 0d 2b b1 3e 4f 31 8c be db b3 dc bd
       0.07971028 0.34603158 -0.2738137 -0.10776492
000020 8c 42 0d 3e ce bc b3 3d 4c ec e7 3d 33 eb 6d bc
       0.13794917 0.08776246 0.11324367 -0.014521408
000030 0b 65 10 bc fc c5 a2 3d 0a 1a f5 3d c9 a3 0e 3d
       -0.008813153 0.07947919 0.11967857 0.034824166
000040 36 91 fe be 6e d4 0c be c7 c2 fc 3d 17 5b 5d be
       -0.49720162 -0.1375291 0.12341838 -0.2161678
000050 a2 5f 3a bd 4e 1d 3f bc f0 25 db ba ed 8e 33 3d
       -0.04550136 -0.011664702 -0.001671968 0.043837477
000060 66 b9 4a 3d 65 da 23 bd c9 f1 28 be 26 b4 8c 3c
       0.049493216 -0.0400032 -0.16498484 0.017175745
000070 e1 68 47 bd c2 da 2c 3e 7e cb 0e 3c 97 21 2b 3d
       -0.048684005 0.16880324 0.0087155085 0.04178008
000080 97 2c 6c 3e e2 b8 71 3d 87 ee 5a be a1 e0 07 3e
       0.23063885 0.05901421 -0.21380053 0.13269283
000090 10 02 4d 3d 94 70 13 bd f8 78 61 bc 05 0a f1 bd
       0.050050795 -0.035996035 -0.013761751 -0.11769489
0000a0 d9 46 57 bd d9 6b 74 3d 8d 10 91 bd 1e 81 cf 3c
       -0.0525578 0.059673164 -0.07083235 0.025330123
0000b0 61 cb bc 3b 20 1c 57 bd 8a 9e 77 3d 77 5a 05 3d
       0.0057615493 -0.052517056 0.06045393 0.032556977
0000c0 c9 93 c0 3d e2 6c 1f 3d 32 e6 e8 3d 6f d7 9c 3d
       0.09403188 0.038922198 0.11372031 0.07658278
0000d0 6e a0 55 3d df 39 01 3d 77 5e 88 b9 0f 63 71 bc
       0.05215495 0.03154933 -0.00026010323 -0.01473309
0000e0 83 3b fa 3b 1a 44 ee 3c 23 59 d2 3c 56 49 36 3d
       0.007636489 0.029085208 0.02567727 0.044503532
0000f0 92 f6 5e bb 58 b9 98 3d 81 7b d7 bc db 56 88 3d
       -0.003402148 0.074572265 -0.026304008 0.06657191
